best_model.pth (torch, 644849 bytes, 3 tensors)

fc1.weight f4 [400, 400]
00000000: cc26 e83c 8e81 d6bb a4df bf3b 5310 a6bc
00000010: 8595 1d3d 83da b33c 3bd0 40bd 0345 bebc
00000020: 2804 f939 959b d33b def2 1fbd 0740 b0bc
00000030: c552 53bc 9176 483d bc58 fb3c d1e7 f53c
00000040: 5fb1 3fbd b161 873c e188 70bc 2da2 c03c
00000050: f0ff 1c3c a37b 303d 582b 18bc 74f6 5b3b
00000060: 9b8a dfbc 29df 1abc 7681 86bc 184f 22bd
00000070: 3bc6 35bd 9071 3e3d ea14 d43c 1464 cebc
00000080: da2b 273d bb43 ec3c be85 29bd b82b 2fbd
00000090: e426 25bc e608 f8bc 227b cbbc 2be7 1f3d
000000a0: 006c bcbc 52f5 9e3c 0ee4 2e3d a565 d8bc
000000b0: a5aa f0bb 9197 563c b1d1 ac3c c19e a03c
000000c0: 2df1 473c b3df 2a3d ae5f efbc 930c c13a
000000d0: 36d3 02bd 4035 48bc 441b 13bd c8fe 383d
000000e0: 9976 233d 678e 9d3b cdac e7bc d394 0b3d
000000f0: e30a 07bd f6c0 10bd da13 a9bc 3c45 96bc
00000100: 78f7 b13c 5006 13bd f550 5ebc 406f 18bd
00000110: 6da6 dd3c 76b4 92bc d32b cd3c f09a 893b
00000120: 59e5 5abc cdcf 1cbc c430 b4bc cd0d 9e3c
00000130: b129 073d 7681 353d 384b f93c 1996 393d
00000140: 4ad9 da3c 0aa4 4e3c 5cb1 b3bc 2023 50bd
00000150: 80ef 81bd 1967 9abc d82a be3c 24df c8bc
00000160: 5f09 a53c 5944 633c 924f 24bd f8e5 a1bc
00000170: 44b5 413d 4454 cebb 41b1 00bd 797f 56bc
00000180: aae8 4d3d 0e92 9cbc 4359 db3c 9a8e 19bd
00000190: 3422 cabb 0f47 293d 71f1 19bd 3453 683b
000001a0: 669b 053d f6b0 6fbc c7eb b03c dab7 163d
000001b0: 3e89 debc 3843 3cbd 44a3 fd3c ff68 483c
000001c0: 0e73 1bbc 4b8b 2bbd 73d5 873c fa0b 013d
000001d0: 8a82 49bd a531 dc3c 338a 9bbc eb38 223d
000001e0: 74b1 1c3d 2a0c 063d 78f1 d4bc f778 dabc
000001f0: dca5 c23c 3e45 05bd 4901 b839 d724 833b
00000200: 8cd1 c7bc 5c25 42bb 53cf fe3c 6784 13bd
00000210: d9b9 d63c d2e1 603c f3d9 fa3c 484a f0bb
00000220: d3bd 5fbd f77a 56bb 44b0 013d b0a6 bc3b
00000230: 018e 463c d169 763b 0515 863b a9d5 003d
00000240: 25bd 21bd 28c2 cdbc da1d cf3c 63d8 0fbd
00000250: 0722 143d f0f1 153c 6c1a 46bd 7668 e3bc
00000260: 58d9 0bbd ff1f eabc cb58 8c3c 88d9 b23c
00000270: 4b26 423c 71a7 013c 700c f03c e762 873c
00000280: 435c 0abd 3170 d2bb fcd4 17bc 17a1 203d
00000290: fb9d 033c 9c65 1a3c 97a5 5cbc 54d5 f83c
000002a0: a3fb 9b3c 4084 55bc 108f a43c 2a93 033b
000002b0: 69dd 96bb 595c 153d cd85 08bd da62 2bbb
000002c0: 8a76 2b3d 6577 e93c 08d8 06bd c581 2bbd
000002d0: 80ee 833a b9d2 9dbc 83f4 123d d0de 16bd
000002e0: 1c13 d0bc 44f0 11bd 4558 8b3c 2618 c6bc
000002f0: 79bf e33c c0ab fcbc 3cff a13c 126d c03c
00000300: ffb7 b03c b6f8 313d 4c91 823b 3240 893c
00000310: 062a 18bd 5e2e d73c 3b58 35bd 0b97 ebbb
00000320: 057b 2d3d e9b8 0dbc 3e95 1fbd d9e6 bcbc
00000330: e216 e8bb 8bac eabc 91fd 113d 7e9f 003c
00000340: 9604 d1bc 87ac 4fbc e00c 16bb d73a 23bc
00000350: 56e1 1c3d 48c3 5a3d 0e3d 52bc f625 ccbb
00000360: a35c 623d 69c9 08bd 93bf 3abd be98 b43b
00000370: d45e 3ebc 426b 97bc 850f 133d 56c4 d9bc
00000380: 0c40 8e3b 3bf5 9abc 222a 213c 646f ef3c
00000390: 80ea 773c 2bf7 32bd eda7 2c3c 2acb 9cbc
000003a0: 602d e03b 976d 0d3d 5d25 d43c 2b29 c5bc
000003b0: 162c 163d 5d94 83bc 1f04 433d b172 fc3c
000003c0: 81b4 a9bb dcc2 58bd 8618 7cbc 510b 8abb
000003d0: 757c abbb 9708 1ebd b101 073d fc62 37bd
000003e0: 8df7 513c 47c8 b13c 8a3a ec3c 1c41 3a3c
000003f0: 6c47 2abb 6a17 db3c 92ce 34bd f693 3e3d
0.028338812 -0.006546206 0.0058555175 -0.020271456 0.03847267 0.02195478 -0.047073584 -0.023226267
0.00047496078 0.006457756 -0.039049976 -0.021514906 -0.012898152 0.0489412 0.03068196 0.030017765
-0.046800014 0.016526075 -0.014681072 0.023514831 0.009582505 0.04308666 -0.009287678 0.0033563646
-0.027287772 -0.00945262 -0.016419154 -0.03962621 -0.0443785 0.04649502 0.025888879 -0.025194205
0.040813304 0.02884089 -0.041387312 -0.042766303 -0.010080073 -0.03027768 -0.024838988 0.03903882
-0.023000717 0.019404087 0.04269796 -0.026415655 -0.007344561 0.01309766 0.021096082 0.01960695
0.012203497 0.041717242 -0.029220428 0.0014728479 -0.031939708 -0.012219727 -0.035914674 0.045164853
0.039908025 0.0048082354 -0.02828064 0.034077477 -0.032969367 -0.035340272 -0.020639349 -0.01834356
0.021724448 -0.035894692 -0.013569106 -0.03721547 0.027056897 -0.017908316 0.025045311 0.004199378
-0.013360345 -0.009571028 -0.02199591 0.01929369 0.032998744 0.044312917 0.030431375 0.04530916
0.02671494 0.012612352 -0.021935157 -0.050814748 -0.06344509 -0.018847989 0.023213789 -0.024520464
0.02014607 0.013871276 -0.040114947 -0.019762978 0.04729201 -0.0062966663 -0.031419042 -0.013091915
0.050270714 -0.019112613 0.026775962 -0.03748951 -0.006168628 0.041327532 -0.037583772 0.0035449984
0.032618903 -0.014629593 0.021596802 0.03679643 -0.027165052 -0.045962542 0.03096164 0.012232064
-0.00948788 -0.041880887 0.016581273 0.031505562 -0.049196757 0.026879141 -0.018986797 0.039605062
0.03825517 0.032726444 -0.025994048 -0.026669009 0.023760729 -0.032536738 0.00035096172 0.0040021944
-0.024391912 -0.0029624319 0.03110472 -0.03601494 0.026211666 0.013725715 0.030621504 -0.0073330738
-0.05462439 -0.0032727101 0.03166224 0.0057571754 0.012118817 0.0037599693 0.004091861 0.031453762
-0.039487023 -0.025116995 0.025282789 -0.03511847 0.036165264 0.009151921 -0.04836504 -0.027759772
-0.034142822 -0.02857971 0.017132184 0.021832243 0.01184995 0.007913456 0.029302806 0.016526653
-0.033779394 -0.0064220657 -0.009267088 0.039216127 0.008033271 0.00942364 -0.013467214 0.03037516
0.019040888 -0.013032019 0.020087749 0.002007673 -0.004604031 0.036465023 -0.033330727 -0.002615145
0.041861095 0.028499315 -0.032920867 -0.041871805 0.0010065585 -0.01926552 0.035877716 -0.036833584
-0.025399737 -0.035629526 0.017009864 -0.024181437 0.027801262 -0.030843616 0.019775026 0.023489509
0.021572111 0.04345008 0.003984606 0.016754244 -0.03714945 0.026267227 -0.044273596 -0.0071896366
0.04235365 -0.008650043 -0.038960688 -0.023059295 -0.007082806 -0.028646728 0.03564221 0.007850526
-0.025514882 -0.012675411 -0.0022895858 -0.009962759 0.038300835 0.05340889 -0.012831939 -0.0062301112
0.055264127 -0.033395205 -0.045592856 0.0055113724 -0.0116192885 -0.018483762 0.035903472 -0.026582878
0.004341131 -0.018915763 0.009836705 0.02922792 0.015131593 -0.04369275 0.0105380835 -0.019139845
0.0068413466 0.03452834 0.025896722 -0.024067482 0.036663137 -0.016061956 0.047611352 0.030816408
-0.0051789884 -0.052920207 -0.015386706 -0.004212775 -0.0052333423 -0.03858241 0.032960597 -0.044772133
0.012815368 0.021701945 0.028836507 0.011368062 -0.0025982512 0.026744563 -0.044142313 0.046527825

fc1.bias f4 [400]
00000000: 09a8 d7bd 0012 c3bd d96e afbd e4e5 4abe
00000010: 834f b1bd c0dd b6bd a3e3 b5bd 9cab b4bd
00000020: b0c1 cabd eb4f 94bd 82c9 acbd e648 09be
00000030: 0932 c2bd e754 a5bd db3d 77bd 5da8 37be
00000040: bfe7 f9bd ea7a 0cbe 3dad 9fbd ef08 b3bd
00000050: dcf8 febd 9a48 10be 266e bbbd 5d72 01be
00000060: 6d2d debd 25ef 05be 07fa b5bd c3c5 c3bd
00000070: 8caf efbd 431b 1fbe 0bbf 25be 20f8 c6bd
00000080: 8ea4 43be 6081 03be 6a4a 22be 0818 95bd
00000090: 22d7 e6bd 9d84 8dbd 5226 91bd b217 a4bd
000000a0: 8ca9 98bd 3b33 88bd 2791 e7bd 15b7 afbd
000000b0: 7413 85bd 42ca f0bd d530 73bd 2e80 15be
000000c0: df21 1fbe e7c7 e0bd c247 fabd bf76 c2bd
000000d0: 98f6 9fbd 1862 d1bd b631 f2bd 4d58 04be
000000e0: 44e9 04be d848 34be b6c7 cdbd b113 e4bd
000000f0: 57ad e3bd 22a9 b8bd 2199 04be f0ee c3bd
00000100: adbb 1cbe bf0b ecbd aa82 b0bd 5f0b d2bd
00000110: eaf5 b7bd 4d44 eebd 7f18 ddbd cc5b d3bd
00000120: 496b cdbd 4d0b 05be b580 a9bd f401 edbd
00000130: 09b7 f4bd 5405 aebd 9f7a a5bd ec42 8cbd
00000140: 0119 dbbd 5b4d 93bd 4096 6cbe d196 87bd
00000150: 9ea6 05be bc21 d8bd 47e2 6bbd 4520 03be
00000160: 9fad 41be 7bdc dbbd 36f7 19be 934a 82bd
00000170: 1bc2 09be 78fe 5cbd 7c20 0fbe 6c86 8fbd
00000180: 94b7 a5bd fab0 24be 1e36 13be 4e71 9fbd
00000190: e7e7 26be d1a9 1dbe b088 59be 5081 d6bd
000001a0: 24a4 dcbd 6257 a5bd 71c7 b4bd 3f29 c0bd
000001b0: 5bc0 78bd 3d27 e3bd 9b3c 71bd e73e 32be
000001c0: 3319 ebbd d3da f1bd e88f abbd ea2d 1dbe
000001d0: 9f69 dcbd 3dd5 10be 7691 e2bd 871e 9abd
000001e0: 2dc0 1dbe 5bc2 0dbe 5fd7 f7bd 89ef 9abd
000001f0: 4aea 01be 4bf5 22be ca98 aabd 6d04 fcbd
00000200: 02f6 e4bd a678 55bd fa44 c7bd ef5a 60bd
00000210: f844 d8bd 9e40 80bd a6f5 e5bd eb4a ebbd
00000220: aebf 72bd 2006 fcbd 1cb5 07be 23a6 0fbe
00000230: 6d07 99bd f59c 91bd 8b5f 1fbe 8cd9 b3bd
00000240: 4747 27be c0fd 04be 2c7e 6fbe e38b edbd
00000250: 9a2e 8ebd aa1a e3bd d717 e9bd cd83 c9bd
00000260: 954e 04be 6420 44be c697 7cbe 2b8f 88bd
00000270: da58 d8bd 316c c8bd 875d 01be 8315 dbbd
00000280: 52bc 9fbd 0dea c0bd e413 a8bd 213f dbbd
00000290: af06 0cbe aac6 04be 74bf e9bd 2087 8ebd
000002a0: 0750 78be 4de4 edbd 29f9 2bbe 4b13 56bd
000002b0: 53c0 38be 5182 c5bd 6f11 e4bd 9a6b 33be
000002c0: a14c 1ebe 13af e4bd f872 76bd 26e2 fcbd
000002d0: 265e 15be 7899 33be e88c 62bd 8d72 9cbd
000002e0: 45d9 94bd a5d2 0cbe f4df 30be 6364 1abe
000002f0: dc0b 2fbe 0989 f2bd 2b5d e8bd a67e ecbd
00000300: 1f5d 31be 1185 f4bd 20e8 06be d56f 8dbd
00000310: 55aa 0cbe 0022 c2bd 1fcf 05be 4ac0 a5bd
00000320: c941 afbd ca3e cabd b65f 2dbe 15c7 8dbd
00000330: c320 6dbe 247f 95bd 6c41 16be cf02 76be
00000340: dce2 ccbd e451 18be e048 12be 4bd0 2ebe
00000350: 2d1e 08be ca6e b4bd fb33 b4bd 55d4 05be
00000360: 613f a1bd c0e4 bebd 805b d8bd e854 d9bd
00000370: bfb0 81bd f31e bebd 829e f7bd 1159 97bd
00000380: dd37 a4bd 54d2 cdbd 5284 0ebe bc00 94bd
00000390: b127 12be b9cf aabd c817 b7bd d04e dbbd
000003a0: 19be 95bd cf4e b9bd 52b5 f1bd cb90 10be
000003b0: a67f 0cbe 0d21 d7bd 5a5c 21be d137 babd
000003c0: a876 03be b697 21be 3342 c3bd 7a4d eabd
000003d0: c5dd 98bd fd5f 59be 6c3d b6bd f03c 08be
000003e0: f939 4ebe fd43 2ebe 009f 08be ed95 a3bd
000003f0: 2f97 e0bd 1025 85bd 8bb7 12be e6f5 d5bd
-0.10530097 -0.095249176 -0.085660644 -0.19814259 -0.08657744 -0.08929014 -0.08881309 -0.088217944
-0.09900224 -0.07241806 -0.08436872 -0.13406715 -0.094822 -0.080728345 -0.060361724 -0.17935319
-0.12202405 -0.13718763 -0.077967145 -0.08741938 -0.1244981 -0.14090195 -0.091518685 -0.12641282
-0.10848508 -0.13079508 -0.088855796 -0.095592044 -0.11703405 -0.15537743 -0.16186158 -0.09715295
-0.19105741 -0.12842321 -0.15848699 -0.07279974 -0.11271502 -0.069100596 -0.07087387 -0.08012332
-0.074542135 -0.066503964 -0.113069825 -0.08579842 -0.06497851 -0.117573276 -0.05937274 -0.14599678
-0.15540265 -0.10975628 -0.12220718 -0.09495305 -0.07810706 -0.10223788 -0.11825888 -0.12924309
-0.12979609 -0.17605913 -0.100478575 -0.11136568 -0.11117046 -0.090166345 -0.12949039 -0.09567058
-0.15305968 -0.11525678 -0.08618672 -0.10256075 -0.08982451 -0.11634121 -0.10795688 -0.10320243
-0.10030229 -0.12992592 -0.08276502 -0.11572638 -0.11948974 -0.0849711 -0.08080029 -0.06848702
-0.106981285 -0.07192489 -0.23104191 -0.06620563 -0.1305184 -0.10553309 -0.05758884 -0.12805279
-0.18913887 -0.10735413 -0.1503571 -0.0636188 -0.13452952 -0.053953618 -0.13977236 -0.07008061
-0.080916554 -0.16083136 -0.14376113 -0.07785283 -0.16299401 -0.15396811 -0.21243548 -0.10473883
-0.10773495 -0.080733076 -0.08827103 -0.09382867 -0.06073032 -0.110914685 -0.05889569 -0.17406808
-0.11479416 -0.118093155 -0.08377057 -0.15349546 -0.10762333 -0.14143844 -0.11062901 -0.07525354
-0.1540534 -0.13843672 -0.12101626 -0.07565219 -0.1268703 -0.15913884 -0.083299235 -0.12305532
-0.11179735 -0.052117012 -0.09729953 -0.05477422 -0.1056003 -0.06262325 -0.11228494 -0.11488899
-0.05926483 -0.12305856 -0.13252681 -0.1402822 -0.074721195 -0.07110015 -0.1556379 -0.08781728
-0.16335784 -0.12987423 -0.23387975 -0.11598947 -0.06942482 -0.1108907 -0.113815 -0.09839592
-0.12920602 -0.19152981 -0.24667272 -0.06667932 -0.10563822 -0.09786261 -0.12633334 -0.106974624
-0.07799591 -0.09419642 -0.08206919 -0.107054 -0.13674425 -0.1296641 -0.1141347 -0.06959367
-0.24249278 -0.116158105 -0.16794266 -0.052264493 -0.18042116 -0.096439965 -0.11136138 -0.17521515
-0.15458919 -0.11166205 -0.060168236 -0.12347822 -0.14586696 -0.17539012 -0.05531016 -0.07639036
-0.072680034 -0.1375223 -0.17272931 -0.15077357 -0.17094368 -0.11842544 -0.113458954 -0.11547594
-0.17320679 -0.11939443 -0.13174486 -0.06906096 -0.13736852 -0.09479141 -0.13067292 -0.08093317
-0.085574694 -0.09875257 -0.16931042 -0.069227375 -0.23157029 -0.07299641 -0.14673394 -0.24024509
-0.100042075 -0.14874989 -0.14285612 -0.17071645 -0.13292761 -0.08810194 -0.08798977 -0.1306928
-0.07873417 -0.09320974 -0.10564327 -0.10611898 -0.0633254 -0.09283247 -0.1209078 -0.07390035
-0.080184676 -0.100498825 -0.13917664 -0.072267026 -0.14272954 -0.08340401 -0.08940083 -0.10708392
-0.07311649 -0.09048235 -0.11802162 -0.14117734 -0.13720569 -0.10504351 -0.15757886 -0.090926774
-0.12838233 -0.1578053 -0.09534111 -0.11440559 -0.07464174 -0.21228023 -0.08898434 -0.13304496
-0.20139302 -0.17018123 -0.13341904 -0.079875804 -0.10966336 -0.0650121 -0.14327829 -0.10447292

fc2.weight f4 [1, 400]
00000000: 9083 0238 5e4f 383a 7c18 f439 87d9 40ba
00000010: 8fcf 663a ffb8 35ba c5d1 86b8 2294 4739
00000020: 4e8b c5b8 336d 1e39 b079 2db9 22fe b1b9
00000030: 8a38 643a 4c7b 0937 d7b0 97b9 057b bdb9
00000040: ced3 96b9 caf0 14ba c0b3 0bb9 df25 7e3a
00000050: 08a4 8fba cf74 eb39 6cc5 a539 8e82 f539
00000060: 9457 7f3a 289a 7a39 67d4 223a 902d fd39
00000070: af41 f7b9 1ceb dab9 c32e c5b9 d4a7 ce39
00000080: 177f 8838 4f10 c539 8161 e1b7 192c b3b9
00000090: db02 0e3a 20f9 77b9 5c4c 6139 9687 0938
000000a0: 75eb a539 6191 d0b8 aea9 a7b8 6803 9bb9
000000b0: 6171 a0b8 39e1 943a 700c 8539 2392 0039
000000c0: a3c0 8a39 fe4e 9638 f503 bdb9 ad96 e0b9
000000d0: 9291 e139 4027 a137 6779 95b9 56e5 ee39
000000e0: 1ef7 c7b8 930f f538 86b1 26b9 0b30 00b9
000000f0: 4cd1 2e39 b0af 423a 11e2 5138 9e8c b139
00000100: 597c 253a a699 8cb9 588d 5cba 54a1 fcb8
00000110: 6f8d 9bba e44f 0bba d45a ca39 844c d739
00000120: 40f3 e3b8 1b57 aeb9 4686 94b9 cf23 ff39
00000130: 749c 1db9 44ff 0e39 5f90 35ba 6357 83b9
00000140: fded 74b9 5749 1eba 1bc8 49b9 dd8f 6aba
00000150: f039 c339 a133 72b9 400b a3b9 5700 8e39
00000160: 826e 943a 6d54 0039 5bb3 7738 9ac3 6138
00000170: ae7c ad39 305c 1ab9 2642 0b39 4b9d 3d39
00000180: 47b6 83ba ed92 deb8 5131 0e38 0d2a ed37
00000190: 1df5 dab9 c769 1a38 ddfc b239 e4d8 b8b9
000001a0: 64c7 6f38 03be f639 3e61 3539 fa63 7338
000001b0: 8fa0 1eba 8237 193a 0b28 b6b9 ed15 1dba
000001c0: d76c 483a 0c44 2fba ae9c 063a cf7a 8039
000001d0: b06f e3b9 787c c5b9 8d5a 40b9 97eb 16ba
000001e0: a13c 9937 19bb 6939 3999 c235 f8e9 5cba
000001f0: 6388 69b9 1388 0dba 1ec2 b1b9 3fc0 133a
00000200: e9a7 eeb9 6a42 6fb9 1fac 0eb9 e7bb 75b9
00000210: cce7 29ba 9426 11b8 503e 2539 de96 123a
00000220: 6356 b139 ad10 f5b9 5b46 0839 a5a4 83b8
00000230: e4c9 10b8 9d7e d339 f01b 87b9 5012 c139
00000240: b82a 9738 a6ff 253a e920 d338 229e 9db9
00000250: 5974 363a 3a65 303a 731e 44b8 530f 46ba
00000260: 9634 8ab9 d943 433a 49d4 6d3a 431e 7bb9
00000270: 2ff4 63b9 fde9 d5b9 0678 243a 6b1c 1cba
00000280: 08e4 afb9 1fd2 d639 00ca 3a39 a59d 9cb8
00000290: a5bc 6bb9 5db4 db37 5d58 36b9 a674 efb9
000002a0: b64f 36b9 719a 5d39 73fa 76b9 1992 db39
000002b0: f741 ae39 d685 33ba 310c 11ba f4d3 9338
000002c0: d9ef 7fb8 e566 27b9 e753 8539 ca6a 84b9
000002d0: cf1b b0b8 204c 38b9 c9a1 943a 4554 d438
000002e0: 1f09 dbb8 b00d 9db6 d0f1 94b9 e854 153a
000002f0: fa25 543a 8f78 5537 eabf 9e39 ec0d 033a
00000300: 09c9 3a3a e558 dbb8 a567 40b9 e445 9439
00000310: f492 8a39 bb46 d539 bfb6 c0b9 eb02 58ba
00000320: c95b 4539 a8b0 96ba 2f63 73b9 60e8 4a39
00000330: b6ed d3b9 63e9 07b9 516c 7539 6ff3 e8b9
00000340: 5158 8838 f21f b6b7 643d 0eb8 089c a9b8
00000350: aa28 2038 39c8 9fb9 6b30 00ba a31f cf39
00000360: a8ac 8d3a 4a3b af38 1554 03ba 5abf 2039
00000370: 4a99 bf39 b4f7 89ba aac8 9f39 106e eab7
00000380: c733 bb39 3144 a0b9 8818 3439 3a50 92b9
00000390: 4ef2 6b39 ae52 3d36 a0a2 b439 06be 293a
000003a0: b706 eb39 71db aa3a 3073 fa39 72bd fc38
000003b0: ec39 c839 7235 3e39 c324 f2b9 dbc5 ceb8
000003c0: 6ee8 90b9 6a21 1fb9 4224 28b9 118d 8e39
000003d0: 0f81 6dba e4ca 58b9 1d45 07b9 4364 43b9
000003e0: 8aa3 c738 fcec 8738 7654 1c3a c541 dc39
000003f0: 3c8c 1b37 f2e5 9237 b51c dbb9 db04 3539
3.1116942e-05 0.00070308696 0.0004655755 -0.0007356633 0.00088047324 -0.00069321686 -6.4286905e-05 0.00019033303
-9.4196395e-05 0.00015108734 -0.00016543898 -0.00033949415 0.0008705935 8.194544e-06 -0.0002893272 -0.00036140546
-0.00028768036 -0.00056816323 -0.00013323035 0.0009694974 -0.0010958919 0.00044909722 0.00031618343 0.00046827312
0.0009740528 0.00023899286 0.000621146 0.00048289867 -0.0004716045 -0.0004175537 -0.00037609608 0.00039416424
6.508658e-05 0.0003758692 -2.6867494e-05 -0.00034174396 0.00054172956 -0.00023648562 0.00021486118 3.278962e-05
0.00031646682 -9.945292e-05 -7.994786e-05 -0.00029566442 -7.650513e-05 0.0011358625 0.00025377003 0.00012261471
0.00026464937 7.167271e-05 -0.00036051837 -0.00042836872 0.00043023803 1.9210973e-05 -0.00028509946 0.00045565766
-9.5350886e-05 0.00011685411 -0.00015897126 -0.00012224929 0.00016671902 0.0007426692 5.0040024e-05 0.0003386484
0.000631278 -0.00026817358 -0.0008413396 -0.00012046346 -0.0011867712 -0.0005314334 0.00038596115 0.00041065004
-0.00010869512 -0.00033252765 -0.000283288 0.0004866407 -0.0001503097 0.00013637269 -0.0006926115 -0.00025051375
-0.00023358311 -0.000603815 -0.00019243399 -0.0008947829 0.00037236465 -0.00023098152 -0.00031098165 0.00027084604
0.0011324438 0.00012238482 5.9056427e-05 5.382635e-05 0.00033090025 -0.00014720927 0.00013280715 0.00018083041
-0.001004883 -0.00010613152 3.3901368e-05 2.8272183e-05 -0.00041762824 3.6814974e-05 0.00034139203 -0.0003525681
5.7167737e-05 0.00047062346 0.0001729773 5.8028825e-05 -0.0006051147 0.0005844758 -0.0003474358 -0.0005992342
0.0007645613 -0.000668586 0.00051350414 0.00024505562 -0.00043380028 -0.00037667505 -0.0001834428 -0.00057571515
1.8267254e-05 0.00022290311 1.449872e-06 -0.0008427198 -0.0002227142 -0.0005399 -0.000339047 0.0005636252
-0.0004552 -0.00022817557 -0.00013606295 -0.0002343502 -0.0006481379 -3.4606623e-05 0.0001575884 0.0005591939
0.00033824434 -0.00046742466 0.0001299618 -6.277234e-05 -3.45203e-05 0.0004033939 -0.00025770022 0.00036825472
7.208198e-05 0.0006332345 0.00010067394 -0.00030063192 0.0006960086 0.0006728951 -4.67584e-05 -0.0007555384
-0.0002636059 0.000744877 0.00090724655 -0.00023948499 -0.00021739372 -0.0004080086 0.00062739884 -0.00059551623
-0.00033548498 0.00040973813 0.00017813593 -7.468023e-05 -0.00022481622 2.6190823e-05 -0.0001738979 -0.00045672542
-0.00017386567 0.00021133736 -0.00023553688 0.00041879786 0.00033237014 -0.0006848251 -0.00055331277 7.0489856e-05
-6.1020113e-05 -0.00015964692 0.0002543025 -0.00025256566 -8.397514e-05 -0.00017575966 0.001133972 0.00010124644
-0.00010444433 -4.680558e-06 -0.00028408924 0.0005696551 0.0008092817 1.2723859e-05 0.00030279096 0.0004999328
0.00071252935 -0.00010459292 -0.00018349157 0.00028280832 0.000264309 0.00040679224 -0.0003675725 -0.0008240181
0.00018821577 -0.001149674 -0.00023211235 0.00019350788 -0.00040422165 -0.00012961547 0.00023405372 -0.0004443186
6.5014356e-05 -2.1710966e-05 -3.3912613e-05 -8.087611e-05 3.8184844e-05 -0.0003047602 -0.00048900273 0.00039505688
0.0010808902 8.355694e-05 -0.00050097826 0.00015330073 0.00036544568 -0.0010526092 0.0003047635 -2.7946226e-05
0.00035705997 -0.00030568385 0.00017175276 -0.00027907063 0.00022501612 2.821132e-06 0.0003445344 0.0006475154
0.00044827696 0.0013035369 0.00047769537 0.00012051583 0.00038190128 0.00018139722 -0.00046185227 -9.859699e-05
-0.00027638994 -0.0001517587 -0.00016035236 0.00027189453 -0.0009060064 -0.00020674948 -0.0001290035 -0.00018634
9.519521e-05 6.4814434e-05 0.00059635134 0.00042010672 9.271371e-06 1.7511633e-05 -0.00041792323 0.00017263314
