best_rnn_model.pth (torch, 36187 bytes, 10 tensors)

rnn.weight_ih_l0 f4 [50, 1]
00000000: 03f4 163e b113 a83c 5f39 ad3d fc95 0d3e
00000010: f051 2bbd 4631 2cbe 6495 92bc c46a ccbd
00000020: 8db0 063d 7c88 af3d d7b1 dd3b 2870 abbb
00000030: 7f79 07be 9425 733d ee54 153e f262 e53a
00000040: 69fc d63d 932a 8a3c cc44 ab3d 86f7 943d
00000050: 425d 16be 531d 4dbd 9f96 cabd a22c ad3c
00000060: 9cd6 ac3b 3b87 dfbc e5c4 69be 4925 43bd
00000070: 759d 0abd 1a7b e0bd e260 3a3e ab7f 1abe
00000080: 1a15 373d 1edf 1d3e 183c e6bc a9f4 bebd
00000090: bf82 893d 21d2 3abd 3777 a93c 2b79 b7bc
000000a0: 57a6 42bc 1f00 c93c 69c4 363e aae8 4a3e
000000b0: 0c63 41be 53e7 373e 8965 31bc 0fbc e6bd
000000c0: ce7d 05be d938 7a3d
0.1474152 0.020517202 0.08458208 0.13826746 -0.04182619 -0.16815671 -0.0178935 -0.099813014
0.032883216 0.08570954 0.006765585 -0.005231876 -0.13229941 0.05936201 0.1458318 0.0017500801
0.10497362 0.016866004 0.08362731 0.07273774 -0.14684013 -0.050076794 -0.0989201 0.021139447
0.005274607 -0.027286163 -0.22829016 -0.04764298 -0.03384157 -0.1096098 0.1820102 -0.15087764
0.04469786 0.15417144 -0.028104827 -0.09324009 0.06714391 -0.04561055 0.020686729 -0.022396645
-0.011880479 0.02453619 0.17848362 0.19815317 -0.1888544 0.17959337 -0.0108274305 -0.11266338
-0.13036272 0.06108937

rnn.weight_hh_l0 f4 [50, 50]
00000000: ec9f 16be 0644 ab3c 56ee 0d3e 6a50 4e3d
00000010: 2f93 e33d e1ff 1cbc 2e51 e63b 10b6 20bd
00000020: 3929 e33b 981e a9bd a055 c83d 7885 6abd
00000030: ed3a e33d 1b37 30bd e6cf 72bd 4dca 063e
00000040: e003 04be 01b8 3a3d 1ac7 71bd a084 75bd
00000050: dc8b 9e3c b1c1 83bd a180 c93d 4582 ca3d
00000060: 4115 93bc 4f00 fbbd 97c8 053e 973f 45bd
00000070: 8aa6 92bb 6afe 193d 480c 0cbd 2e2d 47bd
00000080: bc10 5d3b 9b70 eb3d cd34 083e 19d9 d93b
00000090: 0f5c 413d 4837 93bd b565 97bd 706b ed3d
000000a0: c23d 843d ac1e 7d3d a2ed d53d 2420 83bc
000000b0: f7be 3fbd 314d aebc 338d e73d ee6d fd3d
000000c0: 9d31 47bc e981 833d 527c cc3d 15f2 9c3d
000000d0: 3e22 d93d f95c f3bd 80fb 8f3d 6057 e03d
000000e0: 3b3c 91bd f1e1 1e3e f249 c7bd 3061 7fbd
000000f0: 1c59 80bd 47fe 12be 477d febd 11e4 f5bd
00000100: 1491 e53c 22e2 b6bd 0e46 ab3d 826d 083e
00000110: f70d e73d e5a6 ddbc 3928 083e 928c 5ebd
00000120: f206 723d e9e4 c83c 19d5 89bd c8a9 87bc
00000130: 8f88 813d 4b14 6cbc 8fe9 9cbc 4195 ca3d
00000140: 2f74 bb3d d39a de3d 245a f03c 703b ea3d
00000150: 71b7 8e3c 6bc6 d93d c42d ebbd 50e3 723d
00000160: 362d 18bc 13a8 c13d a6c3 af3d 08ac 6e3d
00000170: 319f 09bd 1dde e6bd 145d dfbd 5b0a 7cbd
00000180: eb6a edbd 2667 c03d 2e5b 70bc c128 ffbc
00000190: aac7 353b 5775 0e3e aa54 a03d e2bd bd3c
000001a0: f370 003e 8bce 3abd 6b07 24bd b39f 0c3d
000001b0: e1c7 f53d 1c0a e1bc 4701 a73d 5fa1 3f3d
000001c0: bbca bebd e721 d23d 3c3c 103e cdb4 fc3d
000001d0: 7488 063c 7623 e5bd 6a8a f5bc 1b92 ddbd
000001e0: 4b63 013e 294e 393d 0d84 c03d 6ba0 d83d
000001f0: 59dd ea3b 2228 dfbd 572d c33d c671 793c
00000200: bf4c 603b 9ef5 dd3d ecd2 dbbd 3367 b73d
00000210: 222a 31bd 5424 0ebe ddd3 0a3d d375 79bc
00000220: 5d01 dc3d b472 e43d c3db 8c3b 523f 863d
00000230: 573b 1ebd 1866 d5bd b354 e7bd 9d2a 92bc
00000240: dc18 3fbd 5bdb b03c ea31 f33d 4f48 adbd
00000250: 0ad8 b8bc 7bf0 e5bd 54c8 8f3c 8d59 3cbd
00000260: f632 543d 1ca6 df3b e04e 8e3d 73f7 143e
00000270: b702 9b3d 58b3 c9bd af5a 8b3c ccb2 be3d
00000280: e8ec 01be c049 f6bd b092 80bc ec8e bebd
00000290: 6225 aabd ed5b 71bb 0f39 3abc e95c 823d
000002a0: dd8d a4bd 1e0c 21bc 5859 7bbd 37f8 ee3d
000002b0: 60b3 eb3d 9c0c e0bc 46ee dfbc c6ed 81ba
000002c0: 7277 ed3d ecf6 553c f5b7 8ebd 1c05 303e
000002d0: 648a 59bb cb2f acbd a39d c63c 806b e7bd
000002e0: 1f2a 8ebd fc36 4e3d 2a44 87bd 512a 003d
000002f0: 1f05 3fbc 15b5 dabd 673b 01be c47b 51bc
00000300: eeec d9bd ea8b 05be a863 a1bb c0be acbc
00000310: 4d83 0a3e 1c94 713d 4198 8b3d 770e 403d
00000320: 161d dbbc 0556 0c3e 6e3b 59bd 4ef7 b5bd
00000330: 2ac4 edbd 7a9b 933d a27d 613d 0a9c 713d
00000340: e9ef ad3d c057 db3c 0e56 733d 1bbd 8a3c
00000350: 5bdb cc3d f7a3 17bd 5b82 79bc 477a d73d
00000360: 4184 e13d 57bd bcbc 1111 13bd 097f 90bd
00000370: c93e 6f39 9b24 d23c a175 f0bd f98e 91bd
00000380: 936f e5bd a46b 4fbb 2a6a 03be c766 a13d
00000390: 78c1 953d d64a 6fbd 8160 d03d 4e0b 633d
000003a0: 5313 fc3d 22cb 063e 05ee 9bbc 17ec 07be
000003b0: 67d0 e93d 63c4 493d 60fd 9ebd 4549 0c3d
000003c0: fcbb 42bc 32ff 98bd d9d1 70bc 6f9c e83d
000003d0: 6887 0b3d 372a 5bbc 3871 1c3e f2ce 2a3d
000003e0: cfa0 c73d d46d 073d a6b6 603d fe18 78bc
000003f0: 12b9 8a3d fa27 2b3d 9e1b 7d3b c221 a7bc
-0.14709443 0.02090646 0.13860449 0.050369658 0.111120574 -0.009582491 0.0070287203 -0.03923613
0.0069324044 -0.082577884 0.09781957 -0.057256192 0.110952236 -0.043021303 -0.0592803 0.13163109
-0.12892103 0.045585636 -0.05902777 -0.059940934 0.0193538 -0.06433428 0.09838987 0.09888128
-0.01795447 -0.12255918 0.130648 -0.048156347 -0.0044754194 0.037596144 -0.0341914 -0.04862707
0.0033731898 0.11496087 0.13301392 0.0066481945 0.047206935 -0.071882784 -0.07392446 0.11592758
0.06457092 0.06179683 0.104457155 -0.016006537 -0.046812978 -0.021277042 0.113062285 0.12374483
-0.012157825 0.06421263 0.0998465 0.07663361 0.10602234 -0.118829675 0.07030392 0.109541655
-0.07091566 0.15515877 -0.09730901 -0.062348545 -0.06266996 -0.14354812 -0.124262385 -0.12006391
0.02802328 -0.0892985 0.08362971 0.13323024 0.112819605 -0.02705712 0.13296594 -0.054333277
0.059088655 0.024523215 -0.06730098 -0.01656045 0.063248746 -0.014409135 -0.019154338 0.09891749
0.0915302 0.10869374 0.029339857 0.11437118 0.017421456 0.10633548 -0.114833385 0.059298813
-0.009288123 0.09455886 0.08582239 0.05826953 -0.033599082 -0.112728335 -0.10906425 -0.061533313
-0.115926586 0.09394674 -0.014670176 -0.031147363 0.0027737417 0.13911949 0.078286484 0.023161832
0.12543087 -0.04560713 -0.040046137 0.03433199 0.120010145 -0.02747064 0.081545405 0.046784755
-0.093160115 0.102603726 0.14085478 0.123391725 0.008211244 -0.11188404 -0.029973228 -0.10818883
0.12635534 0.045240555 0.09400187 0.10577472 0.0071675 -0.108963266 0.09530132 0.01522488
0.0034225432 0.108378634 -0.107335895 0.089552306 -0.04325307 -0.13881046 0.033893455 -0.015225845
0.107424475 0.111546904 0.0042986586 0.06555046 -0.03863081 -0.104198635 -0.11295452 -0.017842585
-0.046654567 0.021588972 0.11874755 -0.084610574 -0.022563953 -0.11227509 0.017551579 -0.04598384
0.051806413 0.0068252217 0.06948638 0.1454752 0.07568877 -0.0984866 0.017011015 0.093114465
-0.12688029 -0.120257854 -0.015694946 -0.09304604 -0.083079115 -0.0036828474 -0.011366143 0.063653775
-0.08034871 -0.009829549 -0.0613645 0.11668437 0.115088224 -0.027349763 -0.027335297 -0.0009912781
0.11595048 0.013059359 -0.06968681 0.17189449 -0.003319406 -0.08407553 0.024245089 -0.11299801
-0.06941628 0.050345406 -0.06604798 0.031290356 -0.011658936 -0.1067907 -0.12620316 -0.012785856
-0.10640894 -0.13041654 -0.00492521 -0.02108705 0.1352665 0.05897914 0.068161495 0.046888795
-0.026747268 0.13704689 -0.053035192 -0.0888506 -0.11609681 0.07207389 0.055051453 0.0589867
0.08493025 0.02677524 0.05940824 0.016935876 0.10002776 -0.037021603 -0.015228833 0.105213694
0.110115536 -0.023039503 -0.035904948 -0.0705548 0.00022816205 0.02565222 -0.11741186 -0.07107348
-0.11202922 -0.0031649852 -0.12833467 0.07880931 0.07312292 -0.05842098 0.10174657 0.055430703
0.12308373 0.13163427 -0.019034395 -0.13273655 0.11416703 0.049259555 -0.07763171 0.034249563
-0.011885639 -0.0747055 -0.014698469 0.11357962 0.03406468 -0.013376764 0.15277565 0.041701265
0.09747469 0.033063725 0.054861687 -0.015142677 0.067735806 0.04178617 0.0038621197 -0.02040184

rnn.bias_ih_l0 f4 [50]
00000000: 0116 2abd cf3a 833d 6ecb c73c 63e9 74bd
00000010: 6284 03bd 6825 4ebd b84b 8b3d eff6 a1bd
00000020: 4a47 e13d 1928 e2bc a254 dc3d 50a1 713d
00000030: 62b6 043e 32f7 6d3d 64b2 efbc d5b3 6d3d
00000040: db40 fdbd 9c1d ffbd 3da5 bf3d 06ff 02bc
00000050: 416b b5bd 16d3 1dbd 3c21 0d3d cdc1 d3bd
00000060: 6f80 343d d90c e1bb afd2 9d3d 9fbc ccbd
00000070: 98f0 ad3d 7234 c63d 6729 753d 97a0 34bc
00000080: 727a b03d 66b4 3fbd 9cd7 b7bc e62b 64bb
00000090: 0f68 a23c 518d e63d 25a8 10bd f466 983b
000000a0: 9f34 debd a274 78bc f8da c23c 6078 92bb
000000b0: 79ef eebd b6ba b9bc 3fe1 98bb 4b44 a2bd
000000c0: b35a 3abc ea19 c23d
-0.04152489 0.06407701 0.024388995 -0.059792887 -0.032108672 -0.050328642 0.068015516 -0.07908427
0.109999254 -0.02760701 0.1075833 0.05899173 0.12960199 0.058097072 -0.029259868 0.05803283
-0.12365886 -0.124568194 0.093576886 -0.007995373 -0.08858348 -0.038531385 0.034455523 -0.10339699
0.044067796 -0.0068679866 0.077062 -0.09996914 0.08493155 0.09677972 0.059853937 -0.011024616
0.086171046 -0.0468029 -0.022441678 -0.0034816205 0.01982501 0.11257423 -0.035316605 0.004650945
-0.108498804 -0.015164526 0.023786053 -0.004469916 -0.116667695 -0.022672039 -0.0046655233 -0.07923182
-0.011374163 0.09477599

rnn.bias_hh_l0 f4 [50]
00000000: e522 3cbd b32c 633b 4ad8 9c3d 1c7f 9c3d
00000010: 081f acbd cf0a 603c 6ca1 1cbc c1ca ca3b
00000020: b1e4 383c 32ff 0e3c 4982 a53c 366f 08be
00000030: 5e90 aabc 5855 963d e103 3dbc 8e87 81bd
00000040: 5a25 a73d bd93 6e3d 226d 13bd 487a 2ebd
00000050: 0c06 1d3d 81da a3bb db82 efbd fc57 a9bd
00000060: b836 63bc a084 db3d 6d25 19bd 9d9c 893d
00000070: a7cc 6b3d 2ed0 fcbd a3d9 3239 4f08 b8bd
00000080: 0cb6 18bc 6bb8 e4bc 0bcf 1cbc c20c a43d
00000090: f1ae 0fbc 2df8 b3bc 2152 cfbb e013 1e3d
000000a0: d1f3 6cbd de6f fa3d 6db0 ba3d f004 1abd
000000b0: 2ae7 2a3d 44f2 e8bd 5e30 9cbd 86af 523d
000000c0: 3e40 cdbd e2a3 a23d
-0.045931716 0.0034664094 0.07658441 0.07641432 -0.08404356 0.013674452 -0.00955997 0.006188721
0.011284993 0.0087278355 0.020203726 -0.13323674 -0.020820793 0.07340497 -0.011536569 -0.06324683
0.08161421 0.058246363 -0.03599275 -0.042597085 0.038335845 -0.005000413 -0.116948806 -0.08268735
-0.013868026 0.107186556 -0.037389208 0.06719325 0.05756822 -0.123443946 0.00017056479 -0.0898596
-0.009320747 -0.027919969 -0.009570847 0.08010246 -0.008769737 -0.021968925 -0.006326929 0.038593173
-0.05784971 0.12228368 0.09115682 -0.037602365 0.04172436 -0.113743335 -0.07626413 0.051436923
-0.10022019 0.079414144

rnn.weight_ih_l1 f4 [50, 50]
00000000: 9eb5 ac3d 3368 50bd 9439 cf3d 736a 1b3d
00000010: 29c0 a2bd 395c 3cbd 0ef6 ec3d 7901 efbd
00000020: f86f 3f3d 7541 b43d 3920 9f3d 0bdb 223d
00000030: 3519 243d d5de a8bd 4b77 883d b4fb 0d3e
00000040: 1220 a23d f46a 083e d9a0 51bc 9dd6 a83b
00000050: ae6d 703d 6902 bc3d 5133 f8bd eca5 9c3d
00000060: 11ec 28bc 645b 9ebd 5edb 803c 82c8 9c3d
00000070: c664 d6bd 7e21 333d 5925 5e3c 0a08 993d
00000080: 7088 52bc dc30 0ebc 9ef4 45ba d0e8 973d
00000090: 64f4 ef3d bf81 a8bd 4837 de3d 6744 6cbd
000000a0: 54a3 cdbd 66dc e1bd 3087 dfbc 15ae 8d3d
000000b0: 4623 c9bd 7fe0 cdbd b880 f83d 8f2f 9e3c
000000c0: ce22 1abe 566f 3fbd 7959 c23d 5641 f3bd
000000d0: 4942 57bd daf1 163d fd65 c63d 8f1a 3f3a
000000e0: 882b d93d fac7 ac3d 0782 373d 4a57 4abc
000000f0: 1f64 903d 110e 953d d43f 06bd 14fd 9fbd
00000100: c51b 49bd e0ba 43bd 35b4 06be 63b2 143d
00000110: b297 59bd 2435 e23d fb08 96bd 518a b9bd
00000120: 3ecd c6bd 0189 fdbd 4c87 c73d f6f2 bb3d
00000130: 8ca0 973d 4155 43bd bc20 1a3d e269 2fbe
00000140: 0f62 be3c 1182 84bd 4b75 cebc b07a a83d
00000150: 7948 e73d f9f1 05be 6859 d13d 40a2 183e
00000160: d3ab af3d 4a24 4dbc aed5 c43d d648 a3bd
00000170: 52cb 903d 6d00 b63c b492 d73d 8700 853d
00000180: 9a50 a83c 8e0c 853d 94c4 b5bd a4e0 cdbd
00000190: 22b1 c93d 2e53 aabd 5e2f ecbd 7705 d33d
000001a0: ac0f f4bc 5aec 47bd a93a c23d 57e1 bd3d
000001b0: c5ba 0c3d c2e8 9a3d 4acd 733d d631 cfbb
000001c0: c0f3 b13d 5b29 143e 3642 553d 8c8c 193e
000001d0: 2e08 ccbd 13e2 4f3d 1b77 773d 845d 483d
000001e0: a621 833c f398 183e cce7 e7bd 5bb6 c3bd
000001f0: ca9b 4b3d 673d bfbd c918 0ebd 1a02 853d
00000200: f4b0 6bbc 6ca7 0bbe d75f e7bd 35ff b9bd
00000210: e09d 03be 63ce b6bd e0c9 113c 5b99 5abd
00000220: ad36 63bd bee9 183d 18b0 e8bd 2049 a23d
00000230: f485 b33d f8d2 94bd 5673 d13d eaa6 a53c
00000240: db2e 893d e7a6 503d c69d 613d 749f 443b
00000250: 4428 57bd d276 91bd 595d 353d 6f36 d53d
00000260: 997c c73d 39a4 ea3d 5cdd d6bd f340 d2bd
00000270: b922 00bc 3a6b c3bd 0466 eebd 2b4b 3a3d
00000280: 13e8 b0bd 59b0 99bd 20ac ba3c ba4c ec3b
00000290: 88f0 c4bd 5a09 c6bd 6931 ac3d a54b 9dbd
000002a0: 7770 9a3d bd85 923d ce78 c3bd da8f 24bd
000002b0: d3ed 07bc bd43 60bd 5a3b 843d 166f f6bc
000002c0: a8c5 d63d 5ae6 6c3d 5037 c1bd cb92 f1bd
000002d0: e885 f43d 7826 9b3d 5aeb 80bd 54e0 64bc
000002e0: 0970 cebc 2b71 05be ee2c e4bd 7f6a 70bd
000002f0: 8643 5abd e5fa 9cbd b93e 093e d405 cbbd
00000300: 4ffd e83d 3b76 aebc 8476 033e 43b2 113e
00000310: e955 07be f91c 0cbe e6b2 16bd 0a7c d5bd
00000320: ce79 0c3e 5613 ffbd 1701 c73d a2a9 203d
00000330: 48ee 8cbd cce2 163d 897d c23c 3e6b 003e
00000340: 466d b9bd eaf6 023d f8e4 803d da4f ee3d
00000350: 27e8 df3d 385b 913d 46c0 8abc 6b38 af3d
00000360: ae60 8a3d 110a c93d 4046 e9bd a9e7 b93c
00000370: b4bc 05bd 73cd b2bc d633 eabc 245e f9bb
00000380: 9c62 1cbd eda9 ed3d ca16 c5bd f54a 163c
00000390: c2e8 ecbc 5c1e 13bd 9e3a 1e3d 00b9 3c3d
000003a0: 7382 933b 43ad 6f3d c173 1fbe 5519 43bd
000003b0: 9997 0a3d 12c4 3bbd 0008 813d e350 613b
000003c0: 2d08 f43d 595a ddbd 3aab 72bb 2cc1 6ebd
000003d0: 3677 2fbd a4ec 2a3d a3a8 f93d 6dd2 d53b
000003e0: 0ec3 2cbc 6564 87bd 9d90 a7bc 9ab7 cc3d
000003f0: 4a0d 9c3d 9fa0 c9bd a64f 0c3e 4d6d 023e
0.08433078 -0.050880622 0.10118404 0.037943315 -0.07946808 -0.045986388 0.11570369 -0.11670203
0.04673764 0.088015474 0.07769818 0.039759677 0.0400631 -0.08245627 0.06663378 0.13865548
0.07916273 0.1332205 -0.012794697 0.005152537 0.05869835 0.09180147 -0.12119163 0.076488346
-0.010310189 -0.07732275 0.015729602 0.07655431 -0.1046844 0.043733113 0.013558709 0.074722365
-0.012849912 -0.008678641 -0.00075514044 0.07417452 0.11716536 -0.08227872 0.10850388 -0.05768242
-0.10040918 -0.11028366 -0.027286142 0.06917969 -0.09821181 -0.10052585 0.12133926 0.019309787
-0.1505234 -0.046737038 0.09489722 -0.11877696 -0.05255345 0.03685174 0.096874215 0.00072900293
0.10604006 0.0843658 0.044801738 -0.012349913 0.070503466 0.072780736 -0.032775715 -0.07811943
-0.04909875 -0.04778564 -0.13154681 0.036302935 -0.053123184 0.11045292 -0.07325932 -0.09059585
-0.097071156 -0.12379647 0.09742603 0.091772005 0.07403669 -0.047688726 0.037628874 -0.17130235
0.023240117 -0.06470121 -0.025202414 0.08226526 0.1129312 -0.13080586 0.10222131 0.14905643
0.08577695 -0.012520859 0.09611069 -0.07972877 0.0707003 0.022217 0.10526028 0.06494241
0.020546246 0.06496535 -0.08875385 -0.100526124 0.098482385 -0.083166465 -0.11532472 0.10303777
-0.02979263 -0.048809387 0.09483845 0.09271496 0.034357805 0.07563926 0.05952195 -0.0063230796
0.0868907 0.14468901 0.052065097 0.1499502 -0.09962498 0.05075271 0.060416322 0.04891731
0.016007256 0.14902095 -0.113235086 -0.09556266 0.04970912 -0.093378834 -0.034691606 0.064945415
-0.014385451 -0.13638085 -0.11297577 -0.0908188 -0.12853193 -0.08926084 0.008898228 -0.053368907
-0.055472065 0.03733229 -0.11361712 0.07924104 0.08765784 -0.072668016 0.10227077 0.020221192
0.0669839 0.05094042 0.055082105 0.0030002268 -0.052528635 -0.07102741 0.044278476 0.10410773
0.09740562 0.11457104 -0.1049144 -0.10266294 -0.0078207785 -0.09541936 -0.11640552 0.045481842
-0.08638015 -0.07504339 0.022787154 0.007211295 -0.0961619 -0.096697524 0.08407862 -0.07680444
0.07540982 0.07154415 -0.09544526 -0.04017625 -0.008296448 -0.0547521 0.06456633 -0.030082267
0.10486919 0.057836868 -0.09434378 -0.11795577 0.11939603 0.07575697 -0.0629489 -0.0139695
-0.025199907 -0.13031451 -0.11141382 -0.058695313 -0.05328705 -0.07665042 0.13402833 -0.09913221
0.1137644 -0.021296611 0.12838179 0.14228158 -0.13216366 -0.13682927 -0.036791705 -0.10424049
0.1371834 -0.1245486 0.09717005 0.039224274 -0.06881386 0.036837384 0.0237415 0.1254091
-0.090540454 0.031973757 0.06293672 0.11636324 0.109329514 0.07097477 -0.016937386 0.08555683
0.067567214 0.09816373 -0.11390352 0.022693472 -0.032650664 -0.021826481 -0.02858917 -0.0076100994
-0.03817998 0.116046764 -0.09623487 0.009173145 -0.028919581 -0.035917625 0.03863012 0.046074867
0.0045016347 0.058514845 -0.155715 -0.04763158 0.03383598 -0.045841284 0.06300354 0.0034380488
0.11915622 -0.10808248 -0.0037028329 -0.05828969 -0.042838298 0.041729584 0.12190368 0.006525329
-0.010544552 -0.066109456 -0.0204547 0.09995957 0.07619722 -0.09845089 0.13702258 0.12737007

rnn.weight_hh_l1 f4 [50, 50]
00000000: 3208 253d ef97 583d 20d7 413c 4c47 d63c
00000010: fe7f 0cbe c88f 863d d680 263d 8cb2 ddbd
00000020: 3f4e f53d 222f 9cbd 0189 f13c fe89 2fbc
00000030: 1006 273b 2efa ff3d 3cc8 50bd dda0 7a3d
00000040: 29ca 6d3d 0626 89bd c432 00bd 28fb 163d
00000050: eba3 143c 7557 c33d fb38 913d cd9d 543d
00000060: 5a5b 00be 1415 bcbd fbc6 22bd 4e83 023d
00000070: e7ca 18be 697e 8c3d 4d66 ddbd edad 0bbe
00000080: ccb4 de3d e1de a33d a4a7 a8bd 317f a73c
00000090: 3df0 003e a2b7 9bbc 3b6a c0bd 8681 2d3e
000000a0: aa38 113e aca2 f73d 5e27 ccbd 3a55 003e
000000b0: 7473 d53d 2198 ee3d dac9 6d3d a503 fdbd
000000c0: efb7 e23d 95da d83d 0205 9c3b df2c a4bd
000000d0: 8c5e 22bc 9e09 0abe 4ec7 c93c ed4e d93d
000000e0: f6da 63bd 284e 8fbc 768e 12be 8d30 853c
000000f0: ad69 8c3d dbaf 3ebc 4449 edbd 5586 a7bd
00000100: bbfb e33d 1839 c23d 6641 aabd b081 d1bd
00000110: f73b d3bc 3955 ec3d 56ae ac3d 16d5 6fbd
00000120: e9a4 41be 3388 74bd 02e9 083e b0db d1bd
00000130: 870a fb3d a0bf 56bd 863a 7a3d 7125 8c3d
00000140: 4f25 9f3d 474b 07be ca53 8b3d 3086 8a3c
00000150: be0b 5ebd a0dc aabd 8224 70bd 6767 88bd
00000160: add6 a03d 0a4a 373d 703b 07be 0cae d03d
00000170: b5e2 023d d397 9fbd 4f90 c73d c2b2 92bd
00000180: 05cf d5bc e51e c83d e133 7e3d e742 89bc
00000190: 5111 b33c a438 b1ba 65a8 d2bc bc46 b13d
000001a0: cfb6 30bd ed24 1fbd 352f 63bd d7e2 073d
000001b0: 4e99 0c3b 9fcd bbbd b12c fabd e0c5 cabd
000001c0: dd0b 813c 7f2f ec3d d312 9b3d 3cf4 4ebd
000001d0: a7ff 853d a7bc b8bd bc1b c3bd 0956 f63d
000001e0: 6678 93bc 9a5d e3bd d721 a6bd 2335 c8bd
000001f0: 63c5 f7bb da19 103b ddd9 b63b fe04 90bd
00000200: af21 8f3d 47e5 fbbd 0097 353d 63f0 2a3d
00000210: f469 b9bd f848 c1bd 1cb4 3cbb d42f 17be
00000220: 7138 d9bd 0495 7ebc 9a28 2c3d d67e 4e3d
00000230: 56bb dbbd d89f 4cbd 91bd 093e 0a20 a83d
00000240: f37e 9b3c 067b 02be 1daf 0cbd 8ede 8a3c
00000250: ff7b c13d c568 a7bc 80be 83bd 583c 10be
00000260: 6c6c bdbd 7932 573d b2ff 083e b3c3 b33d
00000270: 0ce0 10be 86fe a73d d43e 843d 53df febd
00000280: c5b6 a5bd 08cd 71bd 465d c33d b04e 07be
00000290: efdd 2c3d 16d3 eebd 758d 983c 6bcc 013e
000002a0: 59c6 23bd 4fa4 ebbd 648d 5dbc 2d72 8a3d
000002b0: 1244 b4bd 7e06 cdb8 3828 383d 0d1d f03d
000002c0: 7280 7fbd 93e8 d5bd 1dc8 6abb ba99 ef3c
000002d0: e41d a83c 18be c3bc a484 d53d e487 bbbb
000002e0: b583 4a3c 78d2 80bd c7ca d53c 7468 da3d
000002f0: 6243 1dbe f8b8 c1bd 97d2 bd3c a992 e23d
00000300: 177d 8b3d 6b16 4c3d b469 2f3c df1b 113e
00000310: fdcd cfbd 088c 283c ad2c 043e b89c 0cbe
00000320: ebba df3c b287 60bc cb3e e8bd 94f6 b1bd
00000330: fb36 dcbd b008 77bc e248 7dbd f44b 043e
00000340: 7353 d7b9 85d2 b4bc 5a3a ab3c dd30 0bbe
00000350: 4cf4 ba3d 2821 9ebd 79c1 bebd 9cc4 e43c
00000360: dc15 7e3d 0145 d73d 393d aa3d 2e2d acbd
00000370: 1abe 30bd 230c 953c d3b2 d23d 063d 9c3c
00000380: 50ac dabd 47e3 de3d 9a24 cc3d d368 81bd
00000390: 20c9 c43d 66ce af3d 6ae8 23bd f7cb 24be
000003a0: de3f eebd ece8 e43d 6a81 653c 4a21 ecbd
000003b0: dab6 f5bd 9106 1cbe b995 d7bd d051 84bd
000003c0: 8ed9 04be d6bf d43d 4d5d 9abd 9a3f 233c
000003d0: b091 c73d f75e 0b3e 7ada f8bd d022 993b
000003e0: e137 ae3d 6a05 dfbd 321c ef3d 5af8 cb3d
000003f0: e469 9f3b 1233 b33d 1ff1 a43d 47a7 99bd
0.04029102 0.05287927 0.011831075 0.026157044 -0.137207 0.06570393 0.04065021 -0.10825071
0.11977815 -0.07626177 0.029484274 -0.010714052 0.0025485791 0.1249889 -0.05097221 0.061188567
0.058054123 -0.066967055 -0.031298414 0.036860615 0.009072284 0.095381655 0.07090946 0.051908303
-0.12534848 -0.09183708 -0.039740544 0.031863503 -0.14921151 0.06860048 -0.10810528 -0.13640566
0.10874328 0.08001495 -0.082351 0.020446392 0.12591644 -0.019008461 -0.09395262 0.1694394
0.14181772 0.12091574 -0.09968446 0.12532511 0.104224116 0.1165011 0.05805383 -0.12354211
0.11070239 0.10588566 0.004761339 -0.08016371 -0.009910237 -0.13480231 0.024631169 0.10610757
-0.05562874 -0.017493322 -0.14312157 0.016258502 0.068560936 -0.011638607 -0.1158624 -0.08179919
0.11131998 0.09483546 -0.08313255 -0.10229814 -0.02578543 0.115396924 0.084316894 -0.058552824
-0.18910564 -0.059700202 0.13370135 -0.1024698 0.12257867 -0.05242884 0.06109097 0.06843079
0.07770788 -0.1321231 0.06803091 0.016909689 -0.054210417 -0.08342862 -0.058628567 -0.066603474
0.07853446 0.044748344 -0.13206267 0.10189447 0.031954486 -0.0779263 0.097443216 -0.071630016
-0.026099691 0.09771518 0.062061194 -0.016755534 0.021858843 -0.0013520909 -0.025715062 0.0865607
-0.04314309 -0.038853575 -0.055464942 0.033175316 0.0021453681 -0.091700785 -0.122155555 -0.09901023
0.015752727 0.11532497 0.0757195 -0.05052589 0.065429024 -0.090203576 -0.09526774 0.12028129
-0.018001746 -0.111018375 -0.08111923 -0.0977576 -0.007561372 0.0021988065 0.0055801705 -0.07032202
0.069888465 -0.122995906 0.044333458 0.041733157 -0.09053412 -0.09437746 -0.0028793877 -0.14764339
-0.106064685 -0.015538458 0.04203091 0.05041393 -0.10729091 -0.049957126 0.1345122 0.08209236
0.018981433 -0.12742242 -0.03434669 0.016951825 0.094474785 -0.0204357 -0.06432819 -0.1408552
-0.092491955 0.05253837 0.1337879 0.08777561 -0.14147967 0.08202843 0.06457296 -0.124449395
-0.08091501 -0.059033424 0.09539275 -0.1321361 0.04220384 -0.11661355 0.01862214 0.12675636
-0.03998408 -0.11505949 -0.01352248 0.067600586 -0.08802046 -9.776371e-05 0.04496023 0.11724291
-0.062378354 -0.10444751 -0.0035824843 0.029248107 0.020522065 -0.023894355 0.1042569 -0.0057229865
0.012360503 -0.06290144 0.026097668 0.10664454 -0.15357736 -0.09459108 0.023171706 0.110631295
0.06810968 0.049826067 0.010706354 0.14170788 -0.10146711 0.010287292 0.12907667 -0.13731658
0.02731081 -0.013704227 -0.11340102 -0.08689609 -0.10752674 -0.015077755 -0.061837085 0.12919599
-0.0004107017 -0.02207304 0.020901848 -0.13592859 0.09128627 -0.07721168 -0.09314246 0.027925782
0.062032565 0.10511208 0.083124585 -0.08407055 -0.043150045 0.018194264 0.10288014 0.019072067
-0.10677397 0.108831935 0.09967919 -0.06318822 0.09608674 0.08584289 -0.04001657 -0.16093431
-0.116332754 0.11177239 0.0140079055 -0.11529787 -0.11997767 -0.1523688 -0.10526604 -0.06460917
-0.12973616 0.10388152 -0.07537327 0.009963894 0.097445846 0.13610445 -0.12151046 0.0046733394
0.08506752 -0.108897045 0.116753 0.09959479 0.004864918 0.08749975 0.08053803 -0.07502609

rnn.bias_ih_l1 f4 [50]
00000000: 9380 f8bd f7fe 47bd 1569 37bd 6719 d33d
00000010: 05f5 8a3c 5cd4 d63d d538 d33d 08b9 e03d
00000020: 5e11 fabd ecd0 9b3c f4bd 1a3c 6d91 653d
00000030: 4f82 273d f40c 03bd abe7 ce3d 66f2 cdbd
00000040: 8427 7f3d 175b 003b 9945 7dbd a8ba 79bd
00000050: 9d02 45bd 73ac d3bd 8b9c d13d 1616 8ebd
00000060: 34ec 863d 7679 2c3d a6d0 88bb 2c56 d8bd
00000070: fd41 97bc 54c5 bbbd 9041 b7bd 8ce9 903d
00000080: a4dc c6bd 8a23 b13d 58df 06be 73c1 7abd
00000090: fa44 e7bc 39e3 a13d f825 d1bd cb33 ed3d
000000a0: 8317 803d ca95 e43d 68dd 11bd 6a59 ad3c
000000b0: fcfb fc3d 6960 f6bd 0652 c3bd 7094 f93c
000000c0: fc20 0dbd 5dc1 6d3d
-0.121338986 -0.048827138 -0.04477795 0.103075795 0.016962538 0.10489723 0.10313574 0.10972792
-0.12210344 0.01902052 0.009444702 0.056046892 0.040895756 -0.031994775 0.10102781 -0.100559995
0.062293544 0.0019585544 -0.06183395 -0.060969025 -0.048098195 -0.103356265 0.10234936 -0.06937806
0.06588021 0.04210802 -0.0041752635 -0.10563311 -0.018464083 -0.09168497 -0.08948052 0.070757955
-0.097100526 0.08649357 -0.13171136 -0.061219644 -0.028231133 0.079046674 -0.1021232 0.11582144
0.062544845 0.111613825 -0.03561154 0.0211608 0.1235275 -0.120301075 -0.09537129 0.030466288
-0.034455284 0.058045734

rnn.bias_hh_l1 f4 [50]
00000000: aa46 9b3d 34e1 933d d011 8b3d 1b78 9d3d
00000010: 4fda b63d c24b 563d 3b32 24bd 123f d7bd
00000020: 2671 bc3d 3d43 3e3d 86fd 06bc 152b ff3d
00000030: cf95 ffbd c7ca 91bd d3fe 973c b2bd 013d
00000040: a3b1 a7bd b562 9bbd 1456 843d 0d29 1c3d
00000050: a07b debd b1dc 8b3d 8fb8 44bd 2bff c83d
00000060: 7b31 f5bd 1c5d a0bc 0455 bd3c be19 e33c
00000070: 50c2 ffbd e906 6fbd e459 b4bd 16c4 1cbd
00000080: 14c6 ddbd c21c 893d 130b 0b3d bf6f 9fbd
00000090: 9f21 c83d b43d e2bb c880 833d 5f24 fa3c
000000a0: a0bc f83d 3fe8 273d 8731 043e fa7d b03d
000000b0: ae88 fcbd e428 203d e844 c33d ae9a d5bd
000000c0: e267 6f3d 0c8f b23d
0.075818375 0.072206885 0.06790507 0.07688924 0.08928358 0.052318342 -0.040086966 -0.105100766
0.09201269 0.046450842 -0.008239156 0.12459389 -0.124797456 -0.07118755 0.018554127 0.03167505
-0.081881784 -0.07587186 0.064617306 0.038125087 -0.10863423 0.06829203 -0.04802757 0.098142944
-0.11972328 -0.019575648 0.023111828 0.027722236 -0.12488234 -0.0583562 -0.08806208 -0.03827294
-0.10828796 0.06694938 0.033946108 -0.07784986 0.09772038 -0.0069043282 0.064210474 0.030534921
0.12145352 0.04099297 0.12909518 0.08617778 -0.12330757 0.039101496 0.09534627 -0.104298934
0.05844868 0.0871869

fc.weight f4 [10, 50]
00000000: a253 82bd 2298 1ebd 1d05 c43c af13 ae3d
00000010: 39c9 2d3b de28 c23d 4cc5 553d faec ccbc
00000020: 3df7 323d 7867 cd3d 89cf ce3d 8f3e 83bc
00000030: fdb7 01be 02f6 373c 27b2 9b3d ad2b ec3c
00000040: 797a b8bc 8c8a 00bd 0544 db3d 14e6 a9bd
00000050: c19f 07be 7aeb 92bb 2046 8b3d 4d27 5abd
00000060: 40a6 a7bb ce46 a43d b623 f6bc 19f4 6c3d
00000070: bf8f f43d 2367 bd3d 5c4b cbbb 6b23 893c
00000080: 8e98 e63b 1ff8 fb3d eee6 863d cbfc a9bd
00000090: ce64 a93c 166b bd3d 84d6 1a3d ec4c f63d
000000a0: 7142 1b3d 5278 093c 4fba a93d 4e2f d63d
000000b0: ac7c 033d 328e cf3d 5f59 15be c415 91bd
000000c0: c675 9e3d 3a56 53bd 27ae 99bd 64f0 8abd
000000d0: 0651 6cbd 95b4 3ebd 3d0d ca3d e8e6 99bd
000000e0: d704 98bd c0a3 f73d e7b0 a43d aaca b53d
000000f0: 4dc9 c93c 4040 223d ae10 e93c 312a 983c
00000100: ac75 613d f249 b6bd 3692 69bd 1254 c03d
00000110: bcfe a2bb 86d3 883d 27d8 74bc 0587 72bd
00000120: 3243 40bd 8b93 40bd 47cb 9abd c594 dbbd
00000130: cebe cfbc ad9d 78bd c107 bc3a c454 d8bb
00000140: afac cf3d 80d9 343d 7e94 83bc 248b 06be
00000150: ffdb 5b3d a399 aa3d 4c09 dc3c 3945 3abd
00000160: 517d 933d 18d5 6b3d 1a80 dbbd 6a30 b43b
00000170: 3ea2 37bd c223 973b 6c33 e2bd bc97 c0bc
00000180: 9c70 713d c188 8dbd 2f7f ec3d bd44 d73d
00000190: 494b d53d e2b1 ab3c 848c 50bd 95a6 59bd
000001a0: ee09 95bb 7e30 6bbc 247a 013d 22d1 a5bd
000001b0: 9422 02be a581 23bd fb08 68bd 3fe3 9bbd
000001c0: ab2a 513b 75e5 023e 47de de3c ee12 93bd
000001d0: 76e6 883d 7004 903d 4db0 4bbc c9aa aa3d
000001e0: 6f47 503d 0646 4bbd bf00 823c b1b3 d6bd
000001f0: cdfa ac3c b214 40bc 6b56 083d 096f ab3c
00000200: 5b0c 2cbd cc2b 9c3c a4c1 a43d 0f5f 1ebd
00000210: bc97 e8bd f136 9abd ee0e 0fbe df00 acbd
00000220: c688 e53c fe0e d93a 0363 72bb 562c bd3c
00000230: b45e 533c b975 d43d b200 bf3d b5e4 ab3c
00000240: d7f4 83bd a418 563b 5913 423d 630f 67bd
00000250: 9455 31bd 67a2 babb b5e4 093e c77c 7c3d
00000260: 22d5 3abb d1e2 bc3d 8b9a 18bd 6a4d 043e
00000270: bb40 6e3d c666 db3d 4517 3b3d 5f8f f1bd
00000280: 6719 a13d 74cf f43d a083 003e 3ceb d1bd
00000290: 61af 99bd b350 ef3d e6f6 393c 2cbf d9bd
000002a0: e30a d3bd f367 973d c882 853d 2db3 5dbd
000002b0: fb63 a4bd c713 ec3d bfa2 dabd 7ef7 97bd
000002c0: 9a06 af3d 4eb5 65bd 8e17 09be de72 06be
000002d0: d469 0cbd c9d2 213c e951 aebc e010 09be
000002e0: 8715 0cbd 1928 6b3d cb1e 3e3d 045a 893c
000002f0: 8392 603d c39d 61bd 1bd4 bf3c d993 e83c
00000300: 2c9a 9a3b 375d 973c fdf5 d03d fe95 febd
00000310: 5b1b c13d e5a7 063e bc6c 1f3d b55b 46bb
00000320: c548 fdbd f695 833d f571 86bd f574 e13c
00000330: 113c a5bd 03c0 5d3d 1107 64bd 9d99 043e
00000340: 8e47 e0bc 9a27 b53b c7b5 e0bd 9f96 23bd
00000350: 5bc4 043e 1ee3 9abd e218 be3b 4403 c3bd
00000360: afdd 85bc d729 7abc 57be ca3c bf7c 893d
00000370: 4963 d43d 30ab 74bd 68ed e93d 1742 94bd
00000380: 452c 97bd b316 15bd ad5a 86bb f6fb febd
00000390: 0afa 983d e292 9ebd da47 06be 5f3d 8cbc
000003a0: 1480 48bd 2bba b1bd b009 6d38 ba75 1b3c
000003b0: daf1 993c 3ea6 1d3e cf8c d5bd 5cc5 7f3d
000003c0: b64f f0bc d778 753c 5739 f33d d766 2d3c
000003d0: 9119 c0bc a8b0 853b ddac 21bd 28c3 4b3d
000003e0: 12dd d5bd a652 dd3d 4191 033e f164 d33d
000003f0: 1c45 003e 6c31 083e 3627 e43d 359e 7c3d
-0.06363608 -0.038719304 0.02392822 0.08499848 0.0026517643 0.09480451 0.05219011 -0.025015343
0.043692816 0.10029501 0.10098178 -0.016021041 -0.12667842 0.011228086 0.07602339 0.02882942
-0.022519337 -0.03138213 0.10706333 -0.08295837 -0.13244535 -0.0044836374 0.06800485 -0.053260136
-0.005116254 0.080213174 -0.030046325 0.057849977 0.1194148 0.092481874 -0.006204052 0.016740521
0.007037229 0.12303185 0.06587015 -0.083001696 0.02067795 0.09248941 0.037802234 0.120263904
0.03790516 0.008390503 0.08287489 0.104582414 0.03210132 0.101345435 -0.14584874 -0.070842296
0.07737307 -0.051595904 -0.0750392 -0.06784132 -0.057694457 -0.046558935 0.09865806 -0.07514745
-0.07422798 0.1209178 0.08041554 0.08876546 0.02463212 0.039612055 0.028450336 0.018574806
0.05504386 -0.08900823 -0.057024203 0.09391035 -0.0049742144 0.0668097 -0.014944113 -0.059210796
-0.046939082 -0.047015708 -0.07558303 -0.10721735 -0.025359537 -0.060697246 0.0014345573 -0.0066019017
0.10140359 0.044152737 -0.016062018 -0.13139015 0.0536766 0.08330085 0.026859902 -0.045476172
0.072016366 0.05757627 -0.10717793 0.0054989355 -0.04483246 0.004612417 -0.11044964 -0.023509853
0.058945283 -0.06910849 0.11547696 0.10511158 0.1041475 0.020958845 -0.050915256 -0.05313738
-0.004548303 -0.014354823 0.031610623 -0.080965295 -0.12708503 -0.03991856 -0.05664919 -0.07611703
0.0031916301 0.12782843 0.0272056 -0.07181345 0.06684582 0.070320964 -0.01243217 0.08333356
0.050849374 -0.049627326 0.015869496 -0.10483492 0.021115685 -0.011723684 0.03328554 0.02092697
-0.04200397 0.019063853 0.080447465 -0.038664874 -0.11357066 -0.075300105 -0.13970539 -0.08398604
0.02801932 0.0016560254 -0.0036985285 0.02309243 0.012900997 0.10374016 0.093263045 0.02098308
-0.06443184 0.0032668496 0.047381733 -0.05641116 -0.043294504 -0.0056956294 0.13466151 0.061642434
-0.0028508385 0.09222949 -0.03725676 0.12920156 0.0581672 0.10712962 0.04567649 -0.11794924
0.07866173 0.11953631 0.12550211 -0.102499455 -0.07504154 0.11685314 0.011350369 -0.10632166
-0.10304811 0.073928736 0.06519085 -0.054125953 -0.08026882 0.1152721 -0.106755726 -0.07420252
0.08546181 -0.05608111 -0.13387892 -0.13129756 -0.034280613 0.009876915 -0.021279292 -0.13385344
-0.034200218 0.057411287 0.046416085 0.016766556 0.054827224 -0.055082094 0.02341657 0.028390812
0.0047180858 0.018477065 0.102031685 -0.124309525 0.09429046 0.13149984 0.038922057 -0.0030267064
-0.12367395 0.06425087 -0.06564704 0.02752159 -0.080680974 0.054138195 -0.0556708 0.12949224
-0.02737787 0.0055284025 -0.10972171 -0.039938565 0.12965529 -0.075628504 0.005801306 -0.09522107
-0.016341059 -0.015268764 0.024748964 0.067132466 0.103705 -0.05973357 0.11422235 -0.07239168
-0.073814906 -0.0363986 -0.004100165 -0.124504015 0.07469566 -0.077428594 -0.13113347 -0.017119108
-0.04895027 -0.08678087 5.6514225e-05 0.009488517 0.018792082 0.15395448 -0.10427248 0.062444076
-0.029334884 0.014982424 0.11876171 0.010583601 -0.023449691 0.004079897 -0.039471496 0.049746662
-0.104425564 0.108067796 0.12848379 0.103219874 0.12526363 0.13300103 0.111402914 0.061674315

fc.bias f4 [10]
00000000: 4ad6 5bbd a040 233d 7c7e b3bc 996f 23bd
00000010: 6d1d 0fbd da08 9ebd af56 a03d 9b9a 023d
00000020: 38a0 f4bc cf88 acbd
-0.05367116 0.039856553 -0.021910898 -0.03990135 -0.034940172 -0.07716532 0.078290336 0.031885725
-0.029861555 -0.08424532
