best_model.pth (torch, 83825 bytes, 4 tensors)

fc1.weight f4 [50, 400]
0	0xbc5f3ac8	-0.013624854
1	0xbc042719	-0.008065962
2	0x3d6157dd	0.055015434
3	0x3d2f2d1a	0.04276762
4	0x3c40b3a3	0.011761579
5	0x3cfe906e	0.031074729
6	0x3d9c619b	0.07635804
7	0x3daf0a7a	0.0854692
8	0x3cfb9fab	0.030715784
9	0x3dffff62	0.12499882
10	0x3db34dd1	0.08755077
11	0x3e050565	0.12990339
12	0x3e32cc1e	0.17460677
13	0x3da08966	0.07838707
14	0x3d58b3f2	0.052905984
15	0x3dbf23f0	0.093330264
16	0x3d184bab	0.037181538
17	0x3c308358	0.010773502
18	0xbba2ccb1	-0.004968249
19	0x3cd6e11f	0.026230393
20	0x3cb099e1	0.02155775
21	0x3d0e2bd8	0.03470978
22	0xbc47a5b8	-0.0121855065
23	0xbcbf0e24	-0.023322172
24	0xbd448a1c	-0.047983274
25	0xbd82164a	-0.063519076
26	0xbc28f306	-0.010311848
27	0xbc77b694	-0.015119214
28	0xbd9309e8	-0.07179624
29	0xbdfd7dec	-0.12377533
30	0xbd69cf0c	-0.05708222
31	0xbd6ca412	-0.057773657
32	0xbda00057	-0.07812565
33	0xbcd760d4	-0.026291288
34	0xbc650e59	-0.0139804715
35	0x3cc9dd6c	0.024641715
36	0x3ce7063b	0.028201213
37	0x3c9e39bf	0.019314645
38	0x3d7f29d9	0.06229577
39	0x3d66e5d1	0.056371514
40	0x3d2df640	0.04247117
41	0x3d930b8b	0.07179936
42	0x3d0b8fd7	0.034072723
43	0x3c36efbd	0.0111655565
44	0x3d33de94	0.04391344
45	0x3cac7ee9	0.02105661
46	0xbab0adb9	-0.0013479508
47	0xbc5f8921	-0.013643534
48	0x3c49973c	0.0123041235
49	0xbd291d3f	-0.041287657
50	0x3cba06c9	0.022708314
51	0x3d5767f1	0.05258936
52	0x3dd55fdf	0.104186766
53	0x3db64489	0.08899791
54	0x3dccea50	0.10005629
55	0x3dadb5bb	0.08481928
56	0x3cc52288	0.024064317
57	0x3d795bae	0.06087845
58	0xbce2309c	-0.02761107
59	0xbc7a06d8	-0.015260421
60	0xbb2dfc91	-0.0026548246
61	0xbd85fd4a	-0.06542452
62	0xbdb027a6	-0.08601312
63	0xbda6fbe3	-0.08153512
64	0x3bbb9111	0.0057240804
65	0x3d46b14a	0.04850892
66	0x3dacaa87	0.08430963
67	0x3d4793ea	0.048725046
68	0x3d65d874	0.05611463
69	0x3dcff68f	0.10154449
70	0x3d81737d	0.06320856
71	0x3d2d4b5e	0.042308204
72	0xbd22df9e	-0.03976404
73	0x3c57a6fe	0.013162373
74	0xbd4c3ee9	-0.049864683
75	0xbe178bc3	-0.14799409
76	0xbddf022e	-0.108890876
77	0xbdababcd	-0.08382378
78	0xbd19d30f	-0.037554797
79	0xbdb6d873	-0.08928003
80	0xbd851a90	-0.06499207
81	0xbbb97277	-0.005659397
82	0x3dbb7d72	0.09154786
83	0x3d8047ba	0.06263681
84	0x3d4476de	0.047964923
85	0x3db11c7a	0.086480096
86	0x3d896312	0.06708349
87	0x3d985ead	0.07439933
88	0xbb0c40f1	-0.0021401013
89	0x3c170b60	0.009219021
90	0xbd84d74f	-0.06486379
91	0xbd30db5a	-0.04317794
92	0x3c1056c3	0.008809748
93	0xbd49a146	-0.049226068
94	0x3d4b620c	0.04965405
95	0x3d89bbd0	0.067252755
96	0x3db19933	0.086717986
97	0x3c785096	0.015155932
98	0x3d89c540	0.067270756
99	0x3c6ba9e7	0.01438377
100	0x3d7804b9	0.06055138
101	0x3d6b6d16	0.05747708
102	0xbd7866c5	-0.060644884
103	0xbce490ce	-0.02790108
104	0xbdbf17d1	-0.093307145
105	0xbe0b9824	-0.13632256
106	0xbd8d5209	-0.069004126
107	0xbdfce657	-0.12348621
108	0xbdf5e5a1	-0.12006689
109	0xbd2d95ee	-0.042379312
110	0xbd3d2349	-0.04617623
111	0xbc56bde4	-0.013106797
112	0xbcbdc76b	-0.023166379
113	0xbcf118ee	-0.029430833
114	0xbd0aaf46	-0.03385856
115	0x3d1e5cc7	0.038662698
116	0x3d442f44	0.04789664
117	0xbc2c0f7a	-0.010501737
118	0xbd7063fe	-0.05868911
119	0xbdb9f294	-0.09079471
120	0xbe13e39e	-0.14442298
121	0xbe25c5d7	-0.16188751
122	0xbe14172f	-0.14461969
123	0xbe507f92	-0.20361164
124	0xbe440c3f	-0.19145297
125	0xbe04874d	-0.12942238
126	0xbe089fc2	-0.13342193
127	0xbd8e1cf3	-0.069391154
128	0xbd398e75	-0.045301873
129	0xba115dd6	-0.00055452937
130	0x3cab8ab4	0.020940162
131	0xbdab2d99	-0.083583064
132	0xbd5350ba	-0.05159066
133	0xbdb5482d	-0.08851657
134	0xbe0ad486	-0.13557634
135	0xbe34b2cb	-0.17646329
136	0xbe3fefd5	-0.18743832
137	0xbe659483	-0.22419934
138	0xbe385c57	-0.18003975
139	0xbe70d420	-0.2351842
140	0xbe274d7b	-0.1633815
141	0xbe258dca	-0.1616737
142	0xbdd7310d	-0.105074026
143	0xbe01b9c4	-0.1266852
144	0xbdabfc54	-0.08397737
145	0xbd6db4ce	-0.058033757
146	0xbdcb4989	-0.09926135
147	0xbcbdbd72	-0.023161624
148	0xbd37c695	-0.044867117
149	0xbdb2f169	-0.087374516
150	0xbd122264	-0.03567733
151	0xbd9e5f79	-0.07733054
152	0xbaa55361	-0.001261335
153	0xbd84f993	-0.06492915
154	0xbd5a6d0c	-0.05332665
155	0xbceed3f3	-0.0291538
156	0xbd8bfde2	-0.06835534
157	0x3ad08c3c	0.0015910934
158	0xbc122cf5	-0.008921851
159	0xbb9d7be6	-0.0048060296
160	0x3c960bee	0.018316235
161	0x3bc8ed4d	0.006131804
162	0xbccb3e1a	-0.024809886
163	0xbcdda403	-0.027055746
164	0xbd4247b7	-0.047431674
165	0xbe00f3bc	-0.12592977
166	0xbd4f5af8	-0.050623864
167	0xbdbf461c	-0.09339544
168	0xbd7468a7	-0.059670117
169	0xbcb4bd4a	-0.022062916
170	0xbd804503	-0.06263163
171	0x3c9c46c7	0.019076718
172	0x3c5cfb29	0.013487616
173	0x39b64c35	0.00034770524
174	0xbc06f4fc	-0.00823712
175	0x3d6a790f	0.057244357
176	0x3da41ad6	0.08012931
177	0x3c06ad5a	0.008220041
178	0x3d253fe9	0.040344153
179	0x3d457f46	0.04821708
180	0xbd43aaef	-0.047770437
181	0xbd79eeaf	-0.061018642
182	0xbaede9ec	-0.0018151379
183	0xbd3884c7	-0.0450485
184	0xbd85cf98	-0.06533736
185	0xbce8b91d	-0.028408581
186	0xbd3f71b6	-0.046739303
187	0xbdc22107	-0.09478956
188	0xbc80444b	-0.015657565
189	0xbc7ade9f	-0.015311866
190	0xbd122ecc	-0.03568916
191	0xbcdddfdb	-0.027084282
192	0x3d009e56	0.031401
193	0x3cfbe338	0.030747995
194	0x3d22dced	0.039761472
195	0xbcd377de	-0.025813993
196	0x3d91b151	0.071138985
197	0x3d86fe4b	0.06591471
198	0x3d889700	0.06669426
199	0x3d4878d0	0.04894334
200	0x3c6ed5c5	0.014577334
201	0x3d0387c8	0.032111913
202	0x3c616f89	0.013759502
203	0xbc721bb9	-0.014777117
204	0xbdbf139a	-0.093299106
205	0xbd188477	-0.037235703
206	0xbda8bd0f	-0.08239185
207	0xbde41c4f	-0.11138212
208	0xbd9b80ab	-0.07592901
209	0xbe24403a	-0.16040125
210	0xbdfe6a89	-0.12422664
211	0xbe23f77b	-0.16012375
212	0xbe0de955	-0.1385854
213	0xbe22566b	-0.15853278
214	0xbd801a1e	-0.062549815
215	0xbd90e2e2	-0.070745245
216	0xbd25b182	-0.040452488
217	0xbdeff073	-0.11715784
218	0xbdb3e485	-0.08783821
219	0xbd142fdc	-0.036178455
220	0xbdf641db	-0.1202428
221	0xbd3c6c60	-0.046001792
222	0xbd5ef8e9	-0.054436598
223	0xbd3c0ed7	-0.04591259
224	0xbd2c5cc2	-0.04208065
225	0xbd388d50	-0.04505664
226	0xbda39311	-0.07987035
227	0xbd41e31d	-0.047335733
228	0x3d6b021b	0.057375055
229	0x3d9725b1	0.07380236
230	0x3da0a5d4	0.07844129
231	0x3d00d1d0	0.031450093
232	0x3d980b9e	0.07424091
233	0x3e00abef	0.12565587
234	0x3de2567b	0.11051651
235	0x3e1a0752	0.15041855
236	0x3e820d55	0.25400797
237	0x3e639ea9	0.22228493
238	0x3e6b57e3	0.22982745
239	0x3e93fdad	0.28904477
240	0x3e993ce7	0.29929277
241	0x3e9ef811	0.31048635
242	0x3e98f28f	0.29872558
243	0x3e7ca135	0.2467087
244	0x3e5f5b05	0.21812065
245	0x3e832af0	0.25618696
246	0x3e67bf1c	0.22631496
247	0x3e2f4fec	0.17120332
248	0x3df2d8aa	0.11857732
249	0x3de61b62	0.112356916
250	0x3d61a329	0.055087242
251	0x3d409d3a	0.047024943
252	0x3ca126a3	0.019671744
253	0x3db2bcf2	0.08727445
254	0x3dc77612	0.09739317
255	0x3dbe1c39	0.09282727

fc1.bias f4 [50]
0	0xc02de5a8	-2.717142
1	0xc00d0f1d	-2.2040474
2	0xbf49aaaa	-0.7877604
3	0xbf34a768	-0.7056794
4	0xc06f3b41	-3.7379916
5	0xbfd364f7	-1.6515187
6	0xc0594153	-3.394612
7	0xbfa7f2c0	-1.3120956
8	0xc0323317	-2.7843683
9	0xbf887039	-1.0659248
10	0xbfd2a07e	-1.6455228
11	0xbf06a3c5	-0.5259364
12	0xbfa967ed	-1.3234841
13	0xc02611c4	-2.5948343
14	0xbf92ec63	-1.147839
15	0xc01924f4	-2.3928804
16	0xbf6f40fb	-0.9345853
17	0xbf1cfe8d	-0.61325914
18	0xc02e025a	-2.7188935
19	0xc01ca60b	-2.4476345
20	0xbf0b3151	-0.54372126
21	0xc006dbb1	-2.107159
22	0xbf1a5a09	-0.6029363
23	0x3dd37a33	0.10326042
24	0xbfa84f40	-1.3149185
25	0xbfceba44	-1.6150594
26	0xbfed4348	-1.8536158
27	0xc015e9b1	-2.3423884
28	0xbf8eeba8	-1.1165667
29	0xbf0dc00f	-0.55371183
30	0xbfb2722a	-1.394109
31	0xbf885e6c	-1.0653815
32	0xbf6a977b	-0.9163739
33	0xbf08ad86	-0.53389776
34	0xc00851ea	-2.1299996
35	0xbf9f517c	-1.2446742
36	0xbf5d2f66	-0.8640045
37	0xc0165182	-2.3487248
38	0xbfb75cbf	-1.4325179
39	0xbf7d89e7	-0.9903855
40	0xbf4a111f	-0.78932375
41	0xbf82e454	-1.022593
42	0xc0125aca	-2.2867913
43	0xbf83249e	-1.024555
44	0x3f20436a	0.62602866
45	0x3ec7e6a0	0.3904314
46	0xbefca0d7	-0.4934146
47	0xc02a2d27	-2.6590059
48	0xc01cd474	-2.450467
49	0xbfb4de8e	-1.4130418

fc2.weight f4 [10, 50]
0	0xbc4c5809	-0.012472161
1	0xbc9d7961	-0.019222917
2	0x3bdf6615	0.006817589
3	0xbd1039b5	-0.035211284
4	0x3c7b27b7	0.015329293
5	0xba63e1b8	-0.00086929975
6	0xbc62fca6	-0.013854181
7	0x3b916d6a	0.004438092
8	0xbb2a6a97	-0.0026003474
9	0xbc03c1c2	-0.008041801
10	0x394d6f10	0.00019591697
11	0xbb7030b3	-0.003665012
12	0xbcd4502e	-0.025917139
13	0x3ca3f590	0.020014554
14	0x39854ac2	0.00025423436
15	0xbbf8b835	-0.0075903186
16	0xbca4fe26	-0.020140719
17	0x3c08bdc6	0.008346027
18	0xbbd1b619	-0.0063998816
19	0xbc3d26bf	-0.011544882
20	0xbbcb0526	-0.006195682
21	0xba3fcb19	-0.00073163357
22	0x3bfc63a5	0.0077023082
23	0x3ae7aaa9	0.0017674762
24	0xbcd36369	-0.025804238
25	0x3c8bea49	0.01707949
26	0xbc23583f	-0.00996977
27	0xbce1855f	-0.027529417
28	0x3c8d05b7	0.01721464
29	0x388165c0	6.170152e-05
30	0x3cca25c9	0.02467622
31	0x3d489118	0.048966497
32	0xbb17967b	-0.0023130465
33	0x3bfe3a05	0.0077583813
34	0xba0fa53a	-0.0005479638
35	0x3c85b297	0.01632051
36	0xbb5f27f3	-0.0034050911
37	0xbbf8a0b9	-0.007587519
38	0xbc457a59	-0.012053096
39	0xbc3d7c4b	-0.011565278
40	0x3cb72424	0.0223561
41	0xbc91b1fc	-0.017785065
42	0xbc52fb62	-0.012877317
43	0xbd54fc88	-0.051998645
44	0x3df80c2a	0.12111695
45	0xbc86a809	-0.016437547
46	0xbc258a39	-0.010103756
47	0x3c1895f4	0.009313095
48	0xbb35b0d0	-0.0027723797
49	0xbcfd85ff	-0.030947683
50	0xbb9a99bd	-0.004718034
51	0xbc9bec42	-0.019033555
52	0x3c00109f	0.007816463
53	0xbd14b81d	-0.036308397
54	0x3cbf0077	0.023315651
55	0xbc88997f	-0.016674755
56	0xbc9815b1	-0.01856503
57	0x3c3993fa	0.011326784
58	0xbc07290c	-0.008249532
59	0xbc081626	-0.008306062
60	0x3b97ae7e	0.0046289554
61	0xbbadc700	-0.0053032637
62	0xbc98f6b1	-0.01867232
63	0xbc59294e	-0.013254477
64	0xbb1f3446	-0.0024292632
65	0xbc055578	-0.008138053
66	0xbc385f8a	-0.011253247
67	0x3ced1472	0.028940413
68	0xbb9852dc	-0.0046485495
69	0xbc34e0c7	-0.011039919
70	0xbc213a1e	-0.009840516
71	0xba36ef4c	-0.0006978407
72	0x3ba2056c	0.004944494
73	0x3c174d37	0.009234718
74	0xbc934ca1	-0.017980875
75	0x3ca4a153	0.020096457
76	0xbc37e514	-0.01122405
77	0xbcb47d4d	-0.022032404
78	0x3c8c6c5a	0.01714151
79	0x3c51df09	0.012809523
80	0x3ce204bc	0.027590148
81	0x3c13864c	0.009004187
82	0x3a23acbc	0.0006243696
83	0x3c5e71e0	0.013576955
84	0x3a6f1acb	0.0009121119
85	0x3c2d0270	0.010559663
86	0xbbcaa6ab	-0.006184419
87	0x3bc4b84c	0.006003415
88	0xbc52227a	-0.012825603
89	0xbc544237	-0.01295524
90	0x3cd306d9	0.025760101
91	0xbc5e5dca	-0.013572166
92	0xbcaee505	-0.02134944
93	0xbd5e01a4	-0.054200783
94	0x3dedf584	0.11619094
95	0xbca3942b	-0.019968113
96	0x3cd70104	0.026245601
97	0x3ca745f1	0.020419093
98	0xba864d5e	-0.0010246446
99	0xbcd7c278	-0.026337847
100	0x3b807ea1	0.0039213453
101	0xbc94daea	-0.018170793
102	0x3bfcdca8	0.007716734
103	0xbd150cc4	-0.036389127
104	0x3c80511e	0.01566368
105	0xbd183b48	-0.03716591
106	0xbc99ed0a	-0.018789787
107	0x3c515de9	0.012778738
108	0xbc52a533	-0.012856769
109	0xbc0eb350	-0.008709744
110	0x3bcdbdd8	0.0062787347
111	0xbb3e5a7e	-0.0029045637
112	0xbc2c6ea6	-0.0105244275
113	0xbd2d33d9	-0.042285774
114	0xbb1b7f4b	-0.0023726996
115	0xbc253e89	-0.01008571
116	0xbaec5db6	-0.0018033299
117	0x3d5e1cea	0.054226793
118	0xbc2eaa61	-0.010660739
119	0xbc11db53	-0.008902389
120	0xbc92cdf7	-0.017920477
121	0xba64944f	-0.00087196095
122	0x3b68cec1	0.0035523626
123	0x3c86785b	0.016414812
124	0xbc1428e1	-0.009042949
125	0x3cbd0736	0.023074728
126	0xbc6c070d	-0.014405978
127	0xbc251e0c	-0.0100779645
128	0x3c69d3f5	0.014271726
129	0x3c87bc2b	0.016569218
130	0x3ca4caea	0.020116288
131	0xbca90ce9	-0.020636039
132	0x3b8e93fd	0.0043511377
133	0x3c7690f7	0.015049211
134	0x3a923620	0.0011155047
135	0x3bb80cea	0.005616774
136	0xbc320120	-0.010864526
137	0x3c9b9299	0.018990802
138	0xbc1aab29	-0.009440222
139	0xbc3568cc	-0.011072349
140	0x3cbe5709	0.023234861
141	0xbbdb86c5	-0.0066994154
142	0xbd09b197	-0.03361663
143	0xbd5feb2b	-0.054667633
144	0x3de0bbb7	0.10973304
145	0xbcc81558	-0.02442424
146	0x3d699064	0.057022467
147	0x3cfb0316	0.03064112
148	0x38d52c2e	0.000101648606
149	0xbcb3447c	-0.021883242
150	0x3c7932cb	0.015209864
151	0xbca69ed9	-0.020339416
152	0x3bd8c5e8	0.006615389
153	0xbd13a336	-0.036044322
154	0x3c644e1d	0.013934639
155	0xbd772064	-0.060333624
156	0xbc4ce8ef	-0.012506708
157	0x3c58a26d	0.013222319
158	0xbc8a4228	-0.016877249
159	0xbc2175bc	-0.00985473
160	0x3c3740e2	0.011184903
161	0x3af43da0	0.0018634088
162	0xbbd3326b	-0.0064452193
163	0xbd470adc	-0.04859434
164	0xbb153872	-0.002276924
165	0xbc2321e1	-0.009956808
166	0x3bcf77d0	0.0063314214
167	0x3db1e8f3	0.0868701
168	0xbc23e690	-0.010003701
169	0xbc444753	-0.011979896
170	0xbcdc8831	-0.02692041
171	0xbad92d9d	-0.001656938
172	0x3b4cf9c5	0.0031276804
173	0x3cbb6420	0.022874892
174	0xbbabeaff	-0.0052465196
175	0x3cc531dc	0.024071626
176	0xbc7dcd8c	-0.015490901
177	0x3b461c1a	0.0030229152
178	0x3c39889c	0.011324074
179	0x3c8e08a3	0.017338103
180	0x3c8b8bf4	0.017034508
181	0xbd2c7089	-0.04209951
182	0x3bee3e7c	0.0072706323
183	0x3c37a298	0.011208199
184	0x3a7531b6	0.0009353416
185	0x3b75ca30	0.0037504546
186	0xbc2e2d6e	-0.0106309485
187	0x3d059d96	0.03262099
188	0xbbf1c970	-0.0073787495
189	0xbc4a43d1	-0.01234527
190	0x3c918f04	0.01776839
191	0xbab774f1	-0.0013996643
192	0xbd395e52	-0.045255966
193	0xbd59389f	-0.053032514
194	0x3dd5adad	0.10433517
195	0xbce767e0	-0.028247774
196	0x3d9f613f	0.0778222
197	0x3d32a538	0.043614596
198	0x3b2ea220	0.0026646927
199	0xbc94e129	-0.018173771
200	0x3d243ca5	0.040096898
201	0xbc8d368b	-0.017237922
202	0x3b804e63	0.0039155944
203	0xbd032c41	-0.032024626
204	0x3c1f0d1e	0.009707717
205	0xbdb1851d	-0.086679675
206	0xbc5c0cc4	-0.013430778
207	0x3c48e93e	0.0122626405
208	0xbc9d98ac	-0.019237839
209	0xbc323c42	-0.010878624
210	0x3c823435	0.015894035
211	0x3bffc98b	0.007806008
212	0xbb2543bc	-0.0025217375
213	0xbd1a1d80	-0.03762579
214	0xba855760	-0.0010173135
215	0xbba65316	-0.0050758226
216	0x3c8291b4	0.015938617
217	0x3dff66cb	0.12470778
218	0xbc57671b	-0.013147141
219	0xbc76368c	-0.015027653
220	0xbd1afa0a	-0.037836112
221	0xbb735bd6	-0.0037133596
222	0x3a441120	0.00074793585
223	0x3cef03d7	0.029176636
224	0xbbdb8140	-0.0066987574
225	0x3cc5ca1c	0.024144225
226	0xbc850838	-0.01623927
227	0x3c2b19f2	0.010443198
228	0x3c155587	0.00911463
229	0x3c69a788	0.014261134
230	0x3c6ca1e1	0.014442892
231	0xbd56d04e	-0.05244475
232	0x3c1c7566	0.009549474
233	0x3c1564d7	0.00911828
234	0xbb26abd8	-0.0025432017
235	0x3b538cce	0.003227997
236	0xbc00d200	-0.007862568
237	0x3d3993ae	0.045306854
238	0xbbc2d33a	-0.0059455903
239	0xbc55ccbf	-0.013049304
240	0x3c6bd26d	0.014393431
241	0xba1ffe47	-0.0006103259
242	0xbd456e11	-0.04820067
243	0xbd471a1b	-0.04860888
244	0x3dcb5a95	0.099293865
245	0xbd0653bd	-0.032794703
246	0x3db1f5d5	0.08689467
247	0x3d6ef249	0.05833653
248	0x3b9c1b6e	0.004764012
249	0xbc52c3b1	-0.012864039
250	0x3d9040d0	0.07043612
251	0xbc557a71	-0.013029681
252	0x3b9a4a72	0.0047085816
253	0xbcc646f3	-0.024203753
254	0xbbda7b03	-0.006667496
255	0xbdeb6c43	-0.11495259

fc2.bias f4 [10]
0	0xbd81dd08	-0.063409865
1	0xbd7d8e53	-0.06190331
2	0xbd7e02e7	-0.062014487
3	0xbd7b009b	-0.061279874
4	0xbd732972	-0.059365697
5	0xbd68db9a	-0.056850053
6	0xbd5a2164	-0.0532545
7	0xbd47b34c	-0.048754975
8	0xbd327d6b	-0.04357664
9	0xbd1c0c05	-0.0380974
