best_lstm_model.pth (torch, 127335 bytes, 9 tensors)

lstm.weight_ih_l0 f4 [200, 1]
-0.15918653 -0.10411389 -0.0007860324 -0.18953326 0.111448444 0.030489651 -0.062373783 0.11152138
-0.18408662 0.07548551 0.028988924 0.017562663 -0.11620522 0.12935388 0.18257996 -0.041492384
0.16847731 0.1385052 -0.041694317 0.032408126 -0.116486825 0.14481007 0.14358744 -0.014794492
-0.07073268 -0.038516153 -0.17502917 0.076483935 -0.15918776 0.12420599 0.052606467 0.07775679
-0.012581308 0.06648268 -0.12523903 0.1543537 0.17260683 -0.14897719 -0.14485708 0.07295376
-0.12843573 0.03788654 0.0029652242 0.11274635 -0.019842414 0.0648377 -0.0055592433 -0.11669842
0.014103905 0.016455248 0.17097092 -0.012696301 0.087535664 0.04423828 0.17703737 0.032341443
-0.11974833 -0.04995747 -0.018249534 0.196195 -0.087549604 -0.045294162 -0.0065539004 -0.06214586
-0.14191969 -0.013934868 0.19341297 0.012190242 -0.011476316 -0.09900858 -0.013770691 -0.073212594
-0.07464638 -0.026184093 -0.01453192 -0.024140235 -0.1364516 0.0072168605 -0.06539009 -0.07129674
0.012288944 0.20916243 -0.14602163 0.008847326 0.049911723 -0.13807556 -0.15876734 0.07685756
-0.107269704 -0.084705696 -0.013158889 0.0112794945 0.045452666 -0.060374692 0.14864556 0.02004717
-0.1885872 -0.011371769 0.1909699 -0.11852284 -0.032723054 -0.036043786 0.038163178 0.06936284
-0.060402725 0.032695353 -0.04014098 -0.029710943 -0.14892395 -0.07818325 -0.021935858 0.053624716
-0.031156471 0.08499942 0.060080588 0.09407706 -0.11898468 -0.042634267 -0.049978588 0.016265593
0.073648 0.09449298 -0.13409005 -0.1162124 -0.13494593 0.13892393 -0.06656146 0.005152282
-0.070193045 -0.048515327 -0.08966756 0.04128088 -0.061369617 -0.15720269 0.07316931 -0.05707029
0.02832583 -0.009177979 0.057897747 -0.07902927 -0.0755888 0.13070947 0.062048014 -0.024377849
-0.039565835 -0.113727905 0.08605886 -0.117987014 -0.17029615 0.07526315 0.1535833 -0.07761869
0.02341564 0.085033916 0.16779584 0.08653057 -0.025647461 -0.119912244 -0.119469 0.022937605
-0.014487341 0.029294347 -0.08958929 -0.17556994 0.014674166 -0.16479538 0.020827472 0.11297873
-0.043004118 -0.031908415 -0.045063224 0.11940981 0.083658844 0.038870506 -0.10896795 -0.063850716
-0.1592592 -0.06732677 -0.079529636 -0.08865022 0.069644846 0.12969308 -0.091795616 -0.17929976
-0.11171957 -0.16249289 -0.09216476 0.1845196 -0.106640786 0.08208531 -0.087017335 0.04503869
0.11115773 -0.11102584 -0.028768834 0.08721412 -0.01806605 0.054990306 0.0624015 0.045837454
00000000: cb01 23be aa39 d5bd be0d 4eba 0215 42be
00000010: 153f e43d 6fc5 f93c a77b 7fbd 5265 e43d
00000020: 3481 3cbe 2698 9a3d 2e7a ed3c 93df 8f3c
00000030: 01fd edbd 5875 043e 3ef6 3a3e ebf3 29bd
00000040: 5185 2c3e 4fd4 0d3e a9c7 2abd 62be 043d
00000050: a590 eebd 1749 143e 9608 133e 9964 72bc
00000060: 4cdc 90bd 1dc3 1dbd d93a 33be 9ca3 9c3d
00000070: 1e02 23be b65f fe3d e179 573d f43e 9f3d
00000080: d521 4ebc 1228 883d a93e 00be e50e 1e3e
00000090: d8bf 303e 7a8d 18be 6a55 14be c868 953d
000000a0: a884 03be eb2e 1b3d 3554 423b 8fe7 e63d
000000b0: 8f8c a2bc a1c9 843d 502a b6bb 95ff eebd
000000c0: 1114 673c 28cd 863c 0013 2f3e 2504 50bc
000000d0: e645 b33d 3333 353d 4949 353e 7678 043d
000000e0: 9d3e f5bd 34a0 4cbd 0c80 95bc 58e7 483e
000000f0: 354d b3bd 5f86 39bd 1ac2 d6bb a88c 7ebd
00000100: 6553 11be 134f 64bc 0d0e 463e 95b9 473c
00000110: 2807 3cbc 03c5 cabd 779e 61bc 7cf0 95bd
00000120: 34e0 98bd 0680 d6bc 4a17 6ebc bec1 c5bc
00000130: f8b9 0bbe 6a7b ec3b 3deb 85bd 0604 92bd
00000140: 9157 493c ad2e 563e b286 15be 60f4 103c
00000150: 3c70 4c3d ae63 0dbe e893 22be 7f67 9d3d
00000160: 38b0 dbbd 2e7a adbd 6198 57bc a1cd 383c
00000170: 932c 3a3d 744b 77bd 8b36 183e f639 a43c
00000180: 011d 41be a850 3abc 9d8d 433e 1abc f2bd
00000190: 9c08 06bd a6a2 13bd fe50 1c3d 1b0e 8e3d
000001a0: d968 77bd 90eb 053d de6a 24bd 5d64 f3bc
000001b0: 857f 18be 8a1e a0bd d4b2 b3bc 97a5 5b3d
000001c0: db3b ffbc 2d14 ae3d 1017 763d 79ab c03d
000001d0: 3dae f3bd 45a1 2ebd 59b6 4cbd 6c3f 853c
000001e0: c3d4 963d 8985 c13d e74e 09be c400 eebd
000001f0: 442f 0abe 1342 0e3e 6051 88bd 79d4 a83b
00000200: 5fc1 8fbd 02b8 46bd a0a3 b7bd 2416 293d
00000210: b55e 7bbd bef9 20be cbd9 953d 89c2 69bd
00000220: 920b e83c 3c5f 16bc 3026 6d3d 19da a1bd
00000230: 4dce 9abd b4d8 053e 0f26 7e3d 0eb4 c7bc
00000240: c90f 22bd 2dea e8bd a13f b03d 2da3 f1bd
00000250: 1d62 2ebe 9123 9a3d f144 1d3e 8cf6 9ebd
00000260: 28d2 bf3c 4326 ae3d acd2 2b3e f136 b13d
00000270: a01a d2bc 8d94 f5bd 2aac f4bd a5e7 bb3c
00000280: 505c 6dbc b3fa ef3c 977a b7bd 9bc8 33be
00000290: ea6b 703c 1fc0 28be 609e aa3c 6461 e73d
000002a0: 1625 30bd 66b2 02bd 3794 38bd 218d f43d
000002b0: 5455 ab3d ae36 1f3d 972a dfbd 2ac4 82bd
000002c0: d814 23be 9ee2 89bd 6fe0 a2bd 3f8e b5bd
000002d0: f5a1 8e3d 43ce 043e 57ff bbbd 5b9a 37be
000002e0: 3bcd e4bd 8964 26be e1c0 bcbd b5f2 3c3e
000002f0: 7c66 dabd 581c a83d 2536 b2bd 7d7a 383d
00000300: aaa6 e33d 8461 e3bd 9eac ebbc 519d b23d
00000310: 41ff 93bc 843d 613d b798 7f3d 0ec0 3b3d

lstm.weight_hh_l0 f4 [200, 50]
-0.020880787 0.08837863 -0.17965321 -0.19581 -0.029544257 -0.14332141 0.095653996 0.14857961
0.01706791 0.10007265 -0.04093991 0.0053290064 -0.015270216 -0.15138915 0.107109934 -0.15908684
0.12870088 5.839742e-06 0.11720347 -0.024773689 -0.1421883 0.011995601 0.00034499425 -0.05975471
0.059572436 -0.09030568 0.14566988 -0.02931736 0.14970139 -0.057780176 0.17108159 -0.05428123
-0.0427062 0.15478009 -0.12165021 -0.032381546 0.12755781 -0.035524044 0.07672923 -0.0593213
0.02578777 -0.11906707 -0.072488755 -0.046653368 0.08850624 -0.07182542 -0.035790578 -0.00094433967
0.15421389 -0.12002149 0.097569644 -0.06774223 0.07887204 -0.076779656 -0.024713395 -0.054178733
0.12217682 0.05658081 0.03632478 -0.008578048 -0.13642938 -0.12592821 -0.08979424 0.08999117
-0.008548617 0.03060867 -0.07629294 -0.012194388 -0.0718512 -0.16743462 -0.11839141 0.14357457
-0.0807844 -0.0015623592 0.11108111 -0.1329372 -0.052432593 -0.041613586 -0.030488787 -0.04725058
-0.06534185 0.13943586 -0.007661118 -0.06716921 -0.07698501 -0.13071765 -0.044578347 0.060561758
-0.0056072767 -0.10793942 -0.009450676 -0.03695719 0.10755252 -0.18898949 0.047997817 0.050132688
-0.07819776 -0.04367494 -0.108568765 0.076048486 -0.009233695 0.04613302 0.09358701 0.080515526
-0.15683085 0.08189914 -0.019101022 -0.07284783 9.1678194e-05 -0.10958509 0.06195506 -0.06806742
-0.0068432097 0.02034344 0.13806279 -0.15944311 -0.11587069 -0.17144603 -0.009417896 0.03710033
-0.023766886 0.07165583 -0.15274823 0.013894375 0.15943381 -0.18209693 0.11554749 0.12576976
0.12466194 -0.17750652 0.063844986 0.041058667 -0.039271303 -0.09923569 -0.08966603 -0.05005068
-0.08606001 -0.00040289457 0.040649977 0.08601439 -0.059007324 -0.067507744 -0.06702407 0.06114445
0.0065987236 -0.093759276 -0.15354846 0.031021925 -0.08622105 -0.052398764 -0.017567547 0.041116443
0.031259596 -0.12095255 0.0004590677 -0.0019141133 -0.08805981 0.016502464 0.1842353 0.14399537
-0.013467867 0.046905074 -0.09985002 -0.16001908 0.013906121 -0.06185317 0.08412707 0.12791725
0.15978393 -0.16579382 -0.059501436 -0.19378233 -0.023685837 -0.01725492 0.10796468 -0.16161269
0.0050692046 -0.055443123 0.13258956 -0.09918704 0.12749285 -0.17294157 0.05350542 0.11883727
0.0056784553 0.06122908 -0.07432043 -0.122880064 -0.18833335 0.026623221 0.12880275 0.0073674126
-0.05949648 0.06607524 0.109394796 0.17652741 0.0009534294 0.11065537 0.020512307 -0.1448639
0.13097355 0.012682434 -0.011359278 -0.18893753 -0.18762039 -0.06313887 0.03893883 0.036178805
-0.036405846 -0.0140785705 -0.08851794 -0.17961209 0.07755669 -0.05721051 0.1924878 0.0053088265
-0.00095545885 0.025074024 0.11254176 -0.035674643 -0.1619413 -0.079508156 -0.029865474 -0.032466117
0.059976537 0.066809975 -0.038540553 0.15096214 0.123569414 -0.09973666 -0.057496265 0.19844891
0.15219143 0.010905153 -0.0208136 0.011256833 0.09058777 0.1791304 -0.10754172 0.060036514
-0.048186786 0.032191407 0.10744683 -0.06974006 0.022159105 -0.020886876 -0.12268169 0.20726052
0.1721508 0.058085676 -0.025480745 -0.09747337 -0.0040549226 -0.012338112 0.050901096 -0.00793697
00000000: 2f0e abbc dbff b43d 03f7 37be 6b82 48be
00000010: cc06 f2bc d9c2 12be 3ee6 c33d 4125 183e
00000020: 00d2 8b3c e4f2 cc3d 9bb0 27bd f29e ae3b
00000030: ee2f 7abc c205 1bbe 745c db3d a9e7 22be
00000040: 2aca 033e 00f3 c336 5f08 f03d 31f2 cabc
00000050: cf99 11be 3289 443c 58e0 b439 5bc1 74bd
00000060: 3a02 743d 2ff2 b8bd 7c2a 153e f62a f0bc
00000070: 524b 193e e8aa 6cbd 0330 2f3e ff55 5ebd
00000080: b2ec 2ebd ac7e 1e3e bf23 f9bd 83a2 04bd
00000090: 849e 023e a981 11bd 3724 9d3d e4fa 72bd
000000a0: e040 d33c 70d9 f3bd fc74 94bd 9a17 3fbd
000000b0: c242 b53d 3519 93bd 2499 12bd 908d 77ba
000000c0: 3fea 1d3e d4cd f5bd 98d2 c73d 70bc 8abd
000000d0: aa87 a13d a73e 9dbd bf73 cabc 85ea 5dbd
000000e0: d737 fa3d 48c1 673d 4bc9 143d f18a 0cbc
000000f0: 25b4 0bbe 53f3 00be 0be6 b7bd 4a4d b83d
00000100: 800f 0cbc 09bf fa3c 793f 9cbd f8ca 47bc
00000110: b926 93bd fb73 2bbe 3277 f2bd 3605 133e
00000120: 4b72 a5bd 13c8 ccba 7e7e e33d b020 08be
00000130: 8fc3 56bd 0273 2abd 9fc3 f9bc d389 41bd
00000140: f3d1 85bd 46c8 0e3e 1e0a fbbb 0390 89bd
00000150: 51aa 9dbd d9da 05be c997 36bd 9b0f 783d
00000160: 3fbd b7bb 580f ddbd 02d7 1abc 6c60 17bd
00000170: 7f44 dc3d 7686 41be 5c99 443d ef57 4d3d
00000180: 2626 a0bd 7ee4 32bd 4d59 debd 4fbf 9b3d
00000190: ed48 17bc faf5 3c3d 8caa bf3d 53e5 a43d
000001a0: 4498 20be bcba a73d bf79 9cbc 3e31 95bd
000001b0: 5b43 c038 266e e0bd 97c4 7d3d ee66 8bbd
000001c0: 013d e0bb 49a7 a63c 5560 0d3e 0e45 23be
000001d0: 9d4d edbd 8c8f 2fbe 854d 1abc 84f6 173d
000001e0: c6b2 c2bc 4bc0 923d 086a 1cbe 3ca5 633c
000001f0: 9e42 233e 9e77 3abe 2aa4 ec3d cac9 003e
00000200: c24e ff3d 45c4 35be 29c1 823d 222d 283d
00000210: f2da 20bd 153c cbbd d3a2 b7bd f101 4dbd
00000220: 3b40 b0bd 983b d3b9 9780 263d 5028 b03d
00000230: aab1 71bd 8041 8abd ea43 89bd 9a72 7a3d
00000240: 1b3a d83b dd04 c0bd cf3b 1dbe b121 fe3c
00000250: a994 b0bd 16a0 56bd d1e9 8fbc b769 283d
00000260: 100a 003d f8b5 f7bd 06af f039 fce2 faba
00000270: b458 b4bd 2d30 873c 2ea8 3c3e 8673 133e
00000280: 54a8 5cbc 891f 403d 2b7e ccbd 0bdc 23be
00000290: 80d6 633c c059 7dbd d04a ac3d bdfc 023e
000002a0: 669e 233e dbc5 29be c7b7 73bd e06e 46be
000002b0: cd08 c2bc 315a 8dbc 961c dd3d cc7d 25be
000002c0: 921b a63b 5418 63bd 8fc5 073e 9322 cbbd
000002d0: 7c8d 023e 9817 31be 8028 5b3d f460 f33d
000002e0: 5612 ba3b 58cb 7a3d 4f35 98bd 8ba8 fbbd
000002f0: 75da 40be f118 da3c dee4 033e 566a f13b
00000300: 95b2 73bd 7552 873d 610a e03d 9ac3 343e
00000310: 90ef 793a 489f e23d 6d09 a83c 3457 14be
00000320: ee1d 063e fcc9 4f3c 441c 3abc d778 41be
00000330: 8f1f 40be f44e 81bd 537e 1f3d 3a30 143d
00000340: 4c1e 15bd cea9 66bc e548 b5bd 3bec 37be
00000350: 0bd6 9e3d 9155 6abd 861b 453e aaf5 ad3b
00000360: c277 7aba 0a68 cd3c 4b7c e63d 931f 12bd
00000370: f1d3 25be 2cd5 a2bd 70a8 f4bc 31fb 04bd
00000380: f5a9 753d abd3 883d b3dc 1dbd d295 1a3e
00000390: f611 fd3d bc42 ccbd 3481 6bbd 3136 4b3e
000003a0: 12d8 1b3e 87ab 323c 4881 aabc 946e 383c
000003b0: 1586 b93d f66d 373e d53e dcbd d9e8 753d
000003c0: 825f 45bd 23db 033d 150d dc3d e0d3 8ebd
000003d0: 0387 b53c f41a abbc 8a40 fbbd 1a3c 543e
000003e0: 4d48 303e 3feb 6d3d ffbc d0bc 1ea0 c7bd
000003f0: 28df 84bb cb25 4abc ab7d 503d 110a 02bc

lstm.bias_ih_l0 f4 [200]
-0.084572226 -0.014535685 -0.005982793 0.08042727 0.11802493 0.04038082 -0.052792568 -0.13808587
0.03248114 -0.002833872 0.04354949 0.060343683 0.04265475 -0.0055900025 -0.13470577 0.17027569
0.13114817 0.08146878 0.027615929 -0.06937301 -0.010694338 0.15803348 0.11562396 0.11136912
0.05234799 -0.07003159 0.05394407 0.16559364 0.16462377 0.08657696 0.085448794 0.06579046
0.11701375 0.088064216 0.08414584 -0.14095852 -0.034108687 0.04881433 -0.07217683 0.09804759
-0.05216798 -0.0008315857 -0.0066988454 -0.10303312 -0.060054272 -0.11983524 0.096513495 0.012603296
-0.08839696 -0.10511665 0.008325222 0.17192507 -0.06739124 -0.076949075 0.15699854 0.055558834
-0.11797693 0.09081826 0.0023128416 -0.16598983 0.07987693 0.0666339 -0.06672843 0.013300851
0.04508071 -0.07126521 -0.07645834 0.1371671 -0.15005161 0.09376767 0.039848004 0.064245194
-0.019448796 0.044389 0.09742582 -0.009614972 -0.060654465 -0.031340685 -0.098349646 0.12639879
-0.10942828 -0.03620726 0.07098805 0.040329583 0.043110777 0.1189475 0.020508861 -0.025325935
0.1275204 -0.11146084 -0.1786539 -0.1823047 -0.11026582 0.07703422 -0.16139008 0.110801615
0.07054101 0.17976493 0.03347928 -0.08824853 0.01751696 0.110137835 -0.09749916 -0.108586274
-0.1798158 0.03821249 -0.07017478 -0.08025889 -0.00036099274 -0.058872364 -0.06757341 -0.10960628
-0.07331161 0.12747057 0.076508075 -0.09000602 -0.18537766 0.07160424 0.024954323 -0.16126463
-0.023149565 -0.014926672 -0.17006345 0.021474255 0.05637707 0.15770169 -0.03262479 -0.07083243
0.18048814 0.043460123 -0.0085729025 0.05828257 -0.0062591387 -0.04920529 -0.09565619 0.0007481163
0.07613993 0.19935016 -0.0822855 0.11536627 0.0872598 0.052636348 0.0862753 -0.1570826
-0.075064555 -0.15567717 0.02300707 -0.09438685 0.0059642955 -0.030356146 -0.049211655 -0.0018184152
-0.10959062 -0.075501814 0.15598473 -0.1374952 -0.09440171 -0.049179044 -0.057004124 -0.09020662
-0.086680345 -0.08083824 0.0046793483 0.07173013 -0.08754912 0.033084307 -0.045877866 -0.04987433
0.012162005 0.07072163 -0.08153428 0.08802536 0.0393667 0.14581402 -0.06281554 0.08648856
0.094489835 0.07270249 -0.06645538 -0.068679094 -0.13636816 0.11382989 -0.10348696 -0.0018336651
-0.14762329 -0.111945756 0.0074184737 0.08877726 0.0884475 0.13037337 0.012989621 0.07270255
-0.14591664 -0.035027537 0.17549579 -0.12968996 0.11955951 0.18085395 -0.02805922 0.008887628
00000000: 3434 adbd 1527 6ebc 4e0b c4bb 0db7 a43d
00000010: 0eb7 f13d 5c66 253d 053d 58bd 6266 0dbe
00000020: f20a 053d 7cb8 39bb f360 323d f02a 773d
00000030: bfb6 2e3d 572c b7bb 4ff0 09be c05c 2e3e
00000040: b54b 063e 1bd9 a63d cd3a e23c 7013 8ebd
00000050: 4e37 2fbc 87d3 213e 41cc ec3d 7e15 e43d
00000060: d96a 563d b96c 8fbd 75f4 5c3d 6191 293e
00000070: 2293 283e 434f b13d c7ff ae3d 26bd 863d
00000080: e8a4 ef3d 035b b43d a754 ac3d 6e57 10be
00000090: 8db5 0bbd 89f1 473d 72d1 93bd 2dcd c83d
000000a0: 17ae 55bd c6fe 59ba fd81 dbbb 0703 d3bd
000000b0: 78fb 75bd 2e6c f5bd dea8 c53d 0e7e 4e3c
000000c0: 7709 b5bd 6647 d7bd 8366 083c 200d 303e
000000d0: 6b04 8abd 7a97 9dbd 3ac4 203e a991 633d
000000e0: e49d f1bd edfe b93d 0b93 173b 3df9 29be
000000f0: 8496 a33d 5b77 883d eaa8 88bd d0eb 593c
00000100: 8da6 383d 7ff3 91bd 3196 9cbd 8875 0c3e
00000110: 21a7 19be 4409 c03d a937 233d fc92 833d
00000120: 1553 9fbc 3dd1 353d 3087 c73d 1e88 1dbc
00000130: d170 78bd 175f 00bd 8a6b c9bd af6e 013e
00000140: ef1b e0bd 104e 14bd 2f62 913d a230 253d
00000150: ed94 303d bf9a f33d 3302 a83c 5678 cfbc
00000160: b594 023e 9545 e4bd 0cf1 36be 15ae 3abe
00000170: 0cd3 e1bd 1ec4 9d3d 7143 25be f5eb e23d
00000180: ce77 903d 4c14 383e 9221 093d a5bb b4bd
00000190: ba7f 8f3c f28f e13d a4ad c7bd 7b62 debd
000001a0: a221 38be b384 1c3d ccb7 8fbd c65e a4bd
000001b0: a043 bdb9 2624 71bd ee63 8abd 4279 e0bd
000001c0: 6624 96bd a587 023e 44b0 9c3d 1455 b8bd
000001d0: a4d3 3dbe 3ea5 923d 026d cc3c 8e22 25be
000001e0: 28a4 bdbc 008f 74bc 1d25 2ebe c7ea af3c
000001f0: a4eb 663d 8d7c 213e 92a1 05bd 9810 91bd
00000200: e2d1 383e 3e03 323d 5c75 0cbc b4b9 6e3d
00000210: 7619 cdbb 7c8b 49bd 64e7 c3bd 3c1d 443a
00000220: 40ef 9b3d 7322 4c3e 4d85 a8bd 2745 ec3d
00000230: 44b5 b23d 3699 573d 1bb1 b03d 43da 20be
00000240: 72bb 99bd d669 1fbe 5379 bc3c e54d c1bd
00000250: 2370 c33b 74ad f8bc 2992 49bd e457 eeba
00000260: 0c71 e0bd b2a0 9abd 76ba 1f3e 8bcb 0cbe
00000270: af55 c1bd f76f 49bd 287d 69bd 40be b8bd
00000280: 7785 b1bd 858e a5bd 3855 993b 3fe7 923d
00000290: f44c b3bd 6983 073d 6eea 3bbd 0749 4cbd
000002a0: 2543 473c 80d6 903d 72fb a6bd a446 b43d
000002b0: fa3e 213d 4550 153e 6fa5 80bd ea20 b13d
000002c0: e383 c13d 0be5 943d c219 88bd a0a7 8cbd
000002d0: 18a4 0bbe a51f e93d f9f0 d3bd 9757 f0ba
000002e0: 8f2a 17be d143 e5bd ab16 f33b dad0 b53d
000002f0: f623 b53d 9980 053e 6bd2 543c 13e5 943d
00000300: 2c6b 15be 0979 0fbd 2bb5 333e 72cd 04be
00000310: 9edb f43d c731 393e 73dc e5bc 6a9d 113c

lstm.bias_hh_l0 f4 [200]
0.03170457 0.0060700364 -0.01713224 -0.055864237 0.11002886 0.041973732 0.12532547 -0.079408586
-0.09267957 0.0312555 0.009772962 0.13138135 -0.04638554 0.05308546 0.004680914 0.02743478
-0.086382695 0.046437927 -0.05403635 0.17178604 -0.0685379 0.0056768 0.11643987 0.03819974
-0.076503284 -0.07190911 0.1792207 0.016366899 0.13677555 0.09219154 0.11170809 0.042235207
0.13335428 -0.04788387 0.0067513627 0.0705229 -0.056056667 0.15415809 0.108810484 0.20553878
0.16117983 0.13212 0.17380449 0.10549001 0.074856654 -0.0060707564 0.16965313 0.15529059
0.06665721 -0.0451381 0.027992953 0.17464945 -0.16459057 0.03409462 0.16491762 -0.040945176
-0.058278415 0.122576855 -0.11771726 -0.033119924 -0.0228181 0.050812148 -0.11912148 0.06847303
-0.07561334 0.05764268 0.031192092 0.13090076 0.041115828 -0.0037286784 0.12531573 -0.1775135
0.16142376 0.07662987 -0.13071929 -0.016266508 0.017178316 -0.029512256 0.13188753 -0.08583728
0.05252483 0.06810643 0.025189165 0.1646177 0.03690763 0.024608823 0.026650818 0.17117018
0.15073374 -0.114689715 -0.14691284 -0.11624013 -0.15588818 -0.04357585 -0.1152783 0.044308405
0.023495287 -0.011924859 0.011889222 -0.14391656 0.15549698 0.120770246 0.11098218 -0.13292162
0.071288586 -0.022571316 0.0546455 -0.02759398 0.032633025 0.08881316 0.04885303 -0.08782343
0.00019895383 -0.025194092 0.038357913 -0.11871237 -0.10404286 0.085439205 0.045572944 -0.16362703
0.019734714 0.007817628 0.018236868 0.06814459 -0.0053516547 -0.004232876 0.1355223 0.09593627
0.035041694 -0.07288897 -0.04959601 0.18516599 0.13342266 0.043841757 -0.09662962 -0.1333724
0.16182692 0.19776838 -0.013601732 -0.05489776 0.08643857 0.049077 0.16118981 -0.10098432
-0.103022054 0.0045192945 0.056073066 0.05143663 -0.09966417 0.08194079 0.04408024 -0.0035659953
-0.043061778 0.12427546 0.073676944 -0.057237137 -0.022729259 0.14298423 0.074286535 -0.044808745
-0.095585406 -0.024491528 -0.11914303 -0.054133713 -0.09332885 -0.061486036 0.016683804 0.14267556
0.030057905 0.012490971 0.08977759 -0.0028398961 0.10014166 0.14113127 0.035266474 -0.056508616
0.13009828 0.13659635 -0.02431698 -0.027467133 0.05891722 0.058811206 0.020952422 -0.09187201
-0.08182694 0.0064555844 0.13454904 -0.011271736 -0.017599732 0.02952501 -0.14649512 -0.053711817
-0.18216339 -0.004992839 0.039499503 -0.13729922 0.15032676 0.15734474 0.026391285 0.18912068
00000000: a7dc 013d 28e7 c63b e958 8cbc e6d1 64bd
00000010: d056 e13d a6ec 2b3d 5255 003e f8a0 a2bd
00000020: c9ce bdbd c405 003d c61e 203c d588 063e
00000030: c4fe 3dbd 2470 593d 5a62 993b e7be e03c
00000040: 69e9 b0bd b235 3e3d 3855 5dbd aee8 2f3e
00000050: 995d 8cbd 7304 ba3b 0778 ee3d 5577 1c3d
00000060: c1ad 9cbd 1545 93bd a285 373e e013 863c
00000070: e40e 0c3e ebce bc3d 36c7 e43d d3fe 2c3d
00000080: 068e 083e e021 44bd 893a dd3b 4f6e 903d
00000090: ad9b 65bd 9edb 1d3e 08d8 de3d c278 523e
000000a0: 530c 253e 774a 073e cef9 313e 250b d83d
000000b0: 724e 993d 32ed c6bb 8db9 2d3e 7f04 1f3e
000000c0: 9383 883d bae2 38bd 7a51 e53c 4ed7 323e
000000d0: 6e8a 28be cda6 0b3d 2ae0 283e 21b6 27bd
000000e0: 59b5 6ebd 9309 fb3d bf15 f1bd c2a8 07bd
000000f0: 06ed babc 6620 503d f6f5 f3bd 973b 8c3d
00000100: 2bdb 9abd bb1a 6c3d 8f86 ff3c d90a 063e
00000110: 1269 283d d85c 74bb c452 003e 19c6 35be
00000120: 454c 253e 1ff0 9c3d 47db 05be 5741 85bc
00000130: 8ab9 8c3c b0c3 f1bc 860d 073e 75cb afbd
00000140: 4724 573d 627b 8b3d 8259 ce3c 8b91 283e
00000150: 742c 173d 7198 c93c d152 da3c 3c47 2f3e
00000160: f259 1a3e 71e2 eabd 5270 16be 4e0f eebd
00000170: 27a1 1fbe 977c 32bd 0817 ecbd bb7c 353d
00000180: 3079 c03c 7c60 43bc 03cb 423c dd5e 13be
00000190: 9a3a 1f3e 6456 f73d a04a e33d 9b1c 08be
000001a0: c0ff 913d 7be7 b8bc f6d3 5f3d c50c e2bc
000001b0: 35aa 053d ade3 b53d 1d1a 483d c5dc b3bd
000001c0: 439e 5039 d763 cebc 301d 1d3d 791f f3bd
000001d0: 6c14 d5bd c0fa ae3d b2aa 3a3d d88d 27be
000001e0: b2aa a13c 8215 003c 7c65 953c 648f 8b3d
000001f0: ef5c afbb f0b3 8abb 5cc6 0a3e 3c7a c43d
00000200: e187 0f3d d046 95bd 3025 4bbd 279c 3d3e
00000210: f39f 083e 6a93 333d c0e5 c5bd c692 08be
00000220: f5b5 253e cb83 4a3e cdd9 5ebc 79dc 60bd
00000230: b406 b13d f704 493d f10e 253e ded0 cebd
00000240: 3afd d2bd 9716 943b dfac 653d 37af 523d
00000250: ba1c ccbd 93d0 a73d 7b8d 343d 79b3 69bb
00000260: 8c61 30bd 2284 fe3d f0e3 963d 7d71 6abd
00000270: b632 babc 756a 123e 8a23 983d 6089 37bd
00000280: 48c2 c3bd 75a2 c8bc 4301 f4bd 50bb 5dbd
00000290: 3223 bfbd c8d8 7bbd 79ac 883c 8b19 123e
000002a0: ff3b f63c eea6 4c3c 50dd b73d 8d1d 3abb
000002b0: 1217 cd3d b784 103e 9473 103d 9475 67bd
000002c0: 7c38 053e eadf 0b3e 6734 c7bc c102 e1bc
000002d0: 2f53 713d 05e4 703d 6aa4 ab3c 6427 bcbd
000002e0: e294 a7bd 5e89 d33b 39c7 093e 16ad 38bc
000002f0: 502d 90bc 6fde f13c d102 16be ec00 5cbd
00000300: 0a89 3abe f89a a3bb 3bca 213d 2b98 0cbe
00000310: 42ef 193e fb1e 213e 8932 d83c daa8 413e

lstm.weight_ih_l1 f4 [200, 50]
0.16293052 0.14799252 -0.01633986 0.066272095 -0.15136325 0.014414767 0.14758457 -0.1301564
0.10870886 -0.060835507 0.05454611 -0.044964448 -0.05918541 0.0061253 0.018777505 0.006884191
-0.18536949 -0.15578544 0.1763232 0.09126748 -0.11411784 -0.008534217 -0.19205575 -0.13664743
0.0008812319 0.03655191 0.052201506 0.06598705 -0.07316429 -0.030581964 0.0025088051 0.08396122
0.031827893 -0.10517857 0.020126207 -0.06553141 0.113315016 -0.03348811 -0.1630208 0.06568944
0.019052915 0.09467813 0.0012985461 -0.09414834 -0.07081045 -0.07484896 0.0143327685 0.029394813
0.037141386 0.15556276 0.03176047 -0.025622768 0.1574823 -0.14741738 -0.00094108994 -0.057099927
0.014044698 -0.19909346 -0.067175575 -0.038052257 0.03946861 0.015578898 0.0715415 0.13108206
0.124014854 -0.0988894 -0.008318763 -0.09090767 -0.06801994 0.067433305 -0.099599525 0.0027098947
-0.15698202 -0.08630687 0.032253314 -0.05574552 -0.035789702 0.06917331 0.14515054 -0.13328427
-0.054908507 -0.09259346 0.09366739 -0.06452603 -0.04123608 -0.051438738 0.09893355 0.08061614
0.008032539 0.01456585 0.096158855 0.043042667 0.057270046 -0.120317146 0.10422329 -0.15260386
-0.15708609 -0.09286056 -0.0728756 0.035233423 0.07596353 0.0112705 0.1545198 0.07288937
-0.16329895 0.11654211 0.17953075 0.03777002 0.050182052 -0.0951364 -0.13003033 -0.08615454
0.12093759 0.105314925 -0.06475067 -0.1428141 0.05843415 0.00077593676 0.18873608 0.06479345
0.055332366 -0.010466839 -0.010205802 0.031690013 0.14237165 -0.011688749 0.039359163 -0.09056501
0.050596498 0.08859273 0.081345625 -0.028924104 -0.045937445 -0.01931152 -0.16050278 -0.01968455
0.010771643 0.0030853637 0.08684148 0.038020942 -0.043387804 0.059434265 0.16699734 -0.04566627
-0.0390928 0.003809401 0.017250031 0.04119523 0.06267573 -0.07961095 -0.08255144 0.07535259
0.044664185 -0.14848632 -0.07732528 0.004360422 0.10936152 0.04873822 0.11326016 -0.16945618
0.086038895 -0.068359986 0.118524015 0.09353369 -0.01969317 -0.11826347 0.04417223 0.049098186
0.09939765 0.064729355 -0.1548268 0.15829045 0.011216887 0.089031026 -0.06651295 0.09437937
0.13313027 0.06005736 0.13444532 -0.12722495 -0.1684322 0.052137434 0.08657288 -0.13787708
0.027128885 -0.025077425 -0.017852185 0.015224726 -0.06282547 0.09107854 0.0866517 -0.01870229
0.14327338 -0.040837053 0.12712312 -0.12692994 -0.1034733 -0.10289643 0.07431397 -0.045567267
0.10771733 -0.10346256 0.13897379 -0.020637825 -0.048859756 0.17593344 0.046435487 -0.08042372
0.058034766 0.09040771 0.014177905 0.11762206 -0.003990379 -0.10198565 0.04474472 0.096820906
0.068759486 0.0037110953 0.06653835 -0.16967039 0.07296558 -0.021624275 -0.08143286 0.0742874
-0.014692623 0.06282917 0.0021213251 -0.14797336 0.15609919 -0.09189157 0.0136460615 0.12813175
0.11509025 0.11682085 0.006348654 0.10486396 0.13696516 -0.0965736 0.01565966 -0.15561925
0.080322266 0.04186705 -0.08828203 0.060658835 -0.0104671065 0.022866126 -0.15014218 -0.055407725
-0.08080969 -0.06471852 -0.05207001 -0.020758592 0.1489086 0.010542266 0.07304122 0.17536847
00000000: 42d7 263e 5a8b 173e 2cdb 85bc aab9 873d
00000010: f8fe 1abe ea2b 6c3c 6920 173e b847 05be
00000020: c0a2 de3d a72e 79bd be6b 5f3d a42c 38bd
00000030: 676c 72bd beb6 c83b 48d3 993c c894 e13b
00000040: 80d1 3dbe 3886 1fbe 128e 343e 72ea ba3d
00000050: 9db6 e9bd 1ad3 0bbc 43aa 44be 4eed 0bbe
00000060: 7902 673a 75b7 153d 3fd1 553d 3824 873d
00000070: 29d7 95bd 0787 fabc c46a 243b dcf3 ab3d
00000080: f75d 023d dd67 d7bd b7df a43c 5535 86bd
00000090: b411 e83d d42a 09bd edee 26be 2f88 863d
000000a0: dc14 9c3c 9be6 c13d fa33 aa3a d8d0 c0bd
000000b0: 1205 91bd 694a 99bd fdd3 6a3c 64cd f03c
000000c0: 9121 183d d84b 1f3e 4417 023d d7e6 d1bc
000000d0: 0a43 213e 95f4 16be 7ab3 76ba 9de1 69bd
000000e0: bc1b 663c 28df 4bbe 5993 89bd afdc 1bbd
000000f0: d6a9 213d a23e 7f3c 5a84 923d 603a 063e
00000100: 80fb fd3d 8786 cabd 6c4b 08bc cd2d babd
00000110: 0a4e 8bbd 791a 8a3d d6fa cbbd 7d98 313b
00000120: e5bf 20be a8c1 b0bd 0d1c 043d 6a55 64bd
00000130: 3998 12bd bdaa 8d3d 58a2 143e ac7b 08be
00000140: bee7 60bd a4a1 bdbd b0d4 bf3d 3926 84bd
00000150: 2ae7 28bd 6db1 52bd ac9d ca3d 131a a53d
00000160: e99a 033c 9aa5 6e3c efee c43d 824d 303d
00000170: ff93 6a3d d668 f6bd 0573 d53d 3044 1cbe
00000180: 2ddb 20be ad2d bebd cd3f 95bd ec50 103d
00000190: c492 9b3d e7a7 383c 703a 1e3e 0647 953d
000001a0: d737 27be a1ad ee3d e9d6 373e bdb4 1a3d
000001b0: b28b 4d3d dfd6 c2bd ac26 05be cb71 b0bd
000001c0: 21ae f73d 5aaf d73d 009c 84bd dc3d 12be
000001d0: a658 6f3d 3c68 4b3a 0844 413e 6eb2 843d
000001e0: 31a4 623d 1b7d 2bbc 3c36 27bc 63cd 013d
000001f0: e0c9 113e 2b82 3fbc 1337 213d 267a b9bd
00000200: 463e 4f3d 1b70 b53d 8998 a63d 3ef2 ecbc
00000210: e728 3cbd 3133 9ebc d75a 24be 7e41 a1bc
00000220: 8c7b 303c d033 4a3b f2d9 b13d d9bb 1b3d
00000230: 69b7 31bd 5871 733d 5a01 2b3e 8e0c 3bbd
00000240: c61f 20bd 25a7 793b f04f 8d3c 54bc 283d
00000250: 225c 803d 110b a3bd bb10 a9bd 7552 9a3d
00000260: cbf1 363d cc0c 18be b75c 9ebd dfe1 8e3b
00000270: eff8 df3d baa1 473d f1f4 e73d ec85 2dbe
00000280: 2935 b03d 5200 8cbd b8bc f23d 978e bf3d
00000290: 9253 a1bc 1e34 f2bd f1ed 343d 2e1b 493d
000002a0: ff90 cb3d d390 843d eb8a 1ebe e416 223e
000002b0: 09c7 373c e655 b63d f137 88bd f949 c13d
000002c0: 4d53 083e b5fe 753d 09ac 093e 4247 02be
000002d0: 7e79 2cbe 108e 553d 1f4d b13d a62f 0dbe
000002e0: 653d de3c 2c6f cdbc bf3e 92bc 2171 793c
000002f0: a4aa 80bd 6387 ba3d 7276 b13d 8b35 99bc
00000300: 42b6 123e c144 27bd 902c 023e ecf9 01be
00000310: cfe9 d3bd 5dbb d2bd ec31 983d bea4 3abd
00000320: e79a dc3d 2ee4 d3bd 254f 0e3e a810 a9bc
00000330: 2b21 48bd e527 343e 2333 3e3d 31b5 a4bd
00000340: ddb5 6d3d ad27 b93d 724a 683c d6e3 f03d
00000350: bac1 82bb dadd d0bd 3d46 373d 0a4a c63d
00000360: c6d1 8c3d d935 733b 4245 883d 13be 2dbe
00000370: fa6e 953d 6425 b1bc 45c6 a6bd fe23 983d
00000380: 54b9 70bc 94ac 803d ee05 0b3b 5486 17be
00000390: 77d8 1f3e a631 bcbd bb93 5f3c f834 033e
000003a0: 70b4 eb3d c53f ef3d 5f08 d03b eac2 d63d
000003b0: 9840 0c3e 61c8 c5bd b048 803c a75a 1fbe
000003c0: 0080 a43d c97c 2b3d 35cd b4bd 6675 783d
000003d0: 3a7e 2bbc be51 bb3c dfbe 19be 36f3 62bd
000003e0: 8d7f a5bd 258b 84bd 5d47 55bd ec0d aabc
000003f0: 7f7b 183e 78b9 2c3c a396 953d cb93 333e

lstm.weight_hh_l1 f4 [200, 50]
0.016767886 0.104049675 -0.061453853 0.0012953316 0.11158707 0.058485027 -0.07212306 0.053940568
-0.09434682 0.07995891 0.16694397 -0.077548906 -0.11455601 0.12628663 0.17617595 -0.075819045
-0.07885835 -0.1618716 -0.17132308 0.08044304 0.12641013 0.13254078 -0.03414225 0.16132589
-0.058422063 0.037641745 0.08430184 0.19795303 0.17267042 -0.07050119 -0.09678475 -0.06704057
0.0012309107 -0.068077095 -0.07385952 -0.08344159 0.0900227 -0.14371184 0.08149844 -0.08702272
-0.093293294 -0.16239269 -0.07685454 0.11231604 -0.08687375 -0.011933487 0.13528903 0.100990936
-0.12856407 -0.09808096 0.055362426 -0.051507615 0.117951825 0.085257374 0.006160751 -0.06784531
0.10543596 0.077633046 -0.081012696 0.059605125 0.12430842 0.09359039 -0.13044164 0.020082451
0.055726442 0.13749994 -0.07051777 -0.16307287 -0.0151143465 -0.011464324 0.018209321 0.094318226
-0.10279472 0.13190679 -0.023153832 0.15489952 0.12538093 0.18523233 -0.04234767 -0.13139886
-0.12716843 0.020124117 0.023880856 0.03220803 0.071188115 0.043293096 -0.06635687 -0.088280186
0.11625415 0.04509186 -0.01374881 -0.09730618 0.0050416957 0.09759132 0.08814455 0.16886143
0.0062412084 -0.07435416 -0.05440743 0.09758198 0.043598853 0.11723922 -0.023303716 -0.13952501
-0.085239284 -0.049343728 -0.004072484 -0.01686708 0.05403376 0.114834145 -0.016009971 0.06316531
-0.032317206 0.092360094 0.11808238 0.039445475 -0.08798534 0.071060285 0.025537709 0.10710953
-0.0050559966 0.03671219 -0.080244355 -0.049382932 0.014246661 -0.02291548 -0.025717596 0.01097639
0.1685305 -0.13536188 0.1315549 -0.013399359 -0.0567723 0.10378339 0.022136012 0.07453343
0.03634558 -0.017743982 -0.029396221 -0.026568266 0.060377795 -0.118143484 -0.08579862 0.005462924
-0.08188169 -0.0664644 0.109156094 0.095148556 -0.043896936 0.07108725 0.09886166 0.11846099
-0.09027701 0.047492225 0.12413108 -0.05932874 -0.1266666 -0.048307557 0.10969549 -0.13600114
-0.038419835 -0.037453372 -0.13920614 -0.15245976 -0.111259565 -0.09397175 -0.064416446 -0.05740844
-0.08292722 0.09130516 -0.020952174 0.05277677 0.06877039 -0.07699384 0.06876811 0.019765573
-0.12778692 0.052344758 0.08101109 0.09218931 0.06547051 -0.08274256 0.12761882 -0.009902673
0.12757821 0.0301371 -0.12847638 0.049066436 0.13423787 -0.113539845 -0.0044087907 -0.058705058
0.022622442 0.022631502 0.036744602 -0.036933776 -0.10042596 0.04610381 0.105146185 -0.08112723
0.08787904 0.0949974 0.15856712 0.029553171 0.02495245 0.087822974 -0.049001113 0.14823996
0.0011401565 0.14289011 0.0134186335 0.1200411 -0.12082868 -0.06187592 0.18277836 0.023105687
0.057851087 0.012295079 0.13087448 -0.016263062 0.09002804 -0.032588974 -0.10380302 0.039884046
-0.09332773 0.05547153 -0.03902914 -0.014286547 0.1283453 -0.059713807 0.02483432 -0.058527067
0.11539113 -0.11241981 0.12419332 -0.039386857 0.053120453 0.005768286 -0.14069892 0.02010249
0.059230078 0.07566418 0.02423661 0.032196905 -0.10581227 -0.0025205938 0.111570254 0.08629349
0.10648334 0.09423634 0.09293483 -0.055843387 0.11972117 0.014504958 0.017812418 -0.004601021
00000000: ce5c 893c ff17 d53d 09b7 7bbd 1ec8 a93a
00000010: c387 e43d ff8d 6f3d 41b5 93bd c9f0 5c3d
00000020: e838 c1bd 7fc1 a33d 5cf3 2a3e f6d1 9ebd
00000030: 579c eabd 4851 013e 7867 343e 0447 9bbd
00000040: 7d80 a1bd abc1 25be 516f 2fbe 52bf a43d
00000050: a871 013e c5b8 073e bed8 0bbd 9d32 253e
00000060: f94b 6fbd 3b2e 1a3d 71a6 ac3d 33b4 4a3e
00000070: 84d0 303e ee62 90bd 1537 c6bd 914c 89bd
00000080: 8256 a13a 016c 8bbd a943 97bd 6de3 aabd
00000090: d25d b83d 3229 13be a7e8 a63d f838 b2bd
000000a0: 8e10 bfbd 454a 26be ea65 9dbd f405 e63d
000000b0: ddea b1bd ac84 43bc 3589 0a3e 56d4 ce3d
000000c0: 4da6 03be acde c8bd b6c3 623d a6f9 52bd
000000d0: ba90 f13d 6b9b ae3d 20e0 c93b 7bf2 8abd
000000e0: cfee d73d 13fe 9e3d fce9 a5bd 8124 743d
000000f0: 6a95 fe3d 52ac bf3d 7e92 05be f483 a43c
00000100: 6941 643d c9cc 0c3e 9f6b 90bd 93fc 26be
00000110: 2aa2 77bc dcd4 3bbc b72b 953c ea29 c13d
00000120: 0a86 d2bd 9312 073e 1bad bdbc fb9d 1e3e
00000130: dc63 003e 8bad 3d3e c074 2dbd 6c8d 06be
00000140: 7138 02be 55db a43c c9a1 c33c 91ec 033d
00000150: 13cb 913d 1a54 313d 1ce6 87bd 3ecc b4bd
00000160: a816 ee3d 3eb2 383d b042 61bc 7648 c7bd
00000170: cf34 a53b f5dd c73d 2185 b43d 03ea 2c3e
00000180: 0d83 cc3b fe46 98bd 53da 5ebd 10d9 c73d
00000190: b694 323d 1e1b f03d 6fe7 bebc a5df 0ebe
000001a0: ef91 aebd a61c 4abd 7972 85bb d52c 8abc
000001b0: 8152 5d3d 2a2e eb3d 5827 83bc d05c 813d
000001c0: 0c5f 04bd 4a27 bd3d 2dd5 f13d 9491 213d
000001d0: a831 b4bd 0e88 913d 7534 d13c 3e5c db3d
000001e0: c6ac a5bb 855f 163d 2757 a4bd c245 4abd
000001f0: d46a 693c 3fb9 bbbc b5ad d2bc 51d6 333c
00000200: 4293 2c3e 4e9c 0abe 54b6 063e fc88 5bbc
00000210: 128a 68bd 638c d43d 9556 b53c fca4 983d
00000220: 1adf 143d d45b 91bc 58d0 f0bc b1a5 d9bc
00000230: b54e 773d 36f5 f1bd 30b7 afbd 5402 b33b
00000240: 96b1 a7bd 7d1e 88bd 3b8d df3d 3fdd c23d
00000250: 46cd 33bd 3196 913d fb77 ca3d ad9b f23d
00000260: 27e3 b8bd 3587 423d 7038 fe3d b102 73bd
00000270: e4b4 01be 25de 45bd 07a8 e03d e243 0bbe
00000280: 1e5e 1dbd b568 19bd 0e8c 0ebe 691e 1cbe
00000290: 0edc e3bd 4374 c0bd c5ec 83bd 1d25 6bbd
000002a0: bfd5 a9bd 33fe ba3d e5a3 abbc 742c 583d
000002b0: 7dd7 8c3d f2ae 9dbd 4bd6 8c3d 69eb a13c
000002c0: 93da 02be 7567 563d 24e9 a53d c0cd bc3d
000002d0: 6715 863d ee74 a9bd 82ae 023e d23e 22bc
000002e0: dda3 023e 14e2 f63c 508f 03be e3f9 483d
000002f0: a775 093e 9487 e8bd 9e77 90bb b774 70bd
00000300: b352 b93c b365 b93c 8281 163d df47 17bd
00000310: 20ac cdbd 59d7 3c3d e256 d73d 0826 a6bd
00000320: edf9 b33d ff8d c23d 6b5f 223e 7e19 f23c
00000330: 1569 cc3c 88dc b33d 64b5 48bd 37cc 173e
00000340: 4e71 953a c951 123e d4d9 5b3c 1cd8 f53d
00000350: 0775 f7bd 9b71 7dbd 402a 3b3e 2348 bd3c
00000360: 43f5 6c3d 4d71 493c f603 063e 1d3a 85bc
00000370: 9f60 b83d 047c 05bd ae96 d4bd 745d 233d
00000380: 9c22 bfbd 1d36 633d 05dd 1fbd 1f12 6abc
00000390: f36c 033e 7796 74bd 5871 cb3c 14ba 6fbd
000003a0: 2f52 ec3d 5b3c e6bd 1159 fe3d 1d54 21bd
000003b0: d594 593d e403 bd3b 6113 10be faad a43c
000003c0: 3d9b 723d d2f5 9a3d db8b c63c e7e0 033d
000003d0: 1ab4 d8bd 8c30 25bb f27e e43d a4ba b03d
000003e0: f013 da3d fbfe c03d 9e54 be3d 09bc 64bd
000003f0: 5f30 f53d 34a6 6d3c 59eb 913c 29c4 96bb

lstm.bias_ih_l1 f4 [200]
0.1468317 0.13647063 0.15649077 0.17416076 0.06523259 0.0136068985 -0.051504828 0.14169522
0.14904007 0.0782207 -0.024595704 -0.055187747 0.0814964 0.10686872 -0.017336104 0.18094115
0.1017595 -0.018439425 -0.09245264 0.011762774 0.15630229 0.18567978 -0.042564988 0.14465982
0.1644392 -0.055365104 0.16958728 0.059368096 -0.011492571 0.11125885 0.097511694 0.12299726
-0.022283146 0.015579926 0.030147694 -0.04788186 0.07935856 0.055820193 0.071116164 0.08276116
0.038428977 0.09217489 0.06089582 0.051640384 0.04261328 0.11479332 0.13859664 -0.0040802294
0.05133925 0.09421081 0.059431665 -0.07534594 0.17507096 -0.00735065 0.042302735 0.105958186
-0.08555292 -0.07444478 0.09525875 0.051839612 -0.07913701 -0.04327274 0.0866922 -0.10420747
0.11785287 0.05344451 0.11152918 0.15696634 0.14986905 -0.102805674 0.042058393 -0.031196197
0.12777479 -0.043393694 0.000613446 -0.020479199 -6.867063e-05 -0.020632051 -0.07922716 0.038469207
-0.06090615 -0.041327007 0.13698585 -0.05608956 0.057997774 0.0997979 0.106343724 0.008954458
0.09115171 0.045791894 0.11812176 0.0800945 -0.03000823 0.018516054 0.075965695 -0.06002277
0.046139862 -0.036013328 0.11421655 0.098267116 0.03460969 0.05975015 0.113626726 0.05741422
0.02919241 -0.06185012 -0.04722129 0.03251417 -0.14138307 -0.0154693695 0.18077949 0.074791774
0.08669439 -0.017097002 0.019640427 0.04095914 0.07878463 -0.03343833 -0.08508988 0.025445148
0.1472012 0.03932383 -0.09547678 0.05643818 -0.04991852 0.05767653 0.09743511 0.1368533
-0.08792908 0.09558084 -0.11689545 -0.09431736 0.07686597 0.020866258 0.063248314 -0.021163648
0.015080959 -0.061227884 0.009683349 -0.064240076 -0.052864235 -0.1314174 -0.108719796 0.111757234
0.0019529167 0.14051083 0.0622324 -0.04451898 -0.10124973 -0.10075875 -0.011664751 0.0839617
0.06805781 -0.054228034 0.095881425 0.2173932 0.18335778 0.17906569 0.07998829 -0.014028116
-0.03228835 0.0943343 0.12639803 -0.08704437 0.040341813 0.04162142 -0.031937215 -0.081852525
0.19684096 -0.024454817 0.0029558886 -0.001090303 0.021533512 0.14304854 0.024910722 0.14617057
0.14666744 0.13120446 0.09229274 0.10787628 0.08738951 0.1400628 0.0036565403 -0.05311516
0.17260581 0.14367312 0.1614138 -0.00800995 0.0852533 0.17313738 0.016151255 0.18572088
-0.030398393 0.1598496 0.10299978 0.14057615 0.102210924 0.062312808 0.048712563 0.0062466436
00000000: 0d5b 163e f5be 0b3e 1e3f 203e 3357 323e
00000010: aa98 853d 78ef 5e3c baf6 52bd 8d18 113e
00000020: f69d 183e 2d32 a03d ee7c c9bc 8c0c 62bd
00000030: 96e7 a63d fddd da3d 7204 8ebc a348 393e
00000040: 4967 d03d 470e 97bc cf57 bdbd a6b8 403c
00000050: b50d 203e d722 3e3e a058 2ebd b421 143e
00000060: c062 283e 85c6 62bd 4aa8 2d3e f62b 733d
00000070: 564b 3cbc aedb e33d 36b4 c73d fde5 fb3d
00000080: 258b b6bc f242 7f3c 4cf8 f63c c51f 44bd
00000090: be86 a23d b7a3 643d 5aa5 913d af7e a93d
000000a0: b467 1d3d 30c6 bc3d e56d 793d de84 533d
000000b0: 438b 2e3d c318 eb3d 47ec 0d3e 72b3 85bb
000000c0: 1b49 523d 99f1 c03d 9e6e 733d f94e 9abd
000000d0: cd45 333e b9dd f0bb a245 2d3d 9b00 d93d
000000e0: 5f36 afbd 8176 98bd 0517 c33d c655 543d
000000f0: 9612 a2bd c23e 31bd ae8b b13d ba6a d5bd
00000100: d85c f13d a1e8 5a3d 6969 e43d c9bb 203e
00000110: 4677 193e c88b d2bd 6c45 2c3d 2b8f ffbc
00000120: 65d7 023e 96bd 31bd aacf 203a fec3 a7bc
00000130: 4403 90b8 8c04 a9bc d941 a2bd e391 1d3d
00000140: ba78 79bd 8246 29bd 0546 0c3e 2bbe 65bd
00000150: 138f 6d3d d762 cc3d bdca d93d b8b5 123c
00000160: bfad ba3d 4890 3b3d d2e9 f13d 9608 a43d
00000170: d2d3 f5bc fbae 973c e793 9b3d 70da 75bd
00000180: 27fd 3c3d b682 13bd 5eea e93d 4540 c93d
00000190: e4c2 0d3d 93bc 743d 21b5 e83d 2c2b 6b3d
000001a0: ec24 ef3c 8d56 7dbd 1d6b 41bd 942d 053d
000001b0: b9c6 10be 3d73 7dbc 421e 393e 6e2c 993d
000001c0: d48c b13d 030f 8cbc f6e4 a03c c5c4 273d
000001d0: d659 a13d a1f6 08bd 9a43 aebd 5872 d03c
000001e0: e9bb 163e 0612 213d 5489 c3bd b92b 673d
000001f0: 5d77 4cbd 3a3e 6c3d 0f8c c73d 4523 0c3e
00000200: 2914 b4bd e3bf c33d e266 efbd 7629 c1bd
00000210: e86b 9d3d b7ef aa3c 5588 813d 635f adbc
00000220: 2016 773c 17ca 7abd e9a6 1e3c 4d90 83bd
00000230: 2b88 58bd 4892 06be 7ca8 debd fae0 e43d
00000240: 03f9 ff3a 12e2 0f3e 67e7 7e3d 8959 36bd
00000250: 055c cfbd 9b5a cebd 831d 3fbc 1df4 ab3d
00000260: e561 8b3d 371e 5ebd 7b5d c43d 539c 5e3e
00000270: 24c2 3b3e ff5c 373e e7d0 a33d 2fd6 65bc
00000280: ca40 04bd 5732 c13d 7c6e 013e 5244 b2bd
00000290: 753d 253d 397b 2a3d 99d0 02bd 4ca2 a7bd
000002a0: ad90 493e 7855 c8bc 95b7 413b 7fe8 8eba
000002b0: 0c67 b03c 517b 123e 9211 cc3c bdad 153e
000002c0: fd2f 163e 765a 063e fa03 bd3d 3dee dc3d
000002d0: 45f9 b23d 9f6c 0f3e 91a2 6f3b 488f 59bd
000002e0: 94bf 303e 0c1f 133e a949 253e 2a3c 03bc
000002f0: 4899 ae3d ed4a 313e a34f 843c 9d2d 3e3e
00000300: 0d06 f9bc 9daf 233e 8cf1 d23d 32f3 0f3e
00000310: f653 d13d b73b 7f3d d386 473d a5b0 cc3b

lstm.bias_hh_l1 f4 [200]
0.14654729 -0.06573979 0.09336479 0.06342355 0.06074796 -0.006360422 -0.033465832 -0.077470586
0.0019622922 0.004745457 -0.0629721 -0.049063016 0.090160795 -0.004888372 -0.026466098 0.12201673
-0.08126097 -0.10111479 0.10126697 0.031572163 0.0974887 0.14450859 0.0080687255 0.06673528
-0.0013803135 0.090314604 0.09949134 0.13305032 0.06130689 0.050679963 0.07235049 0.08919705
0.111060575 -0.02413172 0.084512 0.04207189 0.16840309 -0.054768786 0.011259312 0.102784894
0.08552516 -0.01954726 0.13835087 0.14011012 0.11397987 0.036110908 0.15205589 0.12418756
0.018709805 0.007444817 0.047609497 -0.04981743 -0.001849781 -0.035712585 -0.042998806 0.17787655
0.13093638 0.09057472 -0.106447004 -0.029029403 0.04510805 0.013882458 0.02451061 0.040613342
0.13776112 0.035958357 0.068143606 0.05670658 0.16787182 -0.055810485 -0.027073829 0.07120734
0.09594112 0.10677956 0.09615058 0.04534113 0.14489627 0.025400989 -0.0067160474 0.13658617
-0.025640465 0.15797308 0.17196858 0.05511779 0.024529649 -0.07424294 -0.09135511 -0.07567075
0.055397876 0.021555128 0.08624903 -0.014104139 0.14907832 0.07743938 0.10830899 -0.118580095
0.056488656 -0.08406077 -0.0365438 0.005674462 0.06801424 0.058888875 0.054296702 -0.072409295
0.12866245 -0.09797852 0.11672584 -0.07457244 -0.032356467 -0.10927332 0.16864797 -0.08527942
0.07481238 0.016956575 0.02990463 -0.11341194 -0.07500256 -0.119656086 -0.006203786 0.07015176
0.07230178 0.075339764 -0.17635068 0.08420035 -0.042599667 0.025561517 -0.067997985 -0.02983178
0.07684057 -0.0017158278 0.026877927 0.16224495 0.110456705 -0.09272746 0.12334219 -0.077970125
-0.092115305 -0.17201973 0.104069754 -0.06408355 0.07952409 0.04855655 -0.041580442 0.028484212
-0.041737784 -0.008879729 -0.14782262 0.013506621 -0.12127057 -0.013194048 0.16407697 0.1885053
0.054511275 0.04497412 0.14562066 0.20311104 -0.07387622 -0.022559939 -0.051452618 0.027729573
0.17560422 0.009447663 -0.0012460023 -0.103125565 -0.061223295 0.058984347 -0.0477526 0.114576586
0.05782775 -0.030876894 0.111198954 0.20468295 0.1636527 0.06521231 -0.04174511 0.062792316
0.19603235 0.05559479 0.09691313 0.05351499 0.034356847 -0.10074201 0.052320205 -0.031088615
-0.05067755 -0.017257445 0.079325944 0.092116 0.12129959 -0.04187181 0.10982577 -0.045826692
0.09374661 0.17344953 0.08810243 -0.0951533 0.034723636 0.0640886 0.053615063 0.20116277
00000000: 7e10 163e 95a2 86bd 0a36 bf3d 35e4 813d
00000010: dad2 783d 166b d0bb 7813 09bd e6a8 9ebd
00000020: cd99 003b c77f 9b3b 84f7 80bd 4df6 48bd
00000030: 39a6 b83d a32e a0bb 6ecf d8bc e8e3 f93d
00000040: 276c a6bd 4515 cfbd 0f65 cf3d d051 013d
00000050: 28a8 c73d 0ffa 133e b032 043c 82ac 883d
00000060: a3eb b4ba ddf6 b83d 1ec2 cb3d 583e 083e
00000070: ef1c 7b3d cb95 4f3d 7e2c 943d f1ac b63d
00000080: ba73 e33d e3af c5bc a114 ad3d 9353 2c3d
00000090: dc71 2c3e 3c55 60bd fa78 383c e380 d23d
000000a0: d127 af3d 9321 a0bc daab 0d3e 0779 0f3e
000000b0: 476e e93d 08e9 133d 8ab4 1b3e 0c56 fe3d
000000c0: 4e45 993c a7f3 f33b 2d02 433d 5d0d 4cbd
000000d0: 5a74 f2ba 5c47 12bd 841f 30bd 4525 363e
000000e0: 3014 063e 3d7f b93d e300 dabd 12cf edbc
000000f0: 38c3 383d 4073 633c 7aca c83c 2d5a 263d
00000100: 4011 0d3e 1249 133d e08e 8b3d 2945 683d
00000110: 97e6 2b3e 8999 64bd efc9 ddbc 27d5 913d
00000120: c77c c43d 3eaf da3d 98ea c43d 9fb7 393d
00000130: b05f 143e bc15 d03c 4a12 dcbb 3fdd 0b3e
00000140: f40b d2bc b2c3 213e 8818 303e 31c3 613d
00000150: 67f2 c83c af0c 98bd 6318 bbbd 44f9 9abd
00000160: e2e8 623d 6194 b03c 55a3 b03d 0c15 67bc
00000170: fda7 183e 8a98 9e3d 1bd1 dd3d 1fda f2bd
00000180: a660 673d 0e28 acbd f4ae 15bd d6f0 b93b
00000190: 0d4b 8b3d 7635 713d 3866 5e3d 534b 94bd
000001a0: 17c0 033e f6a8 c8bd f50d ef3d 6fb9 98bd
000001b0: 3788 04bd b1ca dfbd 0eb2 2c3e faa6 aebd
000001c0: 3c37 993d 84e8 8a3c 8efa f43c 8544 e8bd
000001d0: f19a 99bd 400e f5bd 2149 cbbb baab 8f3d
000001e0: f512 943d bc4b 9a3d 4695 34be 3c71 ac3d
000001f0: fd7c 2ebd 6366 d13c 8742 8bbd c761 f4bc
00000200: 975e 9d3d a1e5 e0ba 192f dc3c 8a23 263e
00000210: 2037 e23d e5e7 bdbd d59a fc3d cdae 9fbd
00000220: f3a6 bcbd f125 30be 8622 d53d 3c3e 83bd
00000230: 87dd a23d 3ce3 463d 4150 2abd b957 e93c
00000240: 3df5 2abd 487c 11bc d05e 17be e04a 5d3c
00000250: b45c f8bd d92b 58bc cb03 283e 8907 413e
00000260: 3747 5f3d c836 383d 951d 153e 57fc 4f3e
00000270: 6a4c 97bd 9fcf b8bc fbbf 52bd 2129 e33c
00000280: 98d1 333e 5fca 1a3c e650 a3ba 7f33 d3bd
00000290: 47c5 7abd 9299 713d 3b98 43bd 21a7 ea3d
000002a0: cadc 6c3d 8af1 fcbc 47bc e33d 6898 513e
000002b0: 9394 273e 088e 853d ecfc 2abd 4299 803d
000002c0: b4bc 483e 5db7 633d 647a c63d 8932 5b3d
000002d0: c4b9 0c3d d451 cebd b64d 563d 8dad febc
000002e0: 4393 4fbd 7c5f 8dbc a475 a23d 50a7 bc3d
000002f0: eb6b f83d c681 2bbd 55ec e03d c5b4 3bbd
00000300: 39fe bf3d c19c 313e 0c6f b43d bcdf c2bd
00000310: 5f3a 0e3d e240 833d 789b 5b3d 9dfd 4d3e

fc.weight f4 [1, 50]
-0.117588066 -0.19051428 -0.011352329 0.09429625 0.11459094 0.12880883 0.096329555 -0.05809577
0.15929312 -0.15660577 0.07536614 -0.11511986 0.19992496 -0.1472996 -0.14435276 -0.21031399
-0.22081634 -0.069018774 -0.10755449 0.10298687 0.17766698 -0.14417866 -0.19396965 0.071583845
-0.120302536 -0.084347256 0.13843216 0.09183279 0.18010345 -0.16558497 0.18175395 -0.048262317
0.073828466 0.15457034 -0.10622818 0.12662022 -0.18985832 -0.10808973 0.21516375 -0.18041396
-0.16819239 0.071629316 0.0837821 0.18295406 -0.09968881 0.14727195 -0.11560567 0.069548264
0.18786909 0.15475436
00000000: 03d2 f0bd 2d16 43be 1eff 39bc 641e c13d
00000010: a8ae ea3d 76e6 033e 6e48 c53d d5f5 6dbd
00000020: bc1d 233e 435d 20be 9059 9a3d f6c3 ebbd
00000030: 21b9 4c3e b5d5 16be 36d1 13be 8d5c 57be
00000040: ae1d 62be b759 8dbd 8745 dcbd c8ea d23d
00000050: 55ee 353e 92a3 13be fb9f 46be 8d9a 923d
00000060: 2d61 f6bd 41be acbd 29c1 0d3e d412 bc3d
00000070: 0a6d 383e 1b8f 29be b51d 3a3e b5ae 45bd
00000080: 6133 973d b047 1e3e 298e d9bd bba8 013e
00000090: 386a 42be 265e ddbd e353 5c3e 70be 38be
000000a0: a03a 2cbe 64b2 923d f395 ab3d 4f58 3b3e
000000b0: a629 ccbd 75ce 163e aac2 ecbd 526f 8e3d
000000c0: c160 403e ed77 1e3e
