best_linear_model.pth (torch, 2767 bytes, 1 tensors)

linear.weight f4 [1, 400]
0	0xbcdf7a6a	-0.027280051
1	0x3c692770	0.014230594
2	0x3d6a4e69	0.057203684
3	0xbd1b62e1	-0.037936095
4	0xbb6bd25f	-0.0035983545
5	0xbd0bd95b	-0.034142833
6	0x3bb0aad9	0.0053914604
7	0xbce4c68f	-0.027926711
8	0x3d2205bf	0.03955626
9	0x3d221311	0.039568964
10	0xbb8462fe	-0.004040121
11	0xbd192b69	-0.037394915
12	0xbd03db20	-0.032191396
13	0x3d15de9e	0.036589257
14	0xbc9b787e	-0.018978354
15	0xbb8ed8f5	-0.0043593594
16	0x3cbd4d4b	0.023108145
17	0x3c8f37a4	0.017482586
18	0x3cb77ab8	0.022397384
19	0xbd0169f3	-0.03159518
20	0xbcebacf8	-0.028769001
21	0xbbcf15c8	-0.006319735
22	0x3d677714	0.056510046
23	0xbcd1d281	-0.025613071
24	0xbc96dc74	-0.018415667
25	0xbc2bbefe	-0.010482548
26	0x3c2fd1a9	0.010731139
27	0xbca3b891	-0.019985469
28	0x3d218e31	0.039442245
29	0x3c993134	0.01870022
30	0xbc9ebf74	-0.019378401
31	0xbb80d414	-0.0039315317
32	0x3c143e16	0.009048006
33	0xbcd26fb3	-0.025688028
34	0x3cb39d4b	0.02192559
35	0xba85e2a6	-0.0010214641
36	0xbcc32651	-0.023821982
37	0x3d157aed	0.036494184
38	0x3c013f69	0.007888653
39	0xbd2eafeb	-0.042648237
40	0x3c8e3226	0.017357897
41	0xbbfb50ff	-0.0076695676
42	0x3d4c3b5a	0.04986129
43	0xbd31b7e8	-0.043388277
44	0x3cab4487	0.0209067
45	0xbc68f84e	-0.014219357
46	0x3c88b231	0.01668653
47	0xbbf463d1	-0.007458188
48	0x3c043e61	0.008071513
49	0xbd0b30d7	-0.033982124
50	0x3d3f3530	0.046681583
51	0xbb4ba599	-0.0031074046
52	0xbc6be288	-0.014397271
53	0xbbbbfb96	-0.0057367785
54	0xbbde3023	-0.0067806407
55	0xbc9a863a	-0.018862832
56	0x3ceb07d9	0.028690265
57	0xbd07e0fb	-0.033173542
58	0x3ca20f39	0.01978265
59	0x3c9a3365	0.018823335
60	0x3ca7d1b7	0.020485742
61	0xbd038973	-0.032113504
62	0xbbd2ef2c	-0.006437203
63	0x3d50d621	0.05098546
64	0xbd44c596	-0.048039995
65	0x3cb42623	0.021990841
66	0x3920e814	0.00015345245
67	0xbd0760d4	-0.033051327
68	0x3cb7985a	0.022411514
69	0x3d1d414f	0.03839236
70	0x3ccd2af8	0.025044903
71	0xbd304939	-0.04303858
72	0xbd38dd65	-0.045133013
73	0x3d2765a6	0.040868424
74	0xbcc3e51d	-0.02391296
75	0x3c8f3c1e	0.01748472
76	0x3d1c8478	0.03821227
77	0xbcf283b7	-0.029603822
78	0x3d1f1cb1	0.03884572
79	0xbd269d80	-0.040677547
80	0xbd0384a9	-0.032108936
81	0x3b9fae97	0.0048731077
82	0x3cc08fe6	0.023506116
83	0x3cdbed3d	0.026846522
84	0xbcd54c6a	-0.026037414
85	0x3b3e8ec6	0.0029076799
86	0xbcf31653	-0.029673731
87	0xbc33cbc4	-0.0109738745
88	0x3c6e5f52	0.014549093
89	0xbc896d2e	-0.016775694
90	0x3d24955c	0.040181503
91	0xbd01063e	-0.031500094
92	0x3d7de4e4	0.061985865
93	0xbd19a27e	-0.03750848
94	0xbccc49e8	-0.024937585
95	0x3c939cd5	0.01801912
96	0x3cdd1e98	0.026992127
97	0xbc4b95f6	-0.01242589
98	0xbd16cde4	-0.036817446
99	0x3bee420c	0.007271057
100	0x3d01d84f	0.03170043
101	0x369beff6	4.647295e-06
102	0x3c56dfa7	0.013114846
103	0xbca1bed6	-0.019744318
104	0xbcfddb5c	-0.030988388
105	0xbd24d3f2	-0.04024119
106	0x3ce70cf1	0.028204413
107	0x3d1a421b	0.0376607
108	0xbadd2e46	-0.0016874752
109	0x3d14239d	0.036166776
110	0xbd5a7fb4	-0.053344443
111	0xbb19ca10	-0.0023466386
112	0xbcb23bc4	-0.021757014
113	0x3cf38ed8	0.0297312
114	0xbb514c31	-0.0031936283
115	0x3cfbf78f	0.030757694
116	0x3bf73b0c	0.0075448807
117	0x39ffe73e	0.0004880968
118	0xbc4d7686	-0.012540465
119	0xbc823d21	-0.01589829
120	0xbbf837f7	-0.007575031
121	0xbd21871b	-0.039435487
122	0xbc9bd68b	-0.0190232
123	0x3cba093b	0.02270948
124	0x3d84fedf	0.06493925
125	0xbc970160	-0.018433273
126	0xbc8da7d5	-0.017291943
127	0x3cb8108a	0.022468824
128	0xbc9e1ad2	-0.019299898
129	0xbb5742dc	-0.0032846248
130	0x3c8cecfd	0.017202849
131	0x3c139db0	0.009009764
132	0xbcab254b	-0.020891806
133	0xbcbac922	-0.022800986
134	0x3d435d82	0.047696598
135	0xbce8ae0f	-0.02840331
136	0xbc808c24	-0.015691824
137	0xbc6d1b6a	-0.014471868
138	0x3cd5426e	0.026032653
139	0xbb422cd8	-0.002962878
140	0x38e4c464	0.00010908468
141	0x3d346dab	0.0440499
142	0xbc4d1048	-0.012516089
143	0xbc743f4b	-0.014907668
144	0xbc9c71a9	-0.019097166
145	0x3cab44f4	0.020906903
146	0xbcfe0fbe	-0.031013366
147	0x3cf1da6a	0.029523093
148	0xbcebecc6	-0.028799426
149	0x3ca864ce	0.02055588
150	0xbb9f0e51	-0.0048540016
151	0xbc41ce12	-0.011828916
152	0x3ccde020	0.025131285
153	0xbce7d651	-0.028300436
154	0x3c69e3b8	0.014275484
155	0x3cffb08a	0.03121211
156	0xbce4d5dd	-0.02793401
157	0x3c2f4733	0.010698128
158	0xbcb71ed7	-0.022353573
159	0x3b4703e2	0.0030367305
160	0xbc83ba0a	-0.016079921
161	0xbd1140c2	-0.03546215
162	0x3d1d82f7	0.038454976
163	0x3c8f9410	0.017526656
164	0x3d36dc3c	0.044643626
165	0xbd154f3c	-0.036452517
166	0xbd001b28	-0.0312759
167	0xbc89ca03	-0.01681996
168	0x3cfe3796	0.031032365
169	0xbc8a000f	-0.016845731
170	0xbb91d372	-0.004450255
171	0x3c9cbfa8	0.019134358
172	0x3ce0e0fe	0.027451035
173	0x3a85b119	0.0010199874
174	0xbd1b45e8	-0.037908465
175	0xbc562eed	-0.013072711
176	0x3ca9da14	0.02073387
177	0xbd2f3c6e	-0.04278224
178	0x3cc790a5	0.024360964
179	0x3cbb692c	0.022877298
180	0x3c525206	0.012836939
181	0xbd2975c4	-0.041372076
182	0xbc64909a	-0.013950491
183	0xbb8b05fc	-0.0042426568
184	0x3cb7af6b	0.022422513
185	0x3bd87d83	0.006606759
186	0x3cdaba72	0.026700232
187	0xbc5536b8	-0.013013534
188	0x3c6da31e	0.014504222
189	0xbd340385	-0.04394867
190	0x3c1044e3	0.008805486
191	0x3cf2332b	0.029565414
192	0x3c78349f	0.015149265
193	0xbc8a1264	-0.016854472
194	0xbc974442	-0.018465165
195	0xbd2a71c1	-0.04161239
196	0x3d359d37	0.044339385
197	0xbd2a8194	-0.04162748
198	0x3d0f0722	0.03491891
199	0xbc93c2ab	-0.01803716
200	0x3d38e216	0.045137487
201	0x3b4eafbe	0.0031537856
202	0xbd5a88f1	-0.053353254
203	0x3d18ce48	0.0373061
204	0x3c6d0117	0.014465592
205	0xbc057fa3	-0.008148107
206	0xbd23271e	-0.039832227
207	0xbba08866	-0.0048990725
208	0xbb6df1a0	-0.003630735
209	0x3cc27ef0	0.02374217
210	0x3d072424	0.03299345
211	0xbc437482	-0.011929633
212	0x3cb9571d	0.022624547
213	0xbd19045c	-0.037357673
214	0xbcaef2d7	-0.02135603
215	0x3c8c07da	0.017093588
216	0x3c621409	0.013798722
217	0x3c97c768	0.018527701
218	0xbd0765cf	-0.033056077
219	0xbcb56da7	-0.022147013
220	0x3d042e5e	0.03227078
221	0xbd302bc9	-0.043010507
222	0x3ca749b8	0.020420894
223	0x3c95629a	0.018235493
224	0xbc9cc955	-0.019138971
225	0x3d4d3778	0.050101727
226	0x3b97890a	0.0046244906
227	0xbcfae7ec	-0.030628167
228	0xbceff6cd	-0.029292488
229	0xbd018ad3	-0.031626534
230	0x3d3ee072	0.046600766
231	0x3cc445fa	0.023959149
232	0x3d27bc3d	0.040951002
233	0xbd3971e6	-0.045274638
234	0xbcf1726a	-0.029473502
235	0xbd609659	-0.054830883
236	0x3d17fc7d	0.037106026
237	0x3d01c495	0.031681616
238	0x3ce967ab	0.028491816
239	0xbc4f33f5	-0.012646665
240	0xbc832c94	-0.016012467
241	0xbc9a67db	-0.01884835
242	0x3c9b7d49	0.018980639
243	0xbd164fb5	-0.03669711
244	0x3ca28a88	0.019841447
245	0x3b3c5742	0.0028738533
246	0xbc9a15d1	-0.018809231
247	0xbc7231fd	-0.014782426
248	0x3d3a8e67	0.04554596
249	0x3b4f3e72	0.0031622914
250	0x3b86fbbf	0.004119366
251	0xbd29b154	-0.04142888
252	0x3cd12fdc	0.025535516
253	0xbc2c591b	-0.010519291
254	0xbca5801a	-0.020202685
255	0x3c20c95f	0.009813636
