enhanced_model.pth (torch, 81486 bytes, 6 tensors)

network.0.weight f4 [128, 80]
0	0x3dd7deff	0.1054058
1	0xbca2f156	-0.019890469
2	0x3d9882f3	0.074468516
3	0xbe63e835	-0.22256549
4	0x3ce82e5b	0.028342417
5	0xbcbcd803	-0.023052221
6	0x3e1f14e4	0.15535313
7	0x3d064e02	0.032789238
8	0xbefad40a	-0.48989898
9	0x3e04948e	0.12947294
10	0x3ce49516	0.027903121
11	0x3db67caa	0.089104965
12	0x3da1454f	0.07874548
13	0x3e403ad2	0.18772438
14	0x3c0049f5	0.007830133
15	0x3e151661	0.14559318
16	0x3d1ebda3	0.03875507
17	0xbdb3bd92	-0.08776392
18	0x3d03de61	0.0321945
19	0x3e1a5cac	0.15074414
20	0x3dae923a	0.08523984
21	0x3db48393	0.08814158
22	0xbe1244b9	-0.14284028
23	0x3e0273b6	0.12739453
24	0x3dae0472	0.084969416
25	0x3ded2e58	0.11581105
26	0xbe44ed45	-0.19231136
27	0x3dc8adcb	0.097987734
28	0x3d7bfc91	0.061520163
29	0x3cb5bbbb	0.022184243
30	0xbdf732a6	-0.12070207
31	0xbd542457	-0.05179247
32	0xbda1f4fd	-0.07908056
33	0x3defe826	0.11714201
34	0xbe3c93f1	-0.1841581
35	0xbe58444c	-0.21119803
36	0xbd493af0	-0.049128473
37	0x3b339181	0.002739996
38	0x3dad9aa3	0.0847676
39	0x3dd40bbf	0.10353803
40	0xbe8b6dbd	-0.2723216
41	0x3dbccbe2	0.09218575
42	0x3d981dc1	0.0742755
43	0x3e222973	0.15836124
44	0x3d4ee5dc	0.05051218
45	0x3da07224	0.078342706
46	0x3af71047	0.0018849456
47	0xbc209ab7	-0.009802512
48	0xbbd3047c	-0.0064397436
49	0xbd3641f9	-0.04449651
50	0xbe2e8312	-0.17042187
51	0xbcadba9d	-0.021207148
52	0x3ccaade0	0.024741113
53	0x3ba6b8a9	0.005087931
54	0x3d5b960a	0.053609885
55	0x3d50ea43	0.05100466
56	0xbc51dc95	-0.0128089385
57	0x3e06d575	0.13167365
58	0x3d118a70	0.035532415
59	0xbdb89b98	-0.09014052
60	0x3df3b7e5	0.119003095
61	0xbdc67f1f	-0.09692215
62	0xbd5f1c89	-0.054470573
63	0xbcfcef1d	-0.030875737
64	0xbc89b160	-0.016808212
65	0x3c4562e3	0.012047502
66	0x3c542bc0	0.012949884
67	0x3dbf726f	0.09347998
68	0xbd207c76	-0.039181195
69	0x3d31ca11	0.043405596
70	0x3e4da55c	0.20082611
71	0x3e1941c1	0.1496649
72	0x3e1921e0	0.14954329
73	0x3d9dc88f	0.07704269
74	0x3d241c4c	0.04006605
75	0x3d912ec6	0.070889995
76	0x3ce5dded	0.028059924
77	0x3cfbda87	0.03074385
78	0x3e665b00	0.22495651
79	0xbe0e4032	-0.13891676
80	0xbe3e97e5	-0.1861263
81	0x3e3e5c44	0.18589884
82	0xbcb41373	-0.02198193
83	0xbb05c7b2	-0.0020413217
84	0xbd491e4c	-0.04910116
85	0x3d9406a1	0.07227827
86	0x3cae9380	0.021310568
87	0x3bc26b40	0.0059331954
88	0x3df4a49b	0.119454585
89	0xbdffc275	-0.124882616
90	0xbbc187d0	-0.0059060827
91	0x3e0ae81b	0.13565104
92	0xbde4b27d	-0.111668564
93	0xbe1cd8e5	-0.15317114
94	0xbe9d6110	-0.30738115
95	0xbe0f90bc	-0.14020056
96	0xbd534dde	-0.05158793
97	0x3e5b7c7f	0.2143421
98	0x3b7d9ef9	0.0038699491
99	0x3d328375	0.0435824
100	0xbc98073c	-0.018558137
101	0xbd2be890	-0.041969836
102	0x3e411c09	0.18858351
103	0x3d698d04	0.05701925
104	0x3dc4f0fd	0.09616277
105	0xbd89fd23	-0.06737735
106	0x3cbf6297	0.023362441
107	0x3cfc88ac	0.030826889
108	0x3e1e77dd	0.15475412
109	0xbe6b7576	-0.22994027
110	0xbe5bf3de	-0.21479747
111	0x3be74352	0.0070575858
112	0x3d91f92f	0.07127606
113	0x3dd5e9d1	0.104449876
114	0x3d2a3525	0.04155459
115	0x3e62f7e6	0.22164878
116	0xbe10632d	-0.14100333
117	0x3debcd9c	0.11513826
118	0x3d00e25c	0.031465873
119	0x3d4bd794	0.04976614
120	0xbd818166	-0.06323509
121	0xbc565370	-0.0130814165
122	0x3dbf869e	0.09351848
123	0xbe92772a	-0.2860654
124	0xbdc12425	-0.09430722
125	0xbe68052d	-0.22658224
126	0xbea32945	-0.31867424
127	0xbc0b1287	-0.008488304
128	0xbe35773f	-0.1772127
129	0x3e357a3a	0.17722407
130	0x3b65820f	0.0035020148
131	0xbd54b8d4	-0.05193408
132	0xbd13fe73	-0.036131334
133	0xbd99bc2a	-0.075065926
134	0x3e532be2	0.20622209
135	0x3de7ca44	0.11317876
136	0xbdeda9e7	-0.11604672
137	0x3c4325d0	0.011910871
138	0xbd86bb89	-0.06578738
139	0xbdae39fa	-0.08507152
140	0xbe7db407	-0.24775706
141	0xbe82f483	-0.25577173
142	0xbd8fa07a	-0.0701303
143	0x3d4c5c84	0.049892917
144	0xbe9106cb	-0.28325495
145	0x3d8cb393	0.068701886
146	0x3dd9b435	0.10630075
147	0xbdc8173f	-0.09770059
148	0xbd98f0da	-0.07467814
149	0xbc960a53	-0.01831547
150	0x3d52d205	0.05146982
151	0x3daefa35	0.08543817
152	0x3e01b70c	0.12667483
153	0x3b071f93	0.0020618185
154	0x39c67d9f	0.00037859098
155	0xbdac2b53	-0.08406701
156	0x3e844c15	0.25839296
157	0xbd03dd94	-0.032193735
158	0x3e139bd7	0.14414917
159	0xbd2fa4c5	-0.042881746
160	0x3d314d55	0.04328664
161	0x3df3716a	0.118868664
162	0x3d58be6b	0.05291597
163	0x3d0b42ec	0.03399937
164	0xbd1f5ad9	-0.038905
165	0x3ad2f1c7	0.0016093784
166	0xbc8a4930	-0.016880602
167	0x3dc7ca3d	0.09755371
168	0x3df676c3	0.12034371
169	0xbdc6b406	-0.097023055
170	0xbe07660c	-0.13222522
171	0xbde9af0d	-0.114103414
172	0xbddb51fb	-0.10708996
173	0x3c5602da	0.013062203
174	0x3bd93344	0.006628426
175	0x3e2a64ea	0.16640058
176	0xbe8f04c8	-0.27933335
177	0x3da5cbf8	0.080955446
178	0xbd976a80	-0.0739336
179	0x3c8d8bd9	0.017278599
180	0xbdde7d97	-0.10863798
181	0xbdcc2ad3	-0.099691056
182	0x3e01dcd0	0.1268189
183	0x3dcde9d9	0.100543685
184	0x3d8e68d9	0.06953592
185	0xbda47e62	-0.08031918
186	0x3dff49ae	0.12465225
187	0xbd69d39f	-0.057086583
188	0xbe2bc105	-0.1677285
189	0xbdb99316	-0.090612575
190	0x3dc9e56e	0.09858213
191	0x3d867cc1	0.06566764
192	0x3eaf1442	0.34195143
193	0xbdf77106	-0.120821044
194	0x3daf2bdb	0.08553287
195	0x3d1e8437	0.03870031
196	0xbe18ee3b	-0.14934628
197	0xbe6d44ab	-0.23170726
198	0x3e85cb5a	0.26131707
199	0x3d8e2834	0.06941262
200	0x3d93ec1e	0.0722277
201	0x3d21ed82	0.039533146
202	0xbe0e52e7	-0.13898812
203	0xbca9e2f0	-0.020738095
204	0xbdbb60e2	-0.09149338
205	0xbda92a8e	-0.0826007
206	0x3b235221	0.0024920779
207	0x3e53e998	0.20694578
208	0x3e06b2eb	0.1315419
209	0x3e862de2	0.2620688
210	0xbe3d84c3	-0.18507676
211	0xbdd211f3	-0.1025733
212	0xbdb5bb56	-0.08873622
213	0xbe7f0fee	-0.2490842
214	0x3e61a62c	0.22036046
215	0x3db72f27	0.089445405
216	0xbd892fda	-0.0669858
217	0x3d657289	0.056017432
218	0xbdcd74d4	-0.10032049
219	0xbddbc2e5	-0.107305326
220	0xbc979ac5	-0.018506417
221	0xbd62a659	-0.055334423
222	0x3d0c81f1	0.03430361
223	0x3d5483c3	0.05188347
224	0xbdaebdfd	-0.08532331
225	0xbd904dd9	-0.07046098
226	0xbdf47664	-0.11936644
227	0x3ea2b166	0.3177597
228	0xbd911d05	-0.07085613
229	0xbea24681	-0.31694415
230	0x3e86003c	0.26172054
231	0x3de6baef	0.112661235
232	0xbeca5ef0	-0.39525557
233	0x3c3913b0	0.011296198
234	0xbd37c59c	-0.04486619
235	0x3cddc280	0.027070284
236	0xbe098885	-0.13430984
237	0xbd9aaee0	-0.07552886
238	0xbe001eda	-0.12511769
239	0x3e43b362	0.19111398
240	0xbe7cb941	-0.24680044
241	0xbdac77b7	-0.08421271
242	0x3ddc7267	0.10764008
243	0xbdaa485d	-0.083145835
244	0xbdfd83ab	-0.12378629
245	0xbdf6848b	-0.12036999
246	0x3d03ff23	0.03222574
247	0xbb76dad8	-0.0037667062
248	0x3dc74339	0.097296186
249	0x3e2ae233	0.1668785
250	0xbe2921e5	-0.16516836
251	0xbe672f9c	-0.22576755
252	0x3d0646c8	0.032782346
253	0xbe11a319	-0.14222373
254	0xbc485f19	-0.012229704
255	0x3e3e734e	0.18598673

network.0.bias f4 [128]
0	0x3e4050dd	0.18780847
1	0xb9d8b065	-0.00041330155
2	0xbe0908ea	-0.13382307
3	0x3d8a0570	0.06739318
4	0x3d3b9189	0.04579309
5	0x3e1de333	0.15418701
6	0x3d9f3ac9	0.07774884
7	0x3c61f85e	0.0137921255
8	0x3d97906a	0.07400592
9	0x3d0808b5	0.03321143
10	0xbded5387	-0.11588197
11	0x3ddf09cc	0.108905405
12	0x3c58834b	0.013214896
13	0x3e2c2976	0.16812691
14	0xbdedb62a	-0.11607011
15	0xbe13c5cc	-0.14430922
16	0x3e433567	0.1906334
17	0xbe904d6d	-0.2818407
18	0xbccc7d4f	-0.024962096
19	0x3d258e35	0.040418822
20	0xbd8cc479	-0.06873412
21	0xbd89da8a	-0.06731136
22	0xbda198c0	-0.07890463
23	0xbd818add	-0.06325314
24	0xbca391db	-0.01996701
25	0x3d81d5f1	0.06339634
26	0xbe0eda07	-0.13950358
27	0x3e310caa	0.17289987
28	0xbe215ad0	-0.15757298
29	0xbdb8edfe	-0.090297684
30	0x3d9e1291	0.07718385
31	0x3d657295	0.056017477
32	0x3de75636	0.1129574
33	0xbdba44de	-0.090951666
34	0xbd313424	-0.043262616
35	0xbda826da	-0.08210535
36	0xbd1b5b6e	-0.03792899
37	0x3b8273f3	0.0039811074
38	0xbe434bdd	-0.19071908
39	0xbcf67b83	-0.030088192
40	0x3d97f0ed	0.07419
41	0x3d032c49	0.032024655
42	0xbe095312	-0.13410595
43	0xbd9d0a4b	-0.07667979
44	0x3c483229	0.01221899
45	0xbe834d1c	-0.25644767
46	0x3cd1ea9c	0.025624566
47	0x3e3c5c2d	0.18394537
48	0x3e7c3f8a	0.24633613
49	0x3dfa4570	0.122202754
50	0x3d724660	0.059149146
51	0xbbb9fc05	-0.005675795
52	0x3cfb3540	0.03066504
53	0x3c69dc8f	0.014273777
54	0xbdc66a25	-0.09688214
55	0x3d14b839	0.0363085
56	0xbd018e1f	-0.031629678
57	0xbc9a9219	-0.018868493
58	0xbdcea2f8	-0.100896776
59	0x3dc13b20	0.09435105
60	0x3e342a3f	0.1759424
61	0x3e8739da	0.26411325
62	0xbd35e009	-0.04440311
63	0xbb355c4f	-0.0027673428
64	0xbda262a6	-0.07928972
65	0xbd995ad9	-0.07488031
66	0xbe1db5b5	-0.15401347
67	0xbd9f3f3d	-0.077757336
68	0x3a8288af	0.0009958948
69	0xbddea32c	-0.10870966
70	0xbda473ba	-0.080298856
71	0x3d169ad7	0.03676876
72	0xbdf6c0f0	-0.12048519
73	0xbdcd4fc7	-0.10024982
74	0x3c83aa99	0.016072558
75	0x3d2ca78d	0.042151976
76	0xbcf6783b	-0.030086627
77	0x3e19047d	0.14943118
78	0x3d9e15e7	0.07719021
79	0x3d082752	0.033240624
80	0x3d954d3c	0.07290122
81	0x3e1b36f9	0.15157689
82	0x3e2e83a0	0.17042398
83	0x3dc291be	0.09500454
84	0x3e770ebf	0.24126719
85	0xbe3f2dfe	-0.18669888
86	0xbca787cd	-0.020450497
87	0x3e04e5eb	0.12978332
88	0xbdabd538	-0.083902776
89	0x3dddf0e8	0.10836965
90	0xbddb28a4	-0.10701111
91	0xbdb092b8	-0.086217344
92	0x3dbc5a8c	0.09196958
93	0x3d8de438	0.06928295
94	0xbe4adb3f	-0.19810198
95	0xbc956f36	-0.018241506
96	0xbe5214e5	-0.20515783
97	0x3b98874d	0.004654801
98	0xbe4e4c14	-0.20146209
99	0x3dfb9c38	0.12285656
100	0xbd848039	-0.06469769
101	0x3d0b6924	0.034035817
102	0xbe0f157a	-0.13973036
103	0xbdcb4aad	-0.09926353
104	0x3a7eae63	0.00097153167
105	0xbe002898	-0.12515485
106	0xbd98203d	-0.07428024
107	0x3dd88374	0.10571948
108	0x3d9d4096	0.076783344
109	0x3e37c93e	0.17947862
110	0x3b1af08f	0.002364192
111	0x3df730d3	0.12069859
112	0x3dea58eb	0.11442741
113	0xbe14a73f	-0.14516924
114	0xbd864713	-0.06556525
115	0x3e3fa909	0.18716826
116	0x3dc98ef3	0.098417185
117	0x3c1533fe	0.009106634
118	0xbe07e7b7	-0.13271986
119	0x3dba2d32	0.090906516
120	0x3db59b1e	0.08867477
121	0x3d515979	0.05111072
122	0xbe677ac7	-0.2260543
123	0xbbb2eb61	-0.0054601883
124	0xbd461d4a	-0.048367776
125	0x3d32d259	0.043657634
126	0x3e0d5657	0.13802467
127	0x3d9b40ac	0.075806946

network.2.weight f4 [64, 128]
0	0x3d8666b5	0.065625586
1	0xbdbbdb54	-0.09172693
2	0x3e153158	0.14569604
3	0x3c10aa42	0.008829655
4	0xbcc244da	-0.023714472
5	0x3d95291c	0.072832316
6	0x3d0684d3	0.032841515
7	0x3e1326ee	0.14370319
8	0x3e295da1	0.16539623
9	0xbc076fd3	-0.008266407
10	0xbd6c1990	-0.057641566
11	0xbda6579e	-0.081221804
12	0x3d821af7	0.063527994
13	0xbc30ef5b	-0.010799254
14	0x3dabe03f	0.08392381
15	0x3dbe0dab	0.09279951
16	0x3d6cdbbe	0.05782675
17	0xbe125968	-0.14291918
18	0x3da12c04	0.078697234
19	0x3d53d152	0.051713295
20	0x3d198a3f	0.037485357
21	0x3da77ef2	0.0817851
22	0x3e189c0e	0.1490328
23	0x3c3fd5f3	0.011708724
24	0xbd9e7d96	-0.07738797
25	0xbe1cea1e	-0.15323684
26	0x3da8c706	0.08241086
27	0xbc8b29ce	-0.016987707
28	0xbc8b11a0	-0.016976178
29	0x3d3d84b9	0.046269152
30	0x3d326273	0.04355092
31	0x3d75b4c0	0.05998683
32	0xbd61fc48	-0.055172235
33	0x3d80e1f8	0.062931
34	0xbd81c097	-0.06335562
35	0x3c5a26bd	0.0133149
36	0xbd0e81b5	-0.034791667
37	0xbd037fd9	-0.032104347
38	0x3c270be6	0.010195708
39	0xbe07d77d	-0.13265796
40	0x3dc359a9	0.09538586
41	0x3cca92b0	0.02472815
42	0x3d9318d7	0.07182472
43	0x3d1c3d04	0.038144127
44	0x3ddf5de0	0.10906577
45	0xbcef334f	-0.02919927
46	0x3e140a9f	0.14457177
47	0xbd37f906	-0.04491522
48	0xbb957a59	-0.004561704
49	0x3db3bb87	0.087760024
50	0xbdaca527	-0.08429938
51	0xbd855a75	-0.06511394
52	0xbd017fdb	-0.031616073
53	0x3cb553e4	0.022134729
54	0xbda10119	-0.078615375
55	0x3cb228d6	0.021747988
56	0x3e183b93	0.14866476
57	0xbcb88894	-0.022526063
58	0x3d7b12be	0.06129717
59	0x3d7bd4cc	0.061482236
60	0x3b55aa95	0.0032602896
61	0x3da1c594	0.07899013
62	0x3da18f17	0.0788862
63	0xbd2a20da	-0.041535236
64	0x3deb2738	0.1148209
65	0xbdaf6a83	-0.085652374
66	0xbdd0b342	-0.10190441
67	0xbd15aebb	-0.03654359
68	0xbdf38d42	-0.11892177
69	0xbd58a8c1	-0.05289531
70	0x3da63c53	0.08116975
71	0x3dc2c120	0.09509492
72	0xbc3a747a	-0.011380309
73	0x3dda628b	0.10663327
74	0x3db7f0d1	0.08981479
75	0x3d535fa1	0.05160487
76	0xbdbdd88b	-0.09269818
77	0x3c14bcd7	0.009078226
78	0xbd9d8eab	-0.076932274
79	0x3dbaae43	0.09115269
80	0x3d338687	0.043829467
81	0xbd73817d	-0.05944966
82	0xbe4fe4c5	-0.20302112
83	0xbdfb3787	-0.122664504
84	0xbcf887b5	-0.030338148
85	0xbe830e91	-0.2559705
86	0x3c6f55bc	0.014607843
87	0xbdf0180e	-0.11723338
88	0xbd16b4ef	-0.036793645
89	0x3cd1fcff	0.025633333
90	0x3d68a9ab	0.056802433
91	0xbdb506e4	-0.08839205
92	0x3d121dbb	0.035672884
93	0x3e374c12	0.17900112
94	0x3cc4d8e4	0.024029203
95	0xbb24cd64	-0.0025146836
96	0x3c23abc5	0.0099896835
97	0xbccaa222	-0.024735514
98	0x3e0a38ca	0.13498226
99	0x3e3cc193	0.18433218
100	0x3dc9c606	0.09852223
101	0xbd593cfd	-0.05303668
102	0xbd1ca5f7	-0.038244214
103	0x3d8d3126	0.0689414
104	0x3db033d7	0.08603638
105	0x3dd917ed	0.106002666
106	0xba25a041	-0.000631813
107	0xbd5641a6	-0.0523087
108	0xbcba7a91	-0.022763522
109	0x3cdc6bd2	0.026906881
110	0x3d97b311	0.07407201
111	0xbdc8b98a	-0.09801014
112	0xbda82e54	-0.082119614
113	0x3c9ba2e3	0.018998569
114	0x3d8cf978	0.0688352
115	0xbe01570c	-0.12630862
116	0xbe0c4196	-0.13696894
117	0xbc1c64a8	-0.009545483
118	0x3d9fc882	0.07801916
119	0xbe34647c	-0.17616457
120	0xbc09056b	-0.008363108
121	0x3e063eb8	0.13109863
122	0xbe2bb320	-0.1676755
123	0xbd42de66	-0.047575377
124	0xbe0baeab	-0.1364085
125	0x3d9534b3	0.07285442
126	0xbbdb7ecb	-0.0066984645
127	0x3da4a966	0.08040123
128	0x3d9e64b7	0.077340536
129	0xbd228000	-0.03967285
130	0xbcfb053b	-0.030642143
131	0x3e1e2ee8	0.15447581
132	0x3dd307e6	0.10304241
133	0x3e312815	0.17300446
134	0xbd162b37	-0.036662307
135	0x3e071fd7	0.1319574
136	0xbd2f49fb	-0.042795163
137	0xbca5fb12	-0.020261321
138	0x3d2c49e3	0.04206265
139	0x3dc596e6	0.09647922
140	0xbdc89cb0	-0.09795511
141	0x3e08c6a9	0.13357033
142	0xbd3ac9ae	-0.045602493
143	0xbdf13ea0	-0.11779523
144	0x3e6aece5	0.2294193
145	0x3dc0b5ec	0.09409699
146	0xbd8f29c4	-0.06990388
147	0xbd288c06	-0.04114916
148	0x3d73a665	0.059484858
149	0xbdeb73e1	-0.114967115
150	0x3e031004	0.12799078
151	0x3d191c5e	0.03738057
152	0xbcde1eda	-0.02711432
153	0x3d390c5b	0.0451778
154	0xbd06e59c	-0.032933816
155	0x3cc28af1	0.023747893
156	0x3c9725ac	0.01845058
157	0xbe05c4a9	-0.13063301
158	0xbcc2d6d9	-0.023784088
159	0x3dcc604b	0.09979304
160	0x3da8bb1c	0.08238813
161	0xbc524f40	-0.0128362775
162	0x3df8a898	0.12141532
163	0x3e0dace1	0.1383548
164	0xbdb5ad0c	-0.08870897
165	0x3e45320b	0.19257371
166	0xbe2f01b6	-0.17090496
167	0xbd0838e7	-0.03325739
168	0x3d81b913	0.06334128
169	0xbdb35abe	-0.08757542
170	0xbd0aaf63	-0.033858668
171	0xbda6bf1b	-0.08141919
172	0xbcdcd991	-0.026959212
173	0xbd4e0960	-0.05030191
174	0x3e2975d4	0.16548854
175	0x3e46bf48	0.19408906
176	0x3d60beec	0.054869577
177	0xbb85189f	-0.004061773
178	0x3cdb57f5	0.02677534
179	0xbd4cce55	-0.05000146
180	0xbc97883d	-0.01849758
181	0x3e1f1db9	0.15538682
182	0x3e377e94	0.1791938
183	0x3d3257a4	0.043540612
184	0x3e0e1929	0.13876785
185	0x3d3d5f70	0.046233594
186	0x3ddeda43	0.10881474
187	0x3dd1559f	0.10221409
188	0xbd508f6b	-0.050918024
189	0xbdc461c0	-0.09588957
190	0xbe28e40b	-0.16493241
191	0x3e15c9e6	0.146278
192	0x3c15ee4b	0.009151052
193	0x3d7a127e	0.06105279
194	0x3e0c5a66	0.1370636
195	0xbb45cce4	-0.0030181939
196	0xbd28dd54	-0.0412267
197	0x3e081027	0.13287412
198	0x3d58dc13	0.052944254
199	0x3dec3828	0.115341485
200	0x3d93fea6	0.07226305
201	0x3d52bc5d	0.05144917
202	0x3d8b7238	0.06808895
203	0x3c3dc914	0.011583585
204	0x3e0234b6	0.1271542
205	0xbdbeb897	-0.093125515
206	0x3da7de69	0.08196718
207	0x3e3a9d59	0.18224086
208	0x3df2a180	0.1184721
209	0xbd9ccfd7	-0.0765683
210	0x3dcea70a	0.10090454
211	0xbd7d05a9	-0.061772976
212	0x3e157ce6	0.14598426
213	0xbc4734c5	-0.012158577
214	0xbc952f88	-0.018211141
215	0xbe0a5792	-0.13509968
216	0x3d9e9b1d	0.07744429
217	0xbcf8dc90	-0.03037861
218	0x3d2b1930	0.041772068
219	0xbe0350bc	-0.12823766
220	0x3dfdb34f	0.12387716
221	0x3d230c01	0.03980637
222	0x3d8a5a3c	0.06755492
223	0xbd6382ff	-0.05554485
224	0x3e0cbcf7	0.1374396
225	0xbcb9c0b0	-0.022674888
226	0xbddc6279	-0.1076097
227	0x3d5298b9	0.05141518
228	0x3dacde9e	0.08440898
229	0xbb0ce0a0	-0.0021496192
230	0x3b5dec5b	0.0033862803
231	0xbced17f1	-0.02894208
232	0xbd5f45e7	-0.054510023
233	0x3ddd54ba	0.10807176
234	0xbcd0f6c4	-0.025508292
235	0xbdeee669	-0.11665041
236	0xbe195aba	-0.14976016
237	0xbd5f4cff	-0.05451679
238	0x3cd4f2d7	0.025994701
239	0x3da6c613	0.081432484
240	0x3c60bbdb	0.013716663
241	0xbd640601	-0.05566979
242	0xbbb2ca15	-0.005456219
243	0x3deb0c14	0.11476913
244	0x3c9a82d4	0.018861212
245	0x3ce111f5	0.027474383
246	0xbe041819	-0.12899818
247	0xbc83e314	-0.01609949
248	0x3d271587	0.040792014
249	0x3e539ce0	0.20665312
250	0xbb0bad87	-0.0021313147
251	0xbe37141c	-0.17878765
252	0xbe49253b	-0.19643109
253	0x3da76314	0.081731945
254	0xbbcb78a5	-0.0062094503
255	0x3d05ecfe	0.032696716

network.2.bias f4 [64]
0	0x3cb9ae10	0.022666007
1	0x3df096d7	0.117475204
2	0x3d7e1bb5	0.062038142
3	0x3e1c1fc2	0.1524649
4	0x3c577b86	0.013152009
5	0x3d0e3345	0.034716863
6	0x3df8de7c	0.121518105
7	0x3cfb094f	0.030644087
8	0x3dddeecd	0.10836563
9	0x3d8f248f	0.06989395
10	0xbd60d615	-0.054891665
11	0x3c8a6bfd	0.016897196
12	0x3dd8c27e	0.105839714
13	0xbc9635a2	-0.018336121
14	0x3da23a43	0.07921269
15	0xbda2f125	-0.07956151
16	0x3d5edd45	0.054410238
17	0x3db7d16c	0.08975491
18	0x3dcc30c8	0.09970242
19	0xbd42b179	-0.047532532
20	0x3dcbf03d	0.09957931
21	0x3e0640a8	0.13110602
22	0xbb87af75	-0.004140789
23	0xbcad2712	-0.021136794
24	0x3d4ed721	0.05049813
25	0xbd5cd15f	-0.05391061
26	0xbe03e84a	-0.1288158
27	0x3d8a73f3	0.06760397
28	0x3e299e2b	0.16564243
29	0x3e3a1f4b	0.18176
30	0x3cc5b60b	0.024134656
31	0x3d952fe2	0.072845235
32	0x3c5c5ddb	0.013450111
33	0x3e338b75	0.17533667
34	0x3d1d9753	0.038474392
35	0x3da6596f	0.08122527
36	0xbd88b1e1	-0.06674553
37	0x3d8a4d2e	0.06753002
38	0xbb92f1b5	-0.00448438
39	0xbc520551	-0.01281865
40	0xbc977d8e	-0.018492486
41	0xbcb9945e	-0.022653755
42	0x3da7d84e	0.08195554
43	0x3cdf37b4	0.027248241
44	0x3d1bbf98	0.038024515
45	0xbd4f2db4	-0.050580695
46	0xba03c180	-0.0005026087
47	0x3da5ff13	0.08105292
48	0x3cb9dc1d	0.022687966
49	0x3d9500f6	0.07275574
50	0xbd3ac184	-0.045594707
51	0xbcd16149	-0.025559084
52	0x3db30cd4	0.08742681
53	0x3c8cdb23	0.017194336
54	0x3d79b1a2	0.06096042
55	0x3d66017c	0.05615376
56	0x3d64c947	0.055856016
57	0xbd433eac	-0.04766719
58	0x3e11cc31	0.14238049
59	0x3daf8bd0	0.08571589
60	0xbcbb9977	-0.022900326
61	0xbde6b701	-0.11265374
62	0x3d24f340	0.040271044
63	0xb9e7a6fa	-0.0004418416

network.4.weight f4 [16, 64]
0	0x3d99f692	0.07517733
1	0xbbc1c0e1	-0.0059128855
2	0x3dcf5ec9	0.10125501
3	0x3e1af2b7	0.15131651
4	0xbdaff227	-0.08591109
5	0xbd820460	-0.06348491
6	0x3c4fcb77	0.012682787
7	0x3d853405	0.065040626
8	0x3df3b28c	0.118992895
9	0x3d85389f	0.0650494
10	0xbd2d20d0	-0.04226762
11	0x3b4c797f	0.0031200347
12	0xbd9f2783	-0.07771208
13	0xbbc58ab6	-0.0060284985
14	0x3e0d7099	0.13812484
15	0xbc797a1e	-0.015226869
16	0x3dc0a596	0.09406583
17	0x3cf31363	0.02967233
18	0xbdea2441	-0.11432696
19	0x3da5833c	0.080816716
20	0x3dd281a3	0.102786325
21	0x3c869985	0.016430626
22	0xb9e279a6	-0.00043196714
23	0x3d80ad19	0.06283016
24	0x3e0634e9	0.13106121
25	0x3d9eefb4	0.077605635
26	0x3ce1f3d2	0.027582083
27	0xbc0ec4e3	-0.008713934
28	0xbda7e9ef	-0.08198916
29	0x3de43370	0.111426234
30	0xbe44d5f1	-0.19222237
31	0xbbc89944	-0.0061217863
32	0xbd834288	-0.06409174
33	0xbdeaf7d4	-0.11473051
34	0xbd0ef838	-0.03490469
35	0x3d299e6a	0.04141084
36	0xbb81e2d6	-0.0039638085
37	0xbdc772e7	-0.09738713
38	0xbc17a19e	-0.009254841
39	0xbc533e26	-0.012893235
40	0x3dee6dc2	0.116420284
41	0xbd9ed3d7	-0.07755249
42	0xbdf7f413	-0.121071
43	0xbdac179d	-0.084029414
44	0x3b20837b	0.002449243
45	0x3cbb305c	0.022850208
46	0x3d28f15c	0.041245803
47	0x3de93274	0.11386576
48	0xbb869148	-0.0041066743
49	0xbdc68067	-0.096924596
50	0xbbc58ecf	-0.006028987
51	0xbd44f545	-0.04808547
52	0x3cf9753f	0.030451415
53	0xbd4fd010	-0.050735533
54	0x3d89d67e	0.06730364
55	0xbdb58517	-0.088632755
56	0xbd04b93f	-0.032403227
57	0x3d6e266c	0.05814211
58	0xbacad378	-0.00154744
59	0xbd0aa340	-0.033847094
60	0xbb88de7f	-0.004176914
61	0xbddd0176	-0.10791294
62	0x3cd5f2dc	0.026116781
63	0x3d3230e1	0.043503646
64	0x3d8a0133	0.0673851
65	0xbdbb3674	-0.091412455
66	0x3db4d5ea	0.08829863
67	0xbc944ff7	-0.018104536
68	0xbda81bc1	-0.08208419
69	0xbd6fa022	-0.058502324
70	0x3dc8962f	0.0979427
71	0x3cb72f16	0.02236132
72	0x3d7e61ee	0.06210511
73	0xbce1423a	-0.0274974
74	0xbd8f575f	-0.069990866
75	0x3e303de7	0.17211114
76	0x3bed097f	0.007233798
77	0x3c2de975	0.0106147425
78	0x3c8c0aba	0.017094959
79	0xbd70e49a	-0.05881176
80	0x3d803b92	0.06261362
81	0xbd93c507	-0.07215314
82	0xbcc4d582	-0.02402759
83	0x3d3ee22b	0.04660241
84	0xbc34a1a5	-0.011024867
85	0xbc8928fa	-0.016743172
86	0xb94368f7	-0.00018635752
87	0x3c810c1d	0.015752846
88	0xbcb9f219	-0.022698449
89	0xbd33e692	-0.04392106
90	0xbd9c4588	-0.076304495
91	0xbd12d3f1	-0.035846654
92	0xbdc9794f	-0.09837591
93	0xbcf8e521	-0.030382695
94	0xbd90cbdd	-0.07070134
95	0xbcbe58cc	-0.023235701
96	0xbd0db220	-0.0345937
97	0xbdc22944	-0.09480527
98	0x3dc30b4c	0.09523639
99	0xbcf3241f	-0.02968031
100	0xbc252c00	-0.010081291
101	0xbd36879f	-0.044562932
102	0x3c512eb3	0.012767482
103	0x3de54676	0.1119508
104	0x3c832699	0.016009616
105	0xbdef832b	-0.1169494
106	0x3d9a5bd5	0.07537047
107	0xbd78ff55	-0.06079038
108	0xbce6d4db	-0.02817767
109	0x3ceeee7f	0.029166458
110	0xbd5438e5	-0.05181207
111	0x3d40adbb	0.047040682
112	0x3cb0799e	0.021542367
113	0x3e203521	0.15645267
114	0xbdb9ad44	-0.09066251
115	0x3e017c18	0.12644994
116	0xbc8af0e3	-0.016960567
117	0xbcaf1590	-0.021372586
118	0x3c8277a9	0.015926199
119	0x3c27d2bd	0.010243115
120	0x3dce04ea	0.10059531
121	0xbd8e5b04	-0.069509536
122	0xbce2e873	-0.027698731
123	0xbd5a5700	-0.053305626
124	0xbc399159	-0.0113261575
125	0xbd113b75	-0.035457093
126	0x3afc8906	0.001926691
127	0x3e1ad69c	0.1512093
128	0xbe190220	-0.14942217
129	0x3d2e3f2d	0.042540718
130	0x3e7748eb	0.2414891
131	0x3de3dfaf	0.11126649
132	0xbde9afc9	-0.114104815
133	0x3dd246ec	0.102674335
134	0x3e22fd09	0.15916838
135	0x3dec865d	0.11549065
136	0x3dd99fc4	0.10626176
137	0xbd91aba4	-0.07112816
138	0xbd9de8f2	-0.077104464
139	0x3e0feb28	0.14054549
140	0xbde7c3fa	-0.113166764
141	0xbe1e18c7	-0.1543914
142	0xbdbab2b3	-0.091161154
143	0x3cee3257	0.029076738
144	0x3ebe8bca	0.37216026
145	0xbe130851	-0.14358641
146	0xbf3a0333	-0.7266113
147	0xbe173169	-0.14764942
148	0x3f1c5bc7	0.6107754
149	0xbde8dc31	-0.11370123
150	0xbe6d128a	-0.23151603
151	0xbe0be689	-0.13662161
152	0x3e8fa2e0	0.2805395
153	0x3f230d6e	0.6369237
154	0xbe11d443	-0.14241128
155	0xbe9945ef	-0.29936168
156	0x3e17e482	0.14833263
157	0x3e51e057	0.20495735
158	0xbff5884e	-1.9182222
159	0x3e6e9115	0.23297532
160	0xbe8b0cf7	-0.2715833
161	0x3e2c8213	0.16846494
162	0x3c832518	0.016008899
163	0x3d8d3005	0.068939246
164	0xbd199d89	-0.037503753
165	0xbe8465a5	-0.258588
166	0xbeb04dd1	-0.3443437
167	0xbdd15f0e	-0.10223208
168	0xbdf608f1	-0.12013424
169	0xbe857f3c	-0.26073635
170	0xbe5745fd	-0.21022792
171	0xbedcc27c	-0.4311713
172	0x3dd5d466	0.104409024
173	0x3e1789ae	0.14798614
174	0xbd1783a7	-0.036990788
175	0x3eb12db7	0.3460519
176	0x3e4faec3	0.2028151
177	0x3e42eef4	0.19036466
178	0xbe960950	-0.2930398
179	0xbd05e569	-0.032689486
180	0x3ee4bd19	0.4467552
181	0xbc728482	-0.0148021
182	0x3f60a292	0.8774806
183	0x3e228d45	0.15874203
184	0x3cf47be1	0.029844226
185	0xbc1e16e4	-0.009649012
186	0xbd313b23	-0.043269288
187	0xbded3c36	-0.1158375
188	0xbf00a82e	-0.5025662
189	0xbe4c6e9b	-0.19964068
190	0xbdc73b52	-0.09728111
191	0xbe03c3ba	-0.12867633
192	0xbd6a4ba5	-0.057201046
193	0xbcfae884	-0.03062845
194	0xbe49d9fd	-0.19712062
195	0xbd6bff90	-0.05761677
196	0xbd5ffa99	-0.054682348
197	0x3dc6e769	0.09712107
198	0xbc1463e7	-0.009057022
199	0xbe182b79	-0.14860334
200	0x3b810e2c	0.003938457
201	0xbd20e48a	-0.03928045
202	0x3e12f5ff	0.14351653
203	0xbd9c6d09	-0.07637984
204	0x3dae5da4	0.08513954
205	0x3da445b6	0.08021109
206	0x3ddf3e36	0.10900538
207	0xbcd54c1f	-0.026037274
208	0xbda67fa9	-0.08129818
209	0xbe5466f2	-0.20742396
210	0x3f482738	0.78184843
211	0xbd23b192	-0.039964266
212	0xbe3f02f7	-0.18653475
213	0x3d28fda5	0.04125752
214	0xbe0e3878	-0.13888729
215	0xbdfa91e0	-0.12234855
216	0xbd51879e	-0.051154725
217	0x3d924320	0.07141709
218	0xbe80aa35	-0.25129858
219	0x3ddf214e	0.10895024
220	0x3d386df3	0.04502673
221	0xbe178fb7	-0.14800917
222	0x3d008bb3	0.031383228
223	0x3d82baf1	0.063833125
224	0x3d99d9b4	0.07512227
225	0xbd4b9669	-0.04970399
226	0xbdc6ee93	-0.09713473
227	0x3e672ab6	0.22574887
228	0xbddff9cd	-0.109363176
229	0xbd83edad	-0.064418174
230	0x3cfb5bd2	0.030683432
231	0xbcfa926a	-0.030587394
232	0x3da090c8	0.07840115
233	0xbd531f00	-0.051543236
234	0xbd1bcbad	-0.038036037
235	0x3abb7e70	0.0014304649
236	0x3df38a5d	0.11891625
237	0x3e0cc0ef	0.13745473
238	0x3d4af475	0.04954954
239	0xbcc39b77	-0.023877842
240	0x3e057889	0.13034262
241	0x3da3b4e8	0.079934895
242	0xbc7a9e00	-0.015296459
243	0x3e29c1fb	0.16577904
244	0x3be58216	0.007004033
245	0xbcdbac1f	-0.026815472
246	0xbd8aa1dd	-0.06769154
247	0xbcc62e8f	-0.024192123
248	0xbdf3186d	-0.11869893
249	0x3e114eff	0.14190291
250	0x3deb13ce	0.11478387
251	0xba0ddf1c	-0.0005411969
252	0xbef220f9	-0.4729078
253	0x3e683211	0.22675349
254	0xbdd9053d	-0.10596702
255	0x3c8a41e5	0.016877124

network.4.bias f4 [16]
0	0xbd4aded5	-0.049528915
1	0xbc570189	-0.013122925
2	0xbd36e40f	-0.044651087
3	0x3d81d7cd	0.06339989
4	0x3d4c90b8	0.049942702
5	0x3d45ca30	0.048288524
6	0xbd18d514	-0.037312582
7	0xbd0c98da	-0.034325458
8	0xbd4ff80d	-0.05077367
9	0xbd405aff	-0.04696178
10	0xbdaafc1d	-0.08348868
11	0xbd821f74	-0.063536555
12	0x3dc83033	0.09774818
13	0xbd06f756	-0.03295072
14	0xbd7e8f73	-0.062148523
15	0x3d2bb995	0.04192503
