enhanced_model.pth (torch, 73230 bytes, 6 tensors)

linear1.weight f4 [128, 80]
00000000: 5cde 85bf 38c6 dfbd af01 e0be e92b b9be
00000010: 51c4 183e 52c8 26be e5a6 953e 3841 32be
00000020: c17f de3c f1d9 75bb f881 47bc cc19 febe
00000030: 587b 8e3e 362d 0bbc 02c1 993e da54 e13d
00000040: 45ef b7bf 0834 65bd 3c9e b23d 719b 003f
00000050: b09f c83d 41fd 5fbf 8a4c 2fbd 81a1 09bd
00000060: 79a5 7b3d 1980 edbe bb13 d6bd 981f 1fbe
00000070: d619 a2be 9111 883c c916 febd 5640 823e
00000080: 0700 b4be fdca 633c e62e bb3e 8608 a1be
00000090: 9ba1 1e3e d1dd f3be bbf7 b43e 860e 7cbc
000000a0: 6a77 013f d1a4 babd bf11 f3bd 131b 09bf
000000b0: 9726 2cbe 7f4d 233e 383c 1d3e d476 59be
000000c0: 220c 97bf 01f3 d2bd 2279 283e 5554 03be
000000d0: 0857 b93d 33d8 203f b814 5fbc c199 05be
000000e0: 3215 333e 65b4 86be 454b 7dbd 1ba9 093f
000000f0: 07ad 93bd 377b 6e3d 3e9f 0cbf 563c 92bd
00000100: 8fea b1bf d6b9 53be 1305 cd3e c10f c83d
00000110: 2322 323e a09a 35bf b42a d5be 6a59 1e3b
00000120: 3019 7f3e 9c32 e53e bb3f 78be e91d b1be
00000130: f3c4 78be e4b5 4c3e 3dc5 24be f3fc 24be
00000140: f1fa c0bd ac85 723c 5485 f0bb 8588 babd
00000150: 2d96 823d 84a9 c2bc 22f8 9d3d 290d bf3d
00000160: 619a 56bd 943f b83c 2512 ebbd 3c78 a8bd
00000170: d68b 3cbd 659b 83bd cf46 a4bc b3fe 8fbc
00000180: a80c 42bd 3896 6abd 5514 29bc 476d cd3d
00000190: 16d5 143d 305b 2bbd b401 313b 2efe f5bd
000001a0: 9f2d acbd 0bc5 af3d 5327 b3bd b65c 42bd
000001b0: 079e ab3d 6a16 bd3d 02b7 b83c 7467 0d3b
000001c0: 7eb3 393d 6efb 8b38 ccdf c5bd 79a1 e9bc
000001d0: b9c7 b3bd 5b5b 50bd 0247 123d 1963 ae3c
000001e0: 6280 25bd 3161 b0bd e6bc cd3c ede3 3abc
000001f0: 62cf 80bc eed3 64bd 0c5e 4dbd 7742 573c
00000200: 5283 9cbc fc2a ce3d 7511 f3bd b1e0 763d
00000210: 3424 fa3c 9020 d23c 65a0 4a3d 4734 63bc
00000220: 5f8d 6a3c 2061 d83c d2e8 0d3c 12c1 a8bd
00000230: 8048 5d3b 0011 3ebd 349c 3abb c5a0 043d
00000240: df70 c33d 4931 7b3d 2c6e 19bd f240 953d
00000250: ef57 c93d 8add a1bd d326 643b e5f0 113d
00000260: c0c2 173c c5aa f93b 604b 0fbd e312 253b
00000270: b621 a4bd a390 e7bd 8149 d3bd 017a 513d
00000280: 64c5 d03e dd32 a6bd a8e4 2fbe d690 e0bd
00000290: 895f a83c 19e3 d4be 274e fbbd 038b 65be
000002a0: 7be0 3fbe e542 c5bd d522 643e 4eea a2ba
000002b0: 797c ca3e c367 163c 4805 8e3c a59d ca3d
000002c0: 51a7 003f 5c8a 4fbd 9ec0 8c3d f9ac a0be
000002d0: 638c 3f3e 90d8 45be 4fc9 02be e910 50be
000002e0: ba46 e6ba bb95 a73a dfe2 0d3e 71e3 813d
000002f0: 6ef3 243e 13db a6bd d23c d9bc 3354 a3bd
00000300: 063f cabd b134 ec3d e509 8bba 1a0a 25bf
00000310: 58b0 a7ba 6aa5 f9bd 6a5a 433b f335 0dbe
00000320: c3c4 b23e 8fba 703d 55b3 233e 11bf b63c
00000330: 4bf5 c63e 62e6 153d 021a 00be 0384 57bd
00000340: c175 8cbe 62b3 2cbc ab95 f93d 77a9 b6be
00000350: 73db ea3d 2a44 59bd f6ab 0fbe feeb e5bd
00000360: 4f57 12be c4a6 953d c636 eb3d 1f9e 6abb
00000370: f560 863e 95c4 9a3d 3916 12be a509 ae3d
00000380: 27a2 d63d 77d7 e3bc 6b43 103e a457 98bd
00000390: 0c45 b93d 0595 ffbd e8b2 9f3e 5d85 52be
000003a0: c352 13be 0a55 0e3e 312a 3a3e 5b6b 5dbc
000003b0: 2e17 bd3e d923 42bd 4645 e83d bb9f 2cbe
000003c0: d4e1 cfbf c64f 2bbd 1b14 883e 109c 5fbe
000003d0: edf0 e1bc 5940 603e bfa4 cb3d b958 e9bc
000003e0: 47eb a63e 80c6 293d cc3c 02be 37a0 bb3d
000003f0: 72e7 03bd a561 e53d bfa1 37be 3c91 7bbd
-1.0458484 -0.10926479 -0.43751284 -0.36166313 0.14918639 -0.16287354 0.29228893 -0.17407691
0.027160527 -0.0037513936 -0.012176983 -0.49629056 0.2782848 -0.008494666 0.30030066 0.11002512
-1.4369894 -0.055957824 0.08721587 0.50237185 0.09796083 -0.8749581 -0.042797603 -0.033601288
0.061437104 -0.46386793 -0.10452982 -0.15539396 -0.31660336 0.016609939 -0.1240669 0.2543971
-0.3515627 0.013903377 0.36559218 -0.31451815 0.15491335 -0.4763017 0.35345253 -0.015384322
0.50572836 -0.091134675 -0.11868619 -0.53556937 -0.16811596 0.15947531 0.15355003 -0.21236736
-1.1800578 -0.103002556 0.16452459 -0.12825139 0.09049803 0.62829894 -0.01361578 -0.13046934
0.17488554 -0.26309505 -0.06183936 0.5377366 -0.07210737 0.058222976 -0.54930484 -0.071404144
-1.3899707 -0.2067636 0.40042934 0.0976863 0.17395835 -0.70939064 -0.41634142 0.0024162182
0.24911952 0.44765174 -0.24243061 -0.34593132 -0.2429388 0.19991261 -0.16090865 -0.16112117
-0.09422863 0.014802378 -0.0073401127 -0.0910807 0.063763 -0.023762472 0.07713343 0.09328682
-0.05239332 0.022491254 -0.1147807 -0.08226058 -0.046031795 -0.064261235 -0.020053295 -0.017577505
-0.04737535 -0.057272166 -0.010319789 0.100306086 0.036336027 -0.04183501 0.0027009072 -0.120113716
-0.08407139 0.08582505 -0.08747735 -0.047451697 0.08379751 0.09232791 0.022548202 0.0021576555
0.045337193 6.674869e-05 -0.096618265 -0.028519379 -0.087783284 -0.050868373 0.03571225 0.021287488
-0.04040564 -0.08612288 0.025114488 -0.011406881 -0.015723888 -0.055866174 -0.05013852 0.013138405
-0.019105587 0.10066792 -0.11868564 0.060272876 0.030534841 0.025650293 0.04946937 -0.013867444
0.014315932 0.0264135 0.008661466 -0.0823995 0.0033765137 -0.04640293 -0.0028474452 0.032379884
0.09543013 0.0613263 -0.037458584 0.07287778 0.09831225 -0.07903583 0.003481318 0.035630126
0.009262741 0.0076192343 -0.034983993 0.002518826 -0.08014242 -0.11306884 -0.10316754 0.051141743
0.40775597 -0.0811517 -0.17177069 -0.10965125 0.020553367 -0.41579512 -0.12270766 -0.2241631
-0.18737976 -0.096319 0.22278912 -0.0012429447 0.3954809 0.009180012 0.017336503 0.098933496
0.50255305 -0.05066906 0.06872676 -0.31381968 0.18705897 -0.19320893 -0.12772106 -0.2031895
-0.0017568686 0.0012785712 0.13856076 0.06342209 0.16108486 -0.08147254 -0.02651826 -0.07975044
-0.09875302 0.115334876 -0.0010607807 -0.6446854 -0.0012793643 -0.12189753 0.002980853 -0.13790111
0.34915742 0.058771666 0.15986378 0.022307904 0.3885902 0.036596663 -0.12509921 -0.05261613
-0.2743359 -0.010540815 0.1218675 -0.35676166 0.11467638 -0.053043522 -0.14030442 -0.112266526
-0.14291118 0.07307199 0.114850566 -0.0035799814 0.26245847 0.07557026 -0.1426629 0.08497933
0.10480147 -0.027812703 0.14088218 -0.07438591 0.09046373 -0.12479595 0.31191182 -0.20558687
-0.1438704 0.13899627 0.18180157 -0.013514365 0.36931747 -0.04739747 0.11341338 -0.16857807
-1.6240792 -0.041824125 0.2657784 -0.21836877 -0.027580703 0.21899547 0.09943532 -0.02848469
0.32601377 0.04144907 -0.12718505 0.09161418 -0.032203145 0.11200265 -0.17932795 -0.061417803

linear1.bias f4 [128]
00000000: 1190 c03e 2d5d c93d 2b44 48bd c6d1 85be
00000010: 8574 eb3d c880 583b cae9 2e3e 4033 593d
00000020: 65e1 953d fe0a e33d 136c 2d3e 8917 6e3e
00000030: 8160 54be e2c2 5dbf fd6f e43d 9de3 8dbe
00000040: 9431 673e 59e4 26be 29ed 283e 5038 c13b
00000050: 9003 f53c 3c78 143d b9d5 c03e 607f 5dbc
00000060: b08c a3bd 8081 923d 53d1 a2be 30c6 b2bb
00000070: 1f39 473d 1db2 babd e8a9 a43c c61f 45bf
00000080: 1e2b c1bd f649 f43c 715a 5ebd 25c0 1d3d
00000090: 9880 483c 4cd1 a03e a28c cf3d 4cb3 563d
000000a0: 5de4 cd3d bbc3 bbbd 66e3 51bd 9a17 9d3d
000000b0: e978 4fbe 6185 e0bd a183 b1be 01b8 b6bd
000000c0: b798 e5be 9590 b5bc f801 9a3d 06f1 6dbe
000000d0: 0a09 ad3d 8a01 273f 0bf5 bdbe 081c 90bb
000000e0: f60e 00bd 0623 733e b031 463d 805c 9c3b
000000f0: 261c 23bd 24f3 23bd 6a9e 893d 84ce a63e
00000100: c44c a2bd 8dee 363e 22b5 363d 5533 2ebe
00000110: 399d ce3e 4b3d e4bb f15a 1fbd 910d a23e
00000120: 6092 dc3c 1387 0a3f f65b 4fbd 8885 e9be
00000130: 3aa1 a7bd a9a2 0e3e 08cd 223e 2f22 d7be
00000140: 6a6c c63e 0e50 ecbe 7d73 15bd cf22 b2bd
00000150: 2364 d03d d60f 18be d693 01bd 61f0 6cbe
00000160: 4223 78bc 04ee 09bb 390a 0d3d b0e1 643c
00000170: 8b0f d7bd 3096 e9bb 8777 a43e afea 953e
00000180: 24a1 a63c c6d8 9d3e 92ff a33d 0011 8cbc
00000190: ac8c 79bd c0b3 093e 62e8 a43d 48ca 593d
000001a0: 3d0f e43e 959f debd a28f 073d ba40 e5bc
000001b0: 0df6 9b3c 7099 e13d a451 033d 7961 a63d
000001c0: cb27 4b3d ed6e a13e 906a d43c 2423 6dbe
000001d0: e6c4 19bf a0a9 213d 75bf 75bd e803 2e3f
000001e0: c938 77be 1dfa c43d b9fa a03e af32 debd
000001f0: efe0 8fbd f0e3 7e3e 0670 babd 3d86 093f
0.37609914 0.09832225 -0.048893135 -0.26136607 0.11496834 0.0033035744 0.17081371 0.05302739
0.07318381 0.11086081 0.16935758 0.23251165 -0.20739938 -0.8662549 0.111541726 -0.27712718
0.22577506 -0.16298045 0.1649672 0.0058966056 0.029908925 0.036247477 0.37663057 -0.013519138
-0.079858184 0.071536064 -0.31800327 -0.0054557547 0.04863846 -0.09116004 0.020100549 -0.7700161
-0.09432052 0.029820424 -0.05428547 0.03851332 0.01223769 0.3140968 0.101342455 0.052417085
0.100533225 -0.09168192 -0.051242255 0.07670517 -0.20260967 -0.1096294 -0.34670737 -0.08921815
-0.44843075 -0.022163669 0.07519907 -0.23236474 0.0844899 0.65236723 -0.37101015 -0.004397873
-0.031264268 0.23743829 0.04838723 0.004771769 -0.039821766 -0.0400268 0.06719668 0.32579434
-0.07924798 0.17864437 0.044606335 -0.17011769 0.40354326 -0.0069653145 -0.038905088 0.31650975
0.026925266 0.54112357 -0.05062481 -0.4560969 -0.081850484 0.13929237 0.15898526 -0.42018268
0.38754588 -0.46154827 -0.03648709 -0.086980455 0.101753496 -0.14849791 -0.031635128 -0.23138572
-0.015145125 -0.002104641 0.034433577 0.013969824 -0.105010115 -0.0071284994 0.32122442 0.29280612
0.02034051 0.30829448 0.080077305 -0.01709795 -0.06092517 0.13447475 0.08052136 0.053171426
0.44542876 -0.108702816 0.033095963 -0.027984966 0.019038225 0.11015594 0.03206028 0.0812406
0.049598496 0.31529942 0.02592972 -0.23157936 -0.6006607 0.039468408 -0.05999704 0.6797471
-0.24142756 0.09618018 0.31441286 -0.10849511 -0.070253246 0.24891639 -0.09103398 0.53720456

linear2.weight f4 [50, 128]
00000000: 5dca 15bf 83e5 983d 87a2 383e 631e 2a3d
00000010: fdb0 91bd 20f9 de3d 7ca5 ad3c 54dc da3c
00000020: 4eac c2bb 34bb a13d 171e 2e3e 4cbb c43d
00000030: f184 19be 7094 30be 8cfb e13c 8686 8d3e
00000040: ac2d aebc 0a98 c7bc 408d 973d 5c43 96bd
00000050: 6a99 293d 0ee6 78bd e765 89bd 00af a73c
00000060: 418f 7dbd d6c9 82bd 33b9 a33d 742a ca3c
00000070: ccf7 c738 a043 713b 4b60 613d 7b68 b03d
00000080: e028 72bb c7f9 cfba 227e 11bd 7740 64bd
00000090: 9657 4b3d aaf7 a33b 4729 b1bd 7c45 9f3c
000000a0: 18fa 37bd d534 15bd f6e0 313d 8c26 fe3c
000000b0: 8b1d c43d d65c 0d3a c15e 9ebe 548d 653d
000000c0: b685 1a3e 9874 11bd d8b5 3fbc 816a 45be
000000d0: 9a7f 91bd e315 05be 0ac6 933d 7c94 b4be
000000e0: 98b7 3dbe 008b 943e f266 1ebc 6180 9f3d
000000f0: 2536 303e 4785 a9bd e835 59bc 27b3 a9bd
00000100: 5133 9a3d 1ca4 113e 8dad b23d f2e2 063e
00000110: 2ec3 cabd 0229 3a3d b2e7 c33d c899 ce3d
00000120: 1968 a33d 53c6 2c3d 647d 393e cfb9 64bd
00000130: d105 63be 3a33 3d3e 3492 03be c768 1dbe
00000140: 75c8 3f3e a6a0 463d fa64 0abe 7b7f 573d
00000150: ffb5 183d 1b8b 18bd dc64 3bbe 622b 00be
00000160: 81d1 873e 3666 b3be 435a 9d3d c153 a9bd
00000170: e80c 61bd ffc3 b43d e9b3 57bc 04e9 b23d
00000180: d192 b0bc 945b 01be 885e c0bd 0493 36bd
00000190: e0a0 35bb 1b19 e83d 2b74 013e 467e 83bd
000001a0: c3f9 d6bd 596d 88bd af9e cbbc 9f7f 1ebd
000001b0: bd0c 92bd dc8e f4bc 7813 ab3d 7c42 293e
000001c0: 489d 5bbc 8377 b0bb f602 6cbd 27b1 323d
000001d0: 7559 9f3c f7df 863d a829 92bd be49 fcbd
000001e0: 88a7 ec3d 9f71 2f3e ed1c 06be 90a7 593c
000001f0: cca3 3cbc 4adb 813d e63a 26bd ace9 803e
00000200: c9c6 44bd 524f 403d 2259 2d3d 4053 9f3a
00000210: 18c5 b2bc 3cf6 183d 5ed7 20bd efd2 833d
00000220: 913b aabd 688f 06bc e056 1ebd eeba 6abd
00000230: 212d bb3c bcf3 96bd 03d9 5b3d 6548 19bd
00000240: 0462 a93c 5861 1fbc 5ded 4bb9 422f 2e3d
00000250: 59e5 843d 98ce 1d3c 50f6 1cbc 812f 12bd
00000260: e736 6ebd 109c d1bc 3410 ca3c 7b0d 28bd
00000270: bb64 933d cc84 9fbd b2aa 5c3d 00a3 f6b9
00000280: 7fae a3bd 18c0 79bd 0754 7ebd 3c19 8abd
00000290: 144f aabd af44 b7bc 6088 10bb 1072 f8bc
000002a0: cf30 953d 48c7 4a3c 84ff a9bd 4b1f 83bd
000002b0: 4c70 a5bc e8ab 023c 4c8a 4e3c 7e4e 1dbd
000002c0: 61a0 a23d 80c0 8b3a 0314 45bd 4b6e 36bc
000002d0: 85c1 aa3d e1a3 c1bd 21b9 b1bd d6bc 63bd
000002e0: 80dd 75bd 6cab af3c 2817 efbc f459 97bc
000002f0: b4a6 a9bd f047 4cbd 2662 163d 3ed0 84bc
00000300: a743 06bd 2fe9 a3bc 59ea 8f3d 5ed6 c1bd
00000310: 642f 5cbd a024 9bbc 17a5 6a3d 9f9f 9cbd
00000320: 5fb7 a83d 78da ce3c 3c84 103d 70b7 5abd
00000330: 683c 143d 5dc3 a5bd bf1f 6bbd 868d f4bb
00000340: 5bd9 6ebd a2c3 98bd 8aa6 533c 8013 0b3b
00000350: 486c b1bd 62d8 523d 9bff 95bd f529 853c
00000360: c80d d13c 5b71 283d 6d56 adbd 487e 093c
00000370: df36 b03d b413 a63c d00b 283c 815a 923d
00000380: 48f9 97bd 00b7 bd3a 900e b33b 9ace 7c3d
00000390: 372f b03d 18fd ebbc e683 cfbd c5c7 853d
000003a0: 4a59 13bd c562 0cbd 98b6 05bc da7e 5e3b
000003b0: 0048 08bb 381c acbd a2e6 403d fdf3 ca3c
000003c0: a4c9 b2bd fe90 76bd 969c eabc 8f90 2fbd
000003d0: 06e5 a9bd d030 26bd fb61 33bd a836 3c3d
000003e0: 0643 243d a11e 44bd e580 5cbd f005 47bd
000003f0: b47d 123d 141a 17bd 2044 f2bb 9d50 8d3d
-0.58511907 0.07465651 0.1803075 0.041532885 -0.07113836 0.108873606 0.021197073 0.026716389
-0.0059409505 0.07897034 0.17003666 0.096060365 -0.1499212 -0.17244124 0.027585767 0.27641696
-0.021262012 -0.02436449 0.07399988 -0.073370665 0.041406073 -0.060766272 -0.067088895 0.020469189
-0.061904196 -0.063861534 0.07994308 0.024678446 9.535215e-05 0.003681399 0.055023473 0.08613678
-0.0036950633 -0.0015867286 -0.03552068 -0.05572554 0.049644075 0.005003889 -0.08650451 0.019442312
-0.044916242 -0.036427338 0.04342743 0.03102424 0.095759474 0.0005392557 -0.30931666 0.056042984
0.15090069 -0.035511583 -0.01170107 -0.1927891 -0.07104416 -0.1299663 0.07215507 -0.35269535
-0.18527067 0.290123 -0.009668099 0.07788158 0.17208154 -0.08277374 -0.013257481 -0.08286124
0.07529319 0.14222759 0.087245084 0.1317251 -0.09900509 0.045449264 0.09565677 0.10087925
0.079788394 0.042181324 0.18114239 -0.055841263 -0.22170188 0.18476573 -0.12848741 -0.15372
0.18728812 0.04849305 -0.13515082 0.05261181 0.03728294 -0.037242036 -0.18300194 -0.12516549
0.26527026 -0.35038918 0.07683232 -0.08267928 -0.05494395 0.08826446 -0.0131654525 0.087358505
-0.021554383 -0.1263259 -0.093930304 -0.0445738 -0.0027714297 0.113329135 0.12641971 -0.06420569
-0.10496857 -0.066614814 -0.02485594 -0.038695928 -0.07131336 -0.029853277 0.08353323 0.16529268
-0.013404198 -0.0053853407 -0.05762001 0.043625977 0.019451836 0.06585687 -0.071368515 -0.12318753
0.115553916 0.17133187 -0.13096972 0.013284579 -0.011513662 0.06340654 -0.040583514 0.25178277
-0.04804114 0.046950646 0.04232133 0.0012155548 -0.021822497 0.037344202 -0.03926789 0.06436717
-0.08312143 -0.008212902 -0.03865707 -0.057307176 0.022848668 -0.073707074 0.053673755 -0.037422556
0.02067662 -0.009727798 -0.00019448013 0.042525537 0.06489057 0.009631775 -0.00958021 -0.035689835
-0.058157828 -0.025587112 0.02466593 -0.04102848 0.07196947 -0.07789001 0.053873725 -0.0004704222
-0.07992267 -0.06097421 -0.062091853 -0.06743094 -0.08315864 -0.022371618 -0.0022053942 -0.030327827
0.072847 0.012376614 -0.08300689 -0.06402453 -0.020195149 0.007975556 0.012606215 -0.038404934
0.07940746 0.0010662228 -0.048114788 -0.011134694 0.08337692 -0.094550855 -0.08677889 -0.05560001
-0.060025692 0.021444045 -0.029185846 -0.01847551 -0.08283749 -0.049873292 0.036714695 -0.016212579
-0.032779362 -0.020008652 0.0702712 -0.094647154 -0.053756133 -0.018938363 0.05728635 -0.07647633
0.082381 0.025250658 0.03528236 -0.053397596 0.03619042 -0.08093903 -0.057403322 -0.00746316
-0.058312755 -0.07459189 0.012918124 0.002122134 -0.08663231 0.05147589 -0.073241435 0.016255358
0.025519267 0.04112373 -0.0846375 0.008391924 0.08604216 0.020273067 0.010256723 0.071461685
-0.074205935 0.0014474094 0.0054643825 0.061720468 0.086027555 -0.028807208 -0.101325795 0.06532244
-0.035973825 -0.03427388 -0.0081612095 0.003395012 -0.0020794868 -0.0840382 0.04709495 0.024774546
-0.08729866 -0.06019687 -0.02863912 -0.04286247 -0.08295636 -0.040573895 -0.043794613 0.04595056
0.04010298 -0.047880773 -0.05383386 -0.048589647 0.03576441 -0.036890104 -0.007393375 0.069001414

linear2.bias f4 [50]
00000000: 7dbf fa3e 4f95 2fbd 3c80 84bb 4a19 7f3e
00000010: 2315 123e 9112 1fbd b62d 9dbd 577d 3c3d
00000020: d2ca d63c ca3d 59bd 652f afbd e4f8 a93e
00000030: ab82 393e 763b 393d 96dd e23e bc44 853e
00000040: 0764 d53c 0c05 e9bc cf86 d33e 9276 2cbd
00000050: 12e8 92bb 742b 56be 8c2f 413e 65e0 b4bc
00000060: 2360 203f b86a 093d 6b6c 4abd a90e 88bd
00000070: 329d 99bd 03ac 313e c03f a5ba 591c ed3b
00000080: a0ad 3e3f ac93 3d3d 19ce 04bf 1bb4 b2bd
00000090: bdc7 41be a5bc 68bd afa6 913b 7c9d 293e
000000a0: 26e8 2fbd bbba e4bd 0178 e2bd 46e3 073e
000000b0: 99f5 4f3d 7844 26bd d145 8abe 5d7b 373e
000000c0: 8cef 6abe cc24 5e3d
0.4897422 -0.042867 -0.004043607 0.24911991 0.14265876 -0.038836066 -0.07674734 0.04601797
0.02621976 -0.053037442 -0.08553962 0.331977 0.18116252 0.045222722 0.44309682 0.26029003
0.026048673 -0.02844479 0.41313788 -0.042105265 -0.0044832313 -0.20915014 0.18865794 -0.022079656
0.62646693 0.03354904 -0.0494198 -0.06643421 -0.07500686 0.17350774 -0.00126075 0.0072360453
0.7448368 0.04628341 -0.5187698 -0.08725759 -0.1892385 -0.05682053 0.004444919 0.16563982
-0.042946003 -0.111684285 -0.11058045 0.13270292 0.05077133 -0.04059264 -0.2700639 0.17918153
-0.22942942 0.05423431

linear3.weight f4 [16, 50]
00000000: 4778 bb3b 4204 20be bc7a a8bb b345 75bd
00000010: 1fa7 abbd 3460 be3d 4ba3 d33d 967e a4bc
00000020: 81f6 c03d 9962 ef3b c3a4 42bd 2d7d d83c
00000030: 640b 95bd b4c4 073d 4156 7b3d 0a6c a23d
00000040: b697 f23d 74c2 33bd 0356 9e3a 0b58 f7bb
00000050: 3390 203c 4d86 593c d1fd 2a3b 9631 aa3d
00000060: fe3a b33c c5dc 89bc cf5d edbd b38a 05be
00000070: cb87 56bd 3243 28bd 6afe d93d beb6 a13d
00000080: 4602 013d 0861 763d 8eab ccbb 4784 c8bd
00000090: 6b27 473d 05ee cbbd aa26 c73c 4259 49bd
000000a0: 21b7 313d ae4d 12be 5381 1e3d 6535 3cbc
000000b0: ba33 8bbc d8c9 ecbd 27e3 243c 5544 433d
000000c0: a85a 13bb fdf2 8d3d 6b6c c4bc 3997 dcbd
000000d0: fe97 2fbc 1b37 183e 7ec1 0d3e 9e2e f7bd
000000e0: 55c6 7c3d 1491 dbbd 113e 23bd 02fd 0b3d
000000f0: 4327 35bd 1feb c5bd 96ef 663d 2b7b d03c
00000100: 0e03 1d3d 9781 7c3d 12c2 7abc 45fd 15bd
00000110: a4f6 59bc b21c 61bd a245 7c3c 0fb0 a0bd
00000120: e8aa 58be 04b0 2c3d 6e68 af3d 9f6d 0b3e
00000130: 420b dfbc 4f53 0a3d 89a0 92bc eec8 203e
00000140: decc 853d 39ff 1ebe a5e1 363d dfeb 9c3d
00000150: 9459 223d 4b9d 0c3e 6058 413d 4035 c33d
00000160: 70d4 9cbb 06f8 a2bc ba1d 3cbb c478 ff3d
00000170: a3b7 c13d 5bb0 2b3c 195a 4e3c a08a 4a3d
00000180: a4a9 d53b 3b8d e33d a016 06bc 19e2 893d
00000190: c789 1c3e a6b5 b7bc ef41 2fbb 0eca 32bd
000001a0: bc62 f5bc dd9a 09be 1a8f 7cbd bbf6 2a3c
000001b0: d47e c43d 8b30 b93d db58 ac3d 1319 8c3d
000001c0: f546 81bc d621 423c 0b27 1b3c c961 1c3e
000001d0: dcc2 1bbe 9adf 0cbd 8107 4abc be27 efbb
000001e0: 2774 b9bd d8cd d1bc 8c2b 74bb 48d4 fe3d
000001f0: 958e cc3d 3306 06bd 5c89 f2bd d2df 8e3a
00000200: 2e81 93bd ad22 073d 1ac6 fa3d e43c 98bd
00000210: d7e2 b93d fd2a 42bd 36fa 7fbd 78f1 983d
00000220: 5306 5dbd fa65 b8bd 56bc 5a3d 6935 f9bc
00000230: 5646 efbc bec3 613d e9cd babb 9ec2 61bd
00000240: cba9 e8bd b8fc 2ebd 83db d0bc 119c 5d3d
00000250: aa60 43bc 6af4 133d 6555 b0bc 92b6 d03d
00000260: eb15 ebbc 7067 a2bd 0c9a 233e ba93 9e3d
00000270: 7495 e8bd d856 06be 198f 123e 402c babc
00000280: 1950 3b3c 2696 a0bd ed8e ffbd 36d7 483d
00000290: 730c 78bd b939 e83c 1922 9fbd cb73 47bd
000002a0: f16a 24be 34ae 61bc 15a4 bebd ac68 a23d
000002b0: cd61 e4bc 3526 aa3d 14a9 b7bd 244f a53b
000002c0: 857c 413d 4457 91bd c0a4 f7bc fb94 47bd
000002d0: b831 4abd c080 483d 365d 693c 67bd 223e
000002e0: fdb0 95bd 9163 00be b8fe 063e a68c 013e
000002f0: 7d0e aebc 60e7 31bd 584f b6b8 7225 563d
00000300: 50e2 3cbe 867f c6bb e9d1 563d a63e b03d
00000310: c2f1 c8bb f5e3 033e e22c 1d3e 811c 193e
00000320: 766c 473d 8abf b13d 8db9 e73b 44da b23d
00000330: 8a66 633d 9862 d6bc 0d4f a03d 5f54 0bbd
00000340: fb66 febd 5e86 353d 7580 633d c2e7 8c3b
00000350: 7c9d 203e c724 e0bd 28a9 343e 5a28 bb3d
00000360: 2b22 96bd 69f6 a1bd 57c8 2dbd 3b93 933d
00000370: 5c55 ba3d c9a7 55bd 9298 f43d 9615 49bd
00000380: 4bb6 db3c 13bd 553e ed0c 4dbd 98e3 35bd
00000390: 6965 da3d b08a 1b3e a0b1 fdbb 2049 ea3d
000003a0: aeb9 9a3d 154b d83d 3194 4dbd 4437 71bd
000003b0: d8a2 d9bc 447f 3e3d 47f5 e83b 3e66 d03d
000003c0: 7aee ab3c ee67 c23c 4543 a9bd 5cbf 043e
000003d0: fe87 0a3e 7480 673d 3e3d 88bd 8dca fb3d
000003e0: 8137 a03d c372 f3bc 37ea b0bd 06d3 17bd
000003f0: 3a4b f4ba d907 8f3d 7690 cdba e330 023e
0.0057211253 -0.15626624 -0.005141584 -0.059880923 -0.08381485 0.09295693 0.1033388 -0.020079892
0.09422017 0.007305455 -0.04752041 0.026426876 -0.07277563 0.033146575 0.061361555 0.07930763
0.11845343 -0.043886617 0.0012080077 -0.0075483373 0.009800005 0.013276649 0.0026091228 0.08310239
0.021878716 -0.016828904 -0.11590158 -0.13041191 -0.052375596 -0.041079707 0.10644229 0.078961834
0.03149631 0.06015113 -0.006246037 -0.09790855 0.048621576 -0.09957508 0.024310429 -0.04915739
0.043387536 -0.14287445 0.038697552 -0.01148734 -0.016992439 -0.11561936 0.010063923 0.04767259
-0.0022484455 0.06931112 -0.023977479 -0.10771031 -0.01071739 0.14864771 0.13843343 -0.120694384
0.06171258 -0.10721031 -0.039854113 0.034176834 -0.044226896 -0.096639864 0.05638083 0.025449356
0.03833299 0.061647024 -0.015305059 -0.03661849 -0.013303433 -0.054959007 0.015397461 -0.078460805
-0.21158946 0.04216005 0.0856484 0.13616036 -0.027227048 0.033770856 -0.017898815 0.15701649
0.06533216 -0.15527047 0.044648785 0.07662176 0.03963621 0.13731878 0.04720342 0.09531641
-0.0047860667 -0.019893657 -0.0028704242 0.12474206 0.09458854 0.010479058 0.012594723 0.04944861
0.006520467 0.11110922 -0.008184105 0.06732578 0.15286933 -0.022425484 -0.002674218 -0.043649726
-0.029954307 -0.13437982 -0.06165991 0.010434802 0.09594503 0.09042462 0.08415385 0.0684072
-0.015780905 0.011848887 0.009469758 0.15271677 -0.15211052 -0.03439293 -0.012330891 -0.007298439
-0.090553574 -0.02561085 -0.0037257401 0.12442833 0.09988133 -0.032720756 -0.118426055 0.0010900444
-0.072023734 0.032992054 0.12244816 -0.07433489 0.090764694 -0.047404278 -0.06249448 0.074679315
-0.05396111 -0.090038255 0.053402267 -0.030420976 -0.029208343 0.055118315 -0.005700816 -0.055117242
-0.113605104 -0.04272148 -0.025495296 0.054103915 -0.011924902 0.036121763 -0.021525094 0.101910725
-0.028696975 -0.079298854 0.15976733 0.0774302 -0.11356631 -0.13119066 0.143124 -0.022726178
0.011432671 -0.078411385 -0.12478433 0.049033366 -0.060558748 0.028347837 -0.077701755 -0.048694413
-0.1605642 -0.013774443 -0.0930864 0.07930121 -0.027878666 0.08308069 -0.08967796 0.0050448347
0.04723789 -0.07096723 -0.030229926 -0.048726063 -0.04936382 0.04895091 0.014243415 0.15892564
-0.073091485 -0.12537982 0.13183105 0.1265131 -0.021247143 -0.043433547 -8.693215e-05 0.052281804
-0.18445706 -0.0060576824 0.05244628 0.08605699 -0.0061323354 0.12879927 0.15349153 0.1495228
0.04868742 0.08679111 0.00707168 0.08733037 0.05551771 -0.02617006 0.07827578 -0.03401601
-0.12421986 0.044317596 0.055542428 0.0043000886 0.15685076 -0.10944515 0.17642653 0.09138556
-0.07330736 -0.07908327 -0.042427387 0.07205816 0.09098312 -0.052161966 0.11943163 -0.04909285
0.026820322 0.20872907 -0.050061155 -0.044406503 0.10663874 0.15189624 -0.007742122 0.11439729
0.07554947 0.10561196 -0.050190154 -0.058890596 -0.026566908 0.04650809 0.0071093175 0.10175751
0.020987738 0.023731198 -0.08264784 0.12963623 0.1352844 0.056518987 -0.06652306 0.12294493
0.078230865 -0.029717809 -0.08638423 -0.037066482 -0.0018638142 0.06983919 -0.0015683312 0.12713961

linear3.bias f4 [16]
00000000: 80e8 3b3f 302b 763d 74ec ba3f 2772 87be
00000010: efdd 383f 9226 ff3d 1f2c 17bd 5435 ad3e
00000020: b426 b93e f638 b83d 1870 9b3d 3568 ffbe
00000030: b429 d83e 0e96 823d 35c8 363f f8c2 0b3e
0.7340164 0.06009978 1.460341 -0.2645428 0.72213644 0.124585286 -0.03690731 0.3382975
0.3616234 0.089952394 0.075897396 -0.4988419 0.42219317 0.06376277 0.7139924 0.13648593
