enhanced_model.pth (torch, 51912 bytes, 4 tensors)

network.0.weight f4 [128, 80]
0	0x3d8a0cef	0.06740748
1	0xba3977cd	-0.00070750416
2	0xbd20e1c2	-0.0392778
3	0xbda0f026	-0.07858305
4	0xbd1658b2	-0.03670568
5	0x3d7a682c	0.061134502
6	0x3c0a551d	0.008443144
7	0x3dc40962	0.09572102
8	0xbda61f45	-0.08111433
9	0xbceb7a8e	-0.028744962
10	0x3dccafe0	0.09994483
11	0x3beb46e4	0.0071800817
12	0xbd54ab14	-0.051920965
13	0xbd49d652	-0.049276657
14	0xbcdd5606	-0.027018558
15	0xbd71454c	-0.058903977
16	0x3d0d153f	0.03444409
17	0xbd59ea7b	-0.053202134
18	0xbce451e7	-0.027871085
19	0x3dd8a8af	0.10579049
20	0xbdd1fade	-0.10252927
21	0x3dbd04c9	0.09229428
22	0x3d1bdacb	0.038050454
23	0xbdbff80d	-0.09373484
24	0xbe0ef7d9	-0.13961734
25	0x3e0c4768	0.13699114
26	0xbd10fd2a	-0.035397686
27	0xbdc19ea2	-0.09454085
28	0xbe9b9b4b	-0.30391917
29	0x3d9b42fa	0.07581134
30	0x3d2c0562	0.04199732
31	0xbdb6b850	-0.089218736
32	0x3c7a4c3a	0.015276963
33	0x3dc35d79	0.09539313
34	0x3da48320	0.080328226
35	0xbdbe6437	-0.09296458
36	0x3d78f3e6	0.060779475
37	0x3d42c7fe	0.04755401
38	0xbd373e39	-0.044737075
39	0xbddc9c27	-0.10771971
40	0xbd945651	-0.07243026
41	0x3dbb5e1a	0.09148808
42	0x3d31741d	0.043323625
43	0x3d3dbc54	0.04632218
44	0xbd785482	-0.060627468
45	0xbd23f4f0	-0.040028512
46	0xbd5eb3cd	-0.05437069
47	0xbc74455a	-0.014909113
48	0xbe849312	-0.25893456
49	0xbd90ef8c	-0.0707694
50	0xbd07c742	-0.03314901
51	0x3c40c29d	0.011765149
52	0x3cd77af8	0.026303753
53	0x3d534e42	0.051588304
54	0x3d172f0e	0.03691011
55	0x3cafb059	0.021446394
56	0x3d1c625d	0.038179744
57	0x3d9df123	0.07712009
58	0x3c90fb93	0.017698085
59	0xbd6e679b	-0.058204275
60	0xbe239997	-0.15976559
61	0xbd62c4b3	-0.05536337
62	0x3cff955f	0.031199155
63	0x3dd6e254	0.104923874
64	0xbec0a313	-0.37624416
65	0x3dfd5279	0.12369246
66	0xbcdee448	-0.027208462
67	0x3d6edbfe	0.05831527
68	0x3cd6a459	0.026201414
69	0x3b881aa4	0.0041535664
70	0x3c9014c7	0.017588032
71	0xbdcc998e	-0.09990226
72	0x3e82bc5e	0.25534338
73	0x3de0812e	0.10962139
74	0xbd9229a9	-0.07136852
75	0xbd2ab5a7	-0.041677143
76	0xbd2cf2c4	-0.042223707
77	0x3de24637	0.11048549
78	0x3e39e853	0.18155031
79	0x3d95d496	0.07315938
80	0x3da1e5ff	0.079051964
81	0xbdb5fd1d	-0.08886168
82	0x3d92b54f	0.07163488
83	0xbdf8d941	-0.12150813
84	0x3d18e9d8	0.037332386
85	0xbd4cc270	-0.049990118
86	0xbd0ee0e3	-0.034882437
87	0x3daf3748	0.08555466
88	0xbd5352cb	-0.05159263
89	0x3bb245e7	0.005440462
90	0xbd86fb72	-0.06590928
91	0xbcdbd4af	-0.026834814
92	0x3cbef8f5	0.023312071
93	0xbd74d97a	-0.059777714
94	0x3d0c0891	0.034187857
95	0x3da90bed	0.08254228
96	0x3c04ff13	0.008117455
97	0xbdafa25d	-0.0857589
98	0x3ce9133a	0.02845155
99	0x3a6400bb	0.00086976186
100	0xbcfc0ab9	-0.030766832
101	0xbcc72017	-0.024307294
102	0xbdab4e9f	-0.08364605
103	0xbd19c884	-0.037544742
104	0x3d6e6c29	0.05820862
105	0xbcd493a9	-0.025949316
106	0xbb887d25	-0.004165309
107	0x3d99ed02	0.07515909
108	0xbd67f1d9	-0.05662713
109	0xbd810ddb	-0.06301471
110	0xbd9119d7	-0.07085007
111	0x3dc6f372	0.09714402
112	0x3d933232	0.07187308
113	0x3d1051e7	0.03523436
114	0xbd43f593	-0.04784162
115	0x3d01651b	0.031590562
116	0xbe0c160a	-0.13680282
117	0xbdd51d60	-0.104059935
118	0xbe077312	-0.1322749
119	0xbdccc348	-0.099981844
120	0x3d93137a	0.07181449
121	0xbda15167	-0.078768544
122	0x3d8b8da3	0.068141244
123	0xbdd06015	-0.10174576
124	0x3e5eab41	0.21745016
125	0x3df6ca23	0.12050273
126	0x39017f80	0.00012349896
127	0xbc86226d	-0.016373837
128	0xbd3e1f4f	-0.046416577
129	0x3d780641	0.06055284
130	0x3d11ce11	0.03559691
131	0xbe27be9c	-0.16381305
132	0xbd6bbcf3	-0.057553243
133	0x3dc139b9	0.09434838
134	0xbdd1bc4b	-0.10240992
135	0xbd5daf00	-0.05412197
136	0xbdb1c689	-0.08680446
137	0xbe0540d3	-0.1301301
138	0xbcc1b578	-0.023646101
139	0xbd83cbc1	-0.06435347
140	0x3d38745a	0.045032836
141	0xbd0a4620	-0.033758283
142	0x3d9ab31f	0.07553696
143	0x3d3979cf	0.04528218
144	0xbe003d9f	-0.12523507
145	0x3bd349bd	0.0064479993
146	0x3dca0e45	0.09866003
147	0xbd9b975c	-0.07597229
148	0x3caa8a98	0.02081804
149	0xbd632455	-0.05545457
150	0xbca95555	-0.020670572
151	0x3d0caa6a	0.034342207
152	0xbcf3b41d	-0.02974897
153	0xbd358c93	-0.044323515
154	0x3ddcf041	0.10788012
155	0xbdce6265	-0.10077361
156	0x3a4e7ca8	0.00078768516
157	0x3d57a4d3	0.052647423
158	0x3dd1dd81	0.10247327
159	0x3dc45cb8	0.09587997
160	0xbe2714de	-0.16316554
161	0x3d63237b	0.05545376
162	0xbda8a716	-0.08234994
163	0x3c965ddc	0.018355303
164	0xbdbb3316	-0.09140603
165	0xbcf497be	-0.029857513
166	0x3cf33859	0.029689955
167	0xbd0028e4	-0.031288996
168	0x3da29704	0.0793896
169	0x3e13d944	0.14438349
170	0x3ddfdbed	0.109306194
171	0x3cfc5f5d	0.030807192
172	0x3e3b4be7	0.18290673
173	0x3dcbb9df	0.099475615
174	0xbd794ce9	-0.060864363
175	0x3ddb3c8b	0.10704907
176	0xbe10df1c	-0.1414761
177	0x3db244ce	0.0870453
178	0x3d8b057b	0.06788155
179	0xbd6e7ba9	-0.0582234
180	0x3d9adfca	0.075622156
181	0x3d997a8c	0.07494077
182	0x3c7c59d7	0.015402279
183	0xbba8cda4	-0.0051514674
184	0xbd919df8	-0.07110208
185	0x3d9352ae	0.07193504
186	0xbdd343d6	-0.10315673
187	0x3db198bc	0.0867171
188	0xbe0b9197	-0.13629757
189	0x3db75852	0.08952393
190	0x3e037f36	0.12841496
191	0xbd982cf7	-0.07430451
192	0xbd9a0999	-0.07521362
193	0x3be64e4e	0.0070283776
194	0x3cf8e961	0.030384721
195	0x3da7868c	0.0817996
196	0xbdcb0b24	-0.09914234
197	0x3d8c32ae	0.06845604
198	0x3d84688a	0.06465252
199	0xbdb47351	-0.08811057
200	0x3dcbf1a3	0.09958198
201	0xbc51e9f7	-0.012812129
202	0xbd43b076	-0.04777571
203	0x3db9a9ab	0.09065565
204	0xbbf9f05c	-0.00762753
205	0x3cba315a	0.02272861
206	0x3d778558	0.0604299
207	0x3db7aa24	0.089679986
208	0xbe7aa9ce	-0.24478838
209	0xbdbb156d	-0.09134946
210	0x3d818308	0.0632382
211	0xbd0d6496	-0.034519754
212	0xbdb430eb	-0.08798393
213	0xbc11fa6c	-0.008909803
214	0x3ca13abe	0.01968133
215	0xbd3403cf	-0.043948945
216	0xbd9d910d	-0.07693682
217	0xbc6d28e2	-0.014475079
218	0x3de09dbc	0.109675854
219	0xbcf9a22e	-0.030472841
220	0xbca0dfae	-0.019637909
221	0x3a8851f8	0.0010400405
222	0xbbd18ca6	-0.0063949404
223	0xbdcf7c34	-0.10131112
224	0xbe19d920	-0.15024233
225	0x3dc9ce33	0.098537825
226	0x3de63fdf	0.11242651
227	0x3df8d7a7	0.121505074
228	0x3b1c7ec9	0.002387928
229	0x3bc132a8	0.0058959313
230	0x3bb63fbb	0.0055617965
231	0xbd9d2d69	-0.07674677
232	0x3d4c0bf8	0.0498161
233	0xbd33d3f6	-0.043903314
234	0x3d84aa40	0.06477785
235	0x3d2536a3	0.04033531
236	0x3b8483c2	0.004044027
237	0x3c2c5f6d	0.010520798
238	0x3d0128e5	0.03153314
239	0xbdc9e528	-0.09858161
240	0x3d4520e6	0.048127078
241	0xbd5fc460	-0.054630637
242	0xbd2d6f58	-0.042342514
243	0xbd755de3	-0.05990399
244	0xbd58caca	-0.05292777
245	0xbc99089f	-0.018680869
246	0xbdbe13b2	-0.092811
247	0x3d744b3c	0.05964206
248	0xbda2805b	-0.07934638
249	0x3d20ffe7	0.039306547
250	0x3dc38d38	0.0954842
251	0x3d27f6da	0.0410069
252	0x3df49e09	0.11944205
253	0xbd7ee075	-0.062225778
254	0x3c95d6cc	0.0182909
255	0xbc7eeff3	-0.015560138

network.0.bias f4 [128]
0	0xbe0fe257	-0.14051186
1	0xbd61237b	-0.054965477
2	0x3db87543	0.09006741
3	0xbe1e8822	-0.15481618
4	0x3da53527	0.08066779
5	0x3ca0e855	0.019642035
6	0x3b3a2227	0.0028401704
7	0x3c07eb63	0.008295867
8	0x3de884f9	0.113534875
9	0xbdc385f7	-0.09547036
10	0xbe130df6	-0.14360794
11	0x3de628b7	0.112382345
12	0xbdb38dc9	-0.08767278
13	0x3d9c62f4	0.07636061
14	0x3d09ccc7	0.033642557
15	0x3ceefb02	0.029172424
16	0xbe10fd4f	-0.1415913
17	0xbdc6d4e0	-0.097085714
18	0xbe060934	-0.13089448
19	0x3d1ba467	0.037998583
20	0x3d5c878f	0.053840216
21	0xbdff9c77	-0.12481015
22	0x3dae3f9e	0.08508228
23	0xbe031728	-0.12801802
24	0x3e4544c2	0.1926451
25	0xbe33895f	-0.17532872
26	0x3daacbd2	0.08339657
27	0xbdcd7926	-0.10032873
28	0xbd4184ed	-0.04724591
29	0xbe00fc90	-0.12596345
30	0x3d7935a8	0.060842186
31	0xbc657b57	-0.014006457
32	0xbdab51c8	-0.08365208
33	0xbe066aa6	-0.1312662
34	0x3de32aaa	0.11092122
35	0xbd181d45	-0.03713729
36	0xbe0dcd00	-0.13847733
37	0xbd1498b3	-0.036278438
38	0x3b3ecadc	0.0029112613
39	0xbdbee2d8	-0.09320611
40	0x3dfc6683	0.1232424
41	0x3e1e6924	0.15469795
42	0xbe1911ac	-0.14948148
43	0xbcd0f043	-0.02550519
44	0xbd934eb6	-0.07192747
45	0x3e0e8496	0.13917765
46	0x3df19f08	0.11797911
47	0xbcf070c6	-0.02935065
48	0xbdee90f0	-0.116487384
49	0xbd5ef28a	-0.054430522
50	0x3e626e76	0.2211245
51	0x3db29b2e	0.087210044
52	0x3d5e10e1	0.054215316
53	0x3e003adc	0.12522453
54	0xbdc58234	-0.09643975
55	0x3cfb2a7c	0.030659907
56	0xbe5042ec	-0.20338029
57	0xbd7fcf54	-0.062453583
58	0xbda77ab5	-0.081777014
59	0xbcad82da	-0.021180559
60	0x3d9b7287	0.07590204
61	0x3c95acd5	0.01827089
62	0xbbdb8fed	-0.006700507
63	0xbd30a3a5	-0.043124814
64	0xbcca91e6	-0.024727773
65	0x3d1d81a8	0.038453728
66	0xbd3135ca	-0.043264188
67	0xbd85dab8	-0.06535858
68	0xbd03f7a4	-0.03221859
69	0xbc02e398	-0.007988833
70	0x3c6446a6	0.0139328595
71	0xbd54da13	-0.051965784
72	0xbd84f349	-0.064917155
73	0x3dde8f38	0.108671606
74	0x3d8a52bc	0.067540616
75	0xbdbd0192	-0.09228815
76	0xbd3f5547	-0.046712186
77	0x3e057536	0.13032994
78	0x3e50bb08	0.20383847
79	0xbd33c3d7	-0.04388794
80	0xbd8fae70	-0.07015693
81	0x3dcbaea5	0.0994542
82	0x3d57235c	0.052523956
83	0xbdd7ee74	-0.10543528
84	0x3ca3ea05	0.02000905
85	0x3d5eaabd	0.054362047
86	0x3d80aefd	0.06283376
87	0xbd26a873	-0.04068799
88	0x3d90d8d5	0.070726074
89	0x3d4bada2	0.049726136
90	0x3b8a5345	0.0042213523
91	0xbd6a5a49	-0.05721501
92	0x3ba37bd0	0.004989125
93	0xbd48c8bf	-0.04901957
94	0xbe1a3ec4	-0.15063006
95	0xbd604d52	-0.05476124
96	0x3d96204b	0.07330378
97	0xbd296d0a	-0.041363753
98	0x3c9c86e8	0.019107297
99	0xbe01e0a3	-0.12683348
100	0x3d0cda27	0.034387734
101	0x3d48d234	0.04902859
102	0xbb0d5af6	-0.002156911
103	0xbcfcba1d	-0.030850464
104	0x3c92a74a	0.017902035
105	0xbd5b024f	-0.053469
106	0xbe1a2de4	-0.15056568
107	0xbd4afed8	-0.049559444
108	0xbcdd1825	-0.026989052
109	0x3e168a48	0.14701188
110	0x3d3feb6c	0.046855375
111	0x3deff839	0.117172666
112	0xbbfe0554	-0.0077521
113	0xbdf3bf42	-0.11901714
114	0x3cf00f69	0.029304223
115	0x3caf2ba9	0.021383123
116	0xbd85e18a	-0.06537159
117	0x3b185188	0.0023241956
118	0x3d35e351	0.04440624
119	0xbd242d13	-0.04008205
120	0x3c75db20	0.015005857
121	0x3cfe9ed9	0.031081604
122	0x3db316c8	0.087445796
123	0x3da615ee	0.081096515
124	0x3c695758	0.014242016
125	0xbcdcacb0	-0.026937813
126	0xbdaeb5e9	-0.0853079
127	0x3c3e8794	0.011629004

network.1.weight f4 [16, 128]
0	0x3b9c45fd	0.0047690854
1	0xbcf1620a	-0.029465694
2	0xbd1eb0b7	-0.038742747
3	0xbc57b1cf	-0.0131649515
4	0x396f2a76	0.00022808634
5	0xbd54c964	-0.051949874
6	0x3ca79233	0.020455455
7	0x3b98fb9a	0.004668665
8	0x3ccef526	0.02526338
9	0xbc876bfb	-0.016530981
10	0xbc8185cd	-0.015810871
11	0x3ad1e5c3	0.0016013909
12	0xbd22146f	-0.03957027
13	0x3d64477e	0.055732243
14	0xbc4dd0da	-0.012562001
15	0x3c95591e	0.018230971
16	0x3cd63f2c	0.02615317
17	0xbcb071da	-0.021538664
18	0xbb561069	-0.003266359
19	0xbd14a563	-0.036290538
20	0xbc7a729b	-0.015286113
21	0x3a1a3550	0.0005882578
22	0xbb905b1d	-0.004405393
23	0xbc210257	-0.009827218
24	0x3d7a70ce	0.061142735
25	0x3c50f35a	0.012753332
26	0xbcbda28b	-0.023148796
27	0xbd070b3b	-0.032969695
28	0xbd92a2cb	-0.071599565
29	0xbb6b20a4	-0.003587761
30	0xbc4846d9	-0.012223923
31	0x3d30db18	0.043177694
32	0x3c5f3908	0.013624437
33	0xbd61666c	-0.055029318
34	0xbccdf92f	-0.025143234
35	0x3d4d9776	0.050193273
36	0x3d1f36dc	0.038870677
37	0x3d3d4546	0.046208642
38	0x3c790463	0.0151988
39	0xbce25ecf	-0.027633099
40	0xbcc9ccd9	-0.024633812
41	0xbd908e2c	-0.07058367
42	0x3d1043b8	0.03522083
43	0xbbfcdc88	-0.007716719
44	0x3d71002f	0.058838066
45	0xbd9328e5	-0.071855344
46	0x3d4a6d72	0.04942078
47	0xbcd3e428	-0.02586563
48	0x3d41e7f1	0.047340337
49	0x3d8e07e5	0.069350995
50	0x3c3ce17c	0.011528369
51	0xbbeb290e	-0.007176525
52	0xbd046064	-0.032318488
53	0x3d79ac0f	0.060955103
54	0x3b5f41cd	0.003406632
55	0x3c1425ac	0.009042185
56	0x3c9110cf	0.01770821
57	0xbd41ce9d	-0.047316182
58	0xbd1aba6a	-0.037775435
59	0xbd900de8	-0.070339024
60	0x3c57b0af	0.013164683
61	0x3cecad19	0.028891133
62	0x3c30e072	0.010795699
63	0xbd4ff5c5	-0.050771493
64	0x3cd0ca4a	0.025487084
65	0xbd171392	-0.036883898
66	0xbd346035	-0.044037063
67	0x3cd98c04	0.026556022
68	0x3cae1649	0.02125086
69	0xbcbd4b71	-0.023107262
70	0xbd05db2a	-0.032679714
71	0xbce9edc5	-0.02855576
72	0xbc253b61	-0.010084958
73	0xbd17a2f1	-0.037020627
74	0xbc302f1f	-0.010753422
75	0xbc9a98ae	-0.018871631
76	0x3c334148	0.010940857
77	0x3c438c34	0.0119352825
78	0xbcd80265	-0.02636833
79	0xbd5d65e0	-0.054052234
80	0x3d09f13a	0.033677317
81	0xbc8ec3cb	-0.017427346
82	0x3c9846f3	0.018588519
83	0xbc08224a	-0.008308956
84	0xbd35b53a	-0.044362284
85	0xbb8de1d1	-0.004329898
86	0xbd5d0c94	-0.053967074
87	0x3c5d4685	0.013505583
88	0xbd575259	-0.052568767
89	0xbba13142	-0.004919202
90	0xbc78f58e	-0.015195264
91	0x3c5bb0a9	0.013408818
92	0x3d4aa056	0.049469315
93	0x3ce7fb22	0.028317992
94	0x3d2e9e15	0.042631228
95	0x3b678f6a	0.0035333284
96	0xbd8954f5	-0.067056574
97	0x3d052b59	0.032512043
98	0x3d836610	0.06415951
99	0xba845a48	-0.0010097707
100	0xbc8565b7	-0.016283853
101	0xbd4ce73b	-0.050025206
102	0xbd97ff07	-0.074216895
103	0x3b1e1ea5	0.0024127152
104	0x3d7e78b6	0.062126838
105	0xbd1e6c91	-0.038677756
106	0x3d0cbf4d	0.034362126
107	0xbd63c9d2	-0.055612393
108	0x3cc97100	0.024590015
109	0x3b4c1304	0.0031139264
110	0x3d13ba5c	0.036066398
111	0xbce16f91	-0.02751902
112	0x3d186d78	0.037213773
113	0x3c828066	0.015930366
114	0xbc43ab74	-0.011942733
115	0x3b063590	0.0020478703
116	0xbb8f9268	-0.0043814667
117	0x3c040fe1	0.008060426
118	0xbc998648	-0.018740788
119	0xbc88c631	-0.016696068
120	0xbcd5bee1	-0.026091995
121	0x3c0fa3e0	0.008767098
122	0x3cbce601	0.023058893
123	0x3adb54dd	0.0016733665
124	0x3cffb682	0.031214956
125	0xbc941009	-0.018074052
126	0x3d892b80	0.0669775
127	0x3d73cdb6	0.059522353
128	0x3d04eb12	0.032450743
129	0x3c98fcec	0.01867529
130	0x3d95763d	0.07297943
131	0xbd06ac02	-0.032878883
132	0x3d1332f1	0.035937253
133	0xbc9c7b20	-0.01910168
134	0xbbca5e5b	-0.006175799
135	0xbb6bb3ea	-0.0035965391
136	0xbdca639b	-0.098822795
137	0xbd3a0857	-0.04541811
138	0x3cc50ecb	0.024054905
139	0xbd017ecb	-0.03161506
140	0xbccb7b1b	-0.024838975
141	0x3bb2642e	0.0054440713
142	0xbd98ead0	-0.07466662
143	0xbcd30515	-0.02575926
144	0xbde5d59f	-0.112223856
145	0x3c0f4f5d	0.008746949
146	0x3b84ed89	0.0040566367
147	0xbc9b42b6	-0.018952709
148	0x3d1622d7	0.03665432
149	0x3ccdb01a	0.025108386
150	0x3a70b183	0.0009181725
151	0x3ba94b15	0.005166421
152	0xbd8ed58c	-0.069743246
153	0xbced4c20	-0.028966963
154	0xbe477772	-0.19479159
155	0x3cea2f96	0.028587144
156	0xbd07cb3b	-0.0331528
157	0xbd18ce91	-0.037306372
158	0x3d97410a	0.07385452
159	0x3dc11578	0.09427923
160	0x3cef8a96	0.029240888
161	0xbd0adbcc	-0.03390102
162	0x3c545489	0.012959608
163	0xbc25a940	-0.010111153
164	0x3d818dd0	0.06325877
165	0xbcdf6484	-0.02726961
166	0xbd11f10b	-0.035630267
167	0x3ccd39bd	0.025051946
168	0xbd7462ad	-0.059664417
169	0xbd101e53	-0.03518517
170	0xbd2a4e37	-0.041578498
171	0x3b598460	0.0033190474
172	0x3cb91884	0.022594698
173	0xbd7a440d	-0.061100055
174	0xbd74736c	-0.059680387
175	0xbc4f0b8b	-0.012637029
176	0xbdb9ce5e	-0.090725645
177	0xbc58e712	-0.013238685
178	0x3bb055ce	0.0053813225
179	0xbd779157	-0.06044134
180	0x3c106501	0.008813144
181	0xbae91f58	-0.001778583
182	0x3b13acbe	0.0022533382
183	0xbdd1fbdc	-0.102531165
184	0x3d967336	0.073461935
185	0x3d419a0e	0.04726606
186	0xbc8b63e3	-0.017015403
187	0x3ce5965c	0.028025798
188	0x3cf2885b	0.029606035
189	0x3d7f7518	0.06236753
190	0xbd9e554f	-0.07731115
191	0x3bdcf989	0.006743614
192	0xbd6dcff9	-0.058059666
193	0x3d0e4513	0.034733843
194	0x3dedf01b	0.11618062
195	0x3c9a86a8	0.018863037
196	0x3adf3119	0.0017028182
197	0x3d2e9f70	0.04263252
198	0xbdb6f73a	-0.089338735
199	0x3de32073	0.110901736
200	0x3aa74226	0.0012760803
201	0x3c23c7b9	0.009996348
202	0x3cb40403	0.02197457
203	0x3cda4bd8	0.026647493
204	0xbb8d70b1	-0.0043164124
205	0x3c9cc77a	0.019138087
206	0xbc6f1c55	-0.014594157
207	0x3da1deea	0.079038456
208	0x3d382f7f	0.04496717
209	0x3d190ab4	0.037363723
210	0xbd70366e	-0.05864566
211	0x3ccff41f	0.02538496
212	0xbda12b44	-0.078695804
213	0x3d342ca9	0.043987904
214	0xbd1b65f0	-0.037939012
215	0xbd5563ed	-0.05209725
216	0x3ce3b135	0.02779446
217	0x3c4c9828	0.012487449
218	0xbaee96c3	-0.001820289
219	0x3d14e88f	0.036354598
220	0xbac068ba	-0.0014679648
221	0x3d8e86a8	0.069592774
222	0xbda1e45d	-0.07904885
223	0xbd550cb5	-0.05201407
224	0x3d568833	0.052375983
225	0xbc894029	-0.016754227
226	0xbd7292bf	-0.05922198
227	0x3cd95165	0.02652807
228	0xbc9e2a03	-0.019307142
229	0x3c50c641	0.01274258
230	0x3d2eff38	0.042723864
231	0xbd0fc9fc	-0.035104737
232	0x3a49edba	0.00077029655
233	0x3de3b27a	0.11118026
234	0xbd23475e	-0.039862983
235	0x3da797cc	0.0818325
236	0x3cbdec3f	0.02318394
237	0xbccd9668	-0.025096133
238	0x3d375ead	0.044768024
239	0x3da855e3	0.082195066
240	0x3c90c291	0.017670901
241	0xbdb5bd8d	-0.088740446
242	0x3c727f00	0.014800787
243	0x3cbb20c8	0.02284278
244	0x3d549ab9	0.051905368
245	0xbd31921c	-0.04335223
246	0xbd137a01	-0.036005024
247	0x3c8e1aea	0.017346818
248	0xbd3a0faa	-0.045425095
249	0x3d741cfd	0.059597958
250	0xbd679957	-0.05654272
251	0x3cf2e83d	0.029651755
252	0xbd175d65	-0.036954302
253	0xbcbc6590	-0.022997648
254	0xbd9cfeed	-0.07665811
255	0xbd9caf79	-0.07650656

network.1.bias f4 [16]
0	0x3d97b61f	0.07407784
1	0xbd8b4c90	-0.068017125
2	0x3dc69693	0.096966885
3	0x3e198cbd	0.14995094
4	0x3e0c8419	0.13722266
5	0xbda97a5e	-0.08275293
6	0xbbcbf169	-0.0062238467
7	0xbe0ae4b0	-0.135638
8	0x3aa16669	0.0012313846
9	0xbe3d0438	-0.1845864
10	0x3da8ecbc	0.082482785
11	0xbe14c865	-0.1452957
12	0xbd960fdf	-0.07327246
13	0x3dd1a835	0.10237161
14	0x3de14579	0.10999579
15	0xbcf95241	-0.03043473
