model.pth (torch, 2188 bytes, 2 tensors)

linear.weight f4 [13, 13]
-0.16393983 -0.017671132 -0.048026558 0.10266761 0.07708524 0.11857152 -0.15093194 -0.046365894
0.1878677 -0.035919692 0.06980003 0.042315327 -0.046408232 0.13509263 0.11824896 -0.025298128
-0.010675104 0.230032 0.24897699 0.13602807 -0.13277702 0.27289703 0.29141086 0.26726404
0.2200051 -0.06929296 0.11930427 0.016106127 0.10429863 0.014798732 -0.027217738 -0.10164369
-0.07869009 -0.13527802 -0.1476785 0.054810736 0.20050661 -0.09937037 -0.043163512 -0.051087834
-0.06707638 -0.014880861 -0.012648451 -0.037464526 -0.30863443 -0.20707838 0.12217232 -0.21841708
-0.30391505 -0.29122558 -0.18118678 0.17263055 0.12610419 0.2700789 0.19901134 -0.23036283
0.00864443 -0.04540296 -0.0010720151 0.41514614 0.39236528 0.10597081 0.31011182 0.29804173
-0.0863741 0.19573617 0.2566206 -0.10369533 0.074966714 -0.067234114 0.026111202 0.18945374
0.05729262 0.20436883 -0.04446373 -0.148966 0.17629197 0.05559597 0.108431764 -0.07534046
0.2969976 0.15285963 0.07971583 0.06730922 -0.19241795 0.22092906 0.1166837 0.036160786
-0.13461721 0.07813002 0.06850843 0.38421035 0.019087903 0.22209303 0.20809211 0.24937743
0.26593995 0.18095058 0.3215582 0.13959381 -0.14781342 0.023083894 0.0815189 0.15320516
-0.29774007 -0.3159381 -0.3598986 0.23579544 0.133821 -0.0062339343 -0.013005666 0.17183004
0.14494817 0.15617113 0.16205059 0.11437289 -0.14819817 -0.108151145 -0.044350892 -0.33653244
0.34316802 0.013669103 0.05624098 0.12480815 0.0967113 0.10194826 0.096454516 0.073590666
-0.030814698 -0.059157982 0.37999502 0.35348305 0.04188161 -0.28201473 0.22542161 0.44075757
0.3165329 0.4942822 0.29351002 0.35555154 0.24459141 0.24682827 0.08007387 -0.005904925
0.30956393 0.16147164 0.16379555 -0.03696206 -0.18173257 0.10064702 -0.02253613 0.29661483
0.23220252 -0.13025998 -0.13657536 0.10091817 0.13276343 0.4317624 0.2482028 -0.5914858
0.62607 0.17422411 0.4848458 0.13935065 0.32014707 0.19168597 0.13373768 0.49907827
0.31419274
00000000: d8df 27be 0dc3 90bc 7fb7 44bd 6543 d23d
00000010: dede 9d3d a0d5 f23d e78d 1abe 2aea 3dbd
00000020: 6460 403e 8720 13bd 51f3 8e3d d652 2d3d
00000030: 8f16 3ebd b955 0a3e 832c f23d 053e cfbc
00000040: a2e6 2ebc 828d 6b3e d3f3 7e3e f14a 0b3e
00000050: b3f6 07be 29b9 8b3e ce33 953e d5d6 883e
00000060: 0449 613e 78e9 8dbd cc55 f43d fff0 833c
00000070: 859a d53d 6176 723c bcf7 debc 912a d0bd
00000080: 4528 a1bd 5286 0abe 0839 17be 3981 603d
00000090: 9b51 4d3e b182 cbbd 39cc 30bd 7a41 51bd
000000a0: 575f 89bd dbce 73bc 733b 4fbc 6774 19bd
000000b0: 5505 9ebe 5b0c 54be 7b35 fa3d baa8 5fbe
000000c0: c19a 9bbe 851b 95be 0789 39be 10c6 303e
000000d0: 7521 013e c847 8a3e a1c9 4b3e 3ce4 6bbe
000000e0: 5ea1 0d3c 74f8 39bd dc82 8cba 098e d43e
000000f0: 1ae4 c83e 3907 d93d fac6 9e3e ed98 983e
00000100: e7e4 b0bd 106f 483e c663 833e 385e d4bd
00000110: 2688 993d 0ab2 89bd 29e7 d53c 2900 423e
00000120: abab 6a3d 1046 513e 9a1f 36bd 8b8a 18be
00000130: e285 343e 9ab8 633d 7911 de3d 194c 9abd
00000140: 1210 983e 3c87 1c3e 0e42 a33d 6bd9 893d
00000150: 3609 45be 3a3b 623e ddf7 ee3d 551d 143d
00000160: 18d9 09be a202 a03d 264e 8c3d 38b7 c43e
00000170: 3c5e 9c3c 5b6c 633e 1916 553e cc5c 7f3e
00000180: 4829 883e 1c4b 393e 47a3 a43e aef1 0e3e
00000190: 675c 17be 6f1a bd3c 62f3 a63d d0e1 1c3e
000001a0: 6371 98be a3c2 a1be a144 b8be 5c74 713e
000001b0: 5f08 093e 0846 ccbb b815 55bc 37f4 2f3e
000001c0: 4b6d 143e 53eb 1f3e 97f0 253e 553c ea3d
000001d0: 43c1 17be 597e ddbd 48a9 35bd fb4d acbe
000001e0: b8b3 af3e 60f4 5f3c f15c 663d 6a9b ff3d
000001f0: 9310 c63d 40ca d03d f289 c53d b4b6 963d
00000200: 1b6f fcbc a44f 72bd b58e c23e bbfb b43e
00000210: 0d8c 2b3d 3c64 90be ecd4 663e faaa e13e
00000220: 9a10 a23e 8e12 fd3e f246 963e da0a b63e
00000230: 2c76 7a3e 8dc0 7c3e c5fd a33d 1a7e c1bb
00000240: 2a7f 9e3e d258 253e 05ba 273e 8765 17bd
00000250: 1a18 3abe 0620 ce3d b19d b8bc e6dd 973e
00000260: 7fc6 6d3e df62 05be 69da 0bbe 2fae ce3d
00000270: 23f3 073e f60f dd3e e028 7e3e 9d6b 17bf
00000280: 2046 203f ce67 323e b53d f83e f0b1 0e3e
00000290: 51ea a33e 5449 443e 88f2 083e 3087 ff3e
000002a0: dfdd a03e

linear.bias f4 [13]
-0.03149646 -0.03876651 -0.12073561 0.1886796 0.36543968 -0.19137608 -0.019047981 -0.053649355
-0.17747775 -0.39887542 0.24054287 -0.012065974 0.65048057
00000000: 6f02 01bd a2c9 1ebd 3b44 f7bd 3a35 413e
00000010: e91a bb3e 17f8 43be 830a 9cbc 6dbf 5bbd
00000020: babc 35be 6639 ccbe df50 763e 5db0 45bc
00000030: e585 263f
