model.pth (torch, 2188 bytes, 2 tensors)

linear.weight f4 [13, 13]
00000000: 62b5 30be fa0c 283d ab44 acbd 127d 6abe
00000010: 7ba6 e7bd 27cc f53d 4202 613e c940 853e
00000020: 71f6 69be 5875 813d 86c8 13be f542 6abd
00000030: d0c3 db3b 085d 133b b699 5c3e 7922 d9bd
00000040: 55fa 6bbe 77fa d73d fd7e 953e 6fab 2f3e
00000050: d50f cdbd b8c1 c23e 7d99 983e 79fb b33d
00000060: cc70 243d 7384 913d 8acb 8bbe 43b9 52be
00000070: 8477 b4bd 90a8 023e 8f32 9bbd 3e91 23be
00000080: a5a9 cf3c 6d0c 6ebd 884b fcbd 5634 25be
00000090: db3b 243e cf2b a93d 0f83 b23c 3895 a6be
000000a0: 2861 20bc d660 0f3e 240a cabd 6ad8 d93d
000000b0: aacd 98be 9ece 8cbe 02c8 2d3e d2dc 7dbd
000000c0: 0201 37be 5be6 92be 70a7 fcbd 19be 7a3d
000000d0: d030 ed3e 80da b83d 8207 f73e 11d8 37be
000000e0: 3f3b f93d 56de 113e de94 b53d 4bfb 04bc
000000f0: 7b49 933e cf61 d43e 1277 003e 8eec b23e
00000100: f4ab 5f3e 05a6 1a3e 9a63 573e 7374 bcbd
00000110: 3eb1 783e d5af b63d 5d69 dcbd 6bcc 363e
00000120: cf42 0abd 80cd ebbd b021 68be 25d8 d13d
00000130: 5de5 8dbe 820d c9bd 8427 75be 5e0a 0f3e
00000140: 4452 febd 4acb b3bd eacf 78bd 6d47 8b3e
00000150: d9da 2c3d ab19 2f3d cae9 a13d 1cb7 0cbd
00000160: cda1 de3d 396a 9c3d 566d 41bd 210d 173e
00000170: 5ec5 2c3d dbb1 c63e dd48 d8bd 04cf 97bd
00000180: 5969 cf3e 6eb0 993e d70b 423e 6d2c b5bd
00000190: 3eae 96bd 386c 6a3e 1d2f 273d 3e89 2c3e
000001a0: e0a4 9cbe d663 ecbd e059 913d 378f a03e
000001b0: 1911 c53d c479 46be f865 edbd d2cb 0c3e
000001c0: d8cf 13be 4446 c53d efc4 a3bd 124a 443d
000001d0: a7ef 063d e426 1abe 3698 3c3e 0a1c ecbd
000001e0: 56b0 fe3d 7a2f afbd 9d51 0c3d e9af d53d
000001f0: 42af 193e 5fc6 083d e38a 8c3d 9764 a43d
00000200: c5b4 4cbc 43d0 e7bd 3111 b43e 1d4e 653e
00000210: 7b00 d93e b9c5 743c 1934 953e 9661 f33c
00000220: 3cba c83d 95cf e63e be5c 6a3e 74be f43e
00000230: 855d 7f3e 508d ed3e 3643 fe3d 23f2 a6be
00000240: c868 72be 788c 21be 220b 733e 515c 873e
00000250: 065e 3c3e 0ba8 38bd 4364 383e 2b0a 04be
00000260: d4d4 5a3e 2aa0 4ebc ffe5 333e 8ca4 92bd
00000270: 42c5 a33e e011 a93d 32ce 513d e6d7 10bf
00000280: aa96 5f3e b004 823e f9cb fa3e d26c 023f
00000290: 2809 c23e 0ce1 b03e ec88 d93d 25a1 d23e
000002a0: 9df3 e13e
-0.17256692 0.041028 -0.08411535 -0.22899273 -0.113110505 0.120018296 0.21973518 0.2602599
-0.22847916 0.0632121 -0.14431962 -0.05719276 0.0067066923 0.002248587 0.21543011 -0.10602278
-0.23044713 0.10545819 0.29198447 0.1715524 -0.10012785 0.3803842 0.29804602 0.08788199
0.040146634 0.07105341 -0.27303725 -0.20578484 -0.08811858 0.12759614 -0.07578003 -0.15973374
0.025349448 -0.05811732 -0.12319094 -0.16133246 0.16038458 0.08260309 0.02179101 -0.3253572
-0.009788789 0.14001784 -0.098652154 0.10636981 -0.2984441 -0.27501386 0.16970828 -0.06197817
-0.17871478 -0.28691372 -0.12336624 0.061216448 0.46326303 0.090260506 0.48247916 -0.17953517
0.121695034 0.1424497 0.08866285 -0.008116554 0.28767 0.41480872 0.12545422 0.34946102
0.21842939 0.15102394 0.21034089 -0.092018984 0.24286363 0.08920256 -0.10762284 0.17851417
-0.03375512 -0.115138054 -0.22669101 0.102463044 -0.27714053 -0.098170295 -0.23940855 0.13968799
-0.12418035 -0.08779009 -0.060745157 0.2720293 0.042200897 0.04274909 0.0790592 -0.034354314
0.10870705 0.07637448 -0.04722341 0.14751102 0.04218041 0.38807568 -0.105607726 -0.07412532
0.4051006 0.30017418 0.18949829 -0.08846364 -0.07357453 0.22892845 0.040816415 0.16849229
-0.3059454 -0.1154248 0.070972204 0.31359264 0.09622402 -0.19382387 -0.115917146 0.13749626
-0.14434755 0.09632543 -0.079965465 0.0479222 0.032943394 -0.15053898 0.18417439 -0.115287855
0.12435977 -0.08553977 0.03425752 0.10433943 0.15008262 0.033392306 0.06862428 0.080269985
-0.012494271 -0.1131902 0.35169366 0.22393079 0.4238318 0.014939719 0.2914131 0.029709619
0.098011464 0.45080248 0.22886941 0.47801554 0.24938019 0.46396875 0.12415163 -0.3260661
-0.23672783 -0.15776241 0.23734716 0.2643762 0.18395242 -0.045082133 0.18006997 -0.12894504
0.2137025 -0.012611428 0.17568205 -0.07160291 0.31986433 0.082553625 0.051222034 -0.56579435
0.21834818 0.253942 0.48983744 0.50947297 0.3789761 0.34546697 0.10621819 0.4113857
0.44131175

linear.bias f4 [13]
00000000: c425 62be c215 cb3e c62c 2abe 13de 43be
00000010: d057 d53e 3b73 363e 24ff 9dbd 290e 5a3e
00000020: 56f9 2c3d 76df 313e ec75 e7bc 699f 77bc
00000030: c00d cc3e
-0.22084719 0.39665037 -0.16618642 -0.19127683 0.41668558 0.17817394 -0.0771468 0.21294464
0.042229973 0.173704 -0.028254472 -0.01511369 0.3985424
