model.pth (torch, 2188 bytes, 2 tensors)

linear.weight f4 [13, 13]
-0.1823457 0.13997932 0.19936275 0.113812506 0.122765884 -0.00663806 0.06042818 0.05525264
0.008125948 -0.13489275 -0.035882745 0.22656517 -0.09262978 0.34994182 0.3227635 0.30681536
-0.13334647 0.24058293 0.23576088 0.2273151 0.041257057 0.36447036 -0.062251884 -0.053771287
0.34941974 0.012937142 -0.06254092 -0.055671804 0.06459645 -0.13318264 -0.24872792 0.16807292
-0.043196507 0.121695176 -0.04193538 -0.19863628 -0.1739423 0.18071303 0.20150186 -0.27986363
0.19466029 0.08231249 -0.15175779 -0.19309331 -0.070825405 0.052418634 0.1162515 -0.0005777629
-0.16812052 0.02571823 0.21225394 -0.11369521 -0.087809555 0.2554763 0.05719824 -0.17239578
0.30788112 -0.09547237 0.19687647 0.17882444 0.20088136 0.2657714 -0.016727822 -0.16597436
0.15130654 -0.28672764 0.08517117 0.18081304 -0.036445968 -0.123620346 -0.13941179 0.13791104
0.09094638 -0.070571214 -0.18112493 0.12617858 -0.17961937 -0.072745584 0.37918097 0.15865313
0.36677644 -0.0219718 -0.007966437 0.12107928 -0.0029518576 0.08055452 0.31788394 0.42015854
-0.06698584 0.2638321 0.018198008 -0.07259472 0.26415074 -0.14835647 -0.061681632 0.19807234
0.34745714 0.32974675 -0.12251605 -0.07726868 0.12912446 0.15077363 -0.13144213 0.21010065
0.039676793 -0.09653431 -0.06447218 0.11846028 -0.044115573 0.16454233 0.035021853 -0.14110768
0.23884964 0.27170336 0.04192106 -0.07139037 0.08744962 0.26053128 0.09479912 0.0013302881
0.16932166 0.10854736 -0.13176319 0.11419493 -0.1687458 -0.0056637935 0.28410506 0.06855358
-0.19879745 -0.016830979 0.16680117 0.06583653 0.3188225 -0.13161856 0.112761796 0.32469964
0.27482158 0.27054408 0.3663359 0.15540527 0.5324134 0.5243945 0.08178935 -0.2033416
-0.19527306 -0.05890219 0.19427241 0.16258898 -0.042288154 0.049844895 0.09632555 0.21741185
0.18564965 -0.04303131 0.14695685 0.010828162 0.2357813 0.36493078 0.10371229 -0.19204074
0.24882829 0.35707387 0.40728885 0.24173515 0.39044473 0.060499 0.38390476 0.07113774
0.32284412
00000000: d5b8 3abe bd56 0f3e c025 4c3e 8816 e93d
00000010: ae6c fb3d 1584 d9bb 8a83 773d 9850 623d
00000020: b222 053c 5321 0abe c9f9 12bd b300 683e
00000030: afb4 bdbd 932b b33e 4241 a53e e716 9d3e
00000040: fa8b 08be 5f5b 763e 4d6b 713e 4ac5 683e
00000050: 29fd 283d dc9b ba3e d5fb 7ebd 483f 5cbd
00000060: 25e7 b23e 4ef6 533c 7415 80bd 1e08 64bd
00000070: 254b 843d 0861 08be 88b2 7ebe 4f1b 2c3e
00000080: d2ee 30bd 523b f93d 6fc4 2bbd 4f67 4bbe
00000090: ee1d 32be d60c 393e 8156 4e3e 494a 8fbe
000000a0: 0755 473e 7393 a83d 6566 1bbe 41ba 45be
000000b0: e90c 91bd ecb4 563d 4415 ee3d 0375 17ba
000000c0: c927 2cbe 0aaf d23c 1959 593e 09d9 e8bd
000000d0: 7fd5 b3bd cacd 823e b448 6a3d 8588 30be
000000e0: 98a2 9d3e 0587 c3bd fc99 493e c11d 373e
000000f0: d8b3 4d3e 3013 883e c908 89bc 2ff5 29be
00000100: 1af0 1a3e f7cd 92be 396e ae3d 0e27 393e
00000110: 5e48 15bd aa2c fdbd f7c1 0ebe 8d38 0d3e
00000120: 1842 ba3d a487 90bd d078 39be f534 013e
00000130: 24ee 37be a3fb 94bd 0224 c23e f775 223e
00000140: 1fca bb3e 34fe b3bc a985 02bc 6af8 f73d
00000150: f473 41bb c5f9 a43d afc1 a23e 051f d73e
00000160: df2f 89bd 0015 873e fd13 953c 8aac 94bd
00000170: c43e 873e c2ea 17be e1a5 7cbd 7ad3 4a3e
00000180: e7e5 b13e 91d4 a83e b2e9 fabd 0b3f 9ebd
00000190: 3439 043e 6764 1a3e c498 06be a024 573e
000001a0: 2284 223d c8b3 c5bd fe09 84bd 4e9b f23d
000001b0: 88b2 34bd c97d 283e 1373 0f3d 887e 10be
000001c0: 0095 743e b41c 8b3e 6bb5 2b3d 1d35 92bd
000001d0: c918 b33d 5b64 853e 0b26 c23d 105d ae3a
000001e0: a862 2d3e 144e de3d eeec 06be 08df e93d
000001f0: b3cb 2cbe 5897 b9bb 3876 913e d265 8c3d
00000200: 8f91 4bbe 1fe1 89bc edcd 2a3e 4dd5 863d
00000210: b43c a33e 04c7 06be a8ef e63d 083f a63e
00000220: 6ab5 8c3e c184 8a3e 6190 bb3e 8f22 1f3e
00000230: 3f4c 083f b83e 063f 2d81 a73d c838 50be
00000240: a9f5 47be 6c43 71bd 59ef 463e ba7d 263e
00000250: 5836 2dbd 292a 4c3d 5446 c53d 36a1 5e3e
00000260: f11a 3e3e 9941 30bd db7b 163e 9a68 313c
00000270: a770 713e 35d8 ba3e 1c67 d43d 54a6 44be
00000280: d8cc 7e3e 63d2 b63e 2a88 d03e 6b89 773e
00000290: 5fe8 c73e cdcd 773d 2a8f c43e aab0 913d
000002a0: d34b a53e

linear.bias f4 [13]
0.2539067 0.26453 0.08337984 -0.13054281 -0.028477406 0.22439212 0.023465415 -0.11400579
0.22989847 -0.08241159 0.17675169 -0.19653995 0.00014892977
00000000: 0f00 823e 7a70 873e 0dc3 aa3d 04ad 05be
00000010: 7349 e9bc 0cc7 653e 8b3a c03c de7b e9bd
00000020: 816a 6b3e 68c7 a8bd 65fe 343e c541 49be
00000030: 082a 1c39
