model.pth (torch, 2188 bytes, 2 tensors)

linear.weight f4 [13, 13]
-0.078494 0.17629056 0.05321771 0.29283544 0.12753211 0.15359208 0.1348565 0.09485673
0.07204246 0.025813201 -0.19134983 0.10763624 0.03359894 0.14840238 0.07950303 0.18872967
0.08171808 0.30018738 0.26712143 0.36195192 0.0037115735 -0.11613583 0.18232204 0.07332202
-0.11864626 0.0885379 0.09306952 0.06719902 0.1792574 -0.14128128 -0.031479646 0.38906282
-0.14093491 0.19148606 0.35164535 0.004956439 -0.13238405 0.2679656 -0.018349538 -0.057206765
0.02794387 0.038678907 -0.27946255 -0.18175709 0.31472343 0.026798975 0.046118896 0.2725482
0.0673387 -0.06627787 0.09516401 0.29615563 0.34259042 0.00014482124 0.33239028 -0.21932986
0.4604095 0.25732318 0.20225427 0.040161878 -0.014585248 0.3530738 0.21352777 0.2078149
0.280375 -0.11449919 -0.32789782 -0.24935713 0.19628584 -0.08176586 -0.051098004 0.14126681
0.04064155 0.11436532 -0.31074092 0.19105339 -0.21264625 -0.3196863 0.17530091 -0.07005451
0.17887998 -0.24530098 0.26750326 -0.14251037 -0.17016697 0.1990694 0.2122062 0.22129273
-0.15493369 -0.1687932 0.08527855 -0.016451282 0.25207135 0.18461356 0.008417703 -0.04694546
0.19152884 0.17882043 0.29041186 0.18495186 -0.065623425 0.3237417 0.2418038 0.15686098
0.10992956 -0.07919647 0.2929976 0.18791763 0.2241436 0.15318896 -0.085829355 0.12670974
0.25565153 -0.07260884 -0.1422838 -0.13394675 0.18163309 0.035359167 -0.008145592 0.04071886
0.17080447 -0.022523765 0.07493693 -0.2970195 -0.035339277 -0.13274522 0.06486629 0.10961452
-0.03329343 -0.2390153 0.37970367 0.5853467 0.45701256 -0.31715915 0.36089176 0.23337394
0.4688454 0.5193664 0.47129786 0.46995556 0.119209744 0.61969537 0.36367035 -0.002216178
0.10192424 0.19429995 -0.11533188 0.075785026 0.016470162 0.07140251 -0.13570179 -0.13330428
-0.17764337 0.07858833 -0.2852809 0.0016796954 0.061500736 -0.09098651 0.16032453 -0.07300787
0.063590296 -0.25544035 0.17546913 -0.21968518 0.1823602 -0.23243488 0.11990176 -0.22228105
0.17243946
00000000: 76c1 a0bd 8385 343e d0fa 593d 87ee 953e
00000010: c797 023e 3e47 1d3e d317 0a3e 3f44 c23d
00000020: ff8a 933d 3576 d33c 36f1 43be 6470 dc3d
00000030: 0b9f 093d cbf6 173e 7cd2 a23d 5a42 413e
00000040: cf5b a73d 29b2 993e 24c4 883e c351 b93e
00000050: df3d 733b 9fd8 edbd a1b2 3a3e db29 963d
00000060: cffc f2bd 5c53 b53d 3c9b be3d a49f 893d
00000070: 408f 373e 0aac 10be cdf0 00bd 3e33 c73e
00000080: 3e51 10be ec14 443e dc0a b43e a069 a23b
00000090: af8f 07be ca32 893e c551 96bc a451 6abd
000000a0: 8bea e43c c66d 1e3d b715 8fbe 881e 3abe
000000b0: 6e23 a13e 8689 db3c 2be7 3c3d 708b 8b3e
000000c0: dfe8 893d b1bc 87bd 59e5 c23d b6a1 973e
000000d0: 0368 af3e 28db 1739 0f2f aa3e 0298 60be
000000e0: cbba eb3e ddbf 833e be1b 4f3e c880 243d
000000f0: f7f6 6ebc 17c6 b43e 06a7 5a3e 6ecd 543e
00000100: 508d 8f3e 8d7e eabd 39e2 a7be 7a57 7fbe
00000110: 28ff 483e dc74 a7bd 244c 51bd 3fa8 103e
00000120: c177 263d 5d38 ea3d 6f19 9fbe 80a3 433e
00000130: f0bf 59be ecad a3be 1582 333e bd78 8fbd
00000140: 502c 373e 2e30 7bbe 30f6 883e 3dee 11be
00000150: 4040 2ebe d9d8 4b3e 954c 593e 909a 623e
00000160: f0a6 1ebe 20d8 2cbe 85a6 ae3d d7c4 86bc
00000170: 7f0f 813e 560b 3d3e 68ea 093c e249 40bd
00000180: 2320 443e b41c 373e ddb0 943e 0564 3d3e
00000190: 9365 86bd 79c1 a53e 6a9b 773e 2aa0 203e
000001a0: c022 e13d c231 a2bd c803 963e 7b6d 403e
000001b0: e685 653e 91dd 1c3e 4dc7 afbd 33c0 013e
000001c0: c2e4 823e f2b3 94bd d8b2 11be 5629 09be
000001d0: 06fe 393e c6d4 103d 1775 05bc d2c8 263d
000001e0: 5ee7 2e3e c283 b8bc 8878 993d f112 98be
000001f0: ebbf 10bd 5dee 07be 9ed8 843d 947d e03d
00000200: b15e 08bd 6dc0 74be 8568 c23e 48d9 153f
00000210: 8dfd e93e af62 a2be cec6 b83e 94f9 6e3e
00000220: 810c f03e 32f5 043f f44d f13e 049e f03e
00000230: 3d24 f43d 5ba4 1e3f 0033 ba3e 4c3d 11bb
00000240: a8bd d03d 91f6 463e 1f33 ecbd 2e35 9b3d
00000250: 6fec 863c 7b3b 923d 69f5 0abe eb80 08be
00000260: 25e8 35be ebf2 a03d 5710 92be 3a29 dc3a
00000270: 32e8 7b3d 2357 babd 1d2c 243e 2685 95bd
00000280: a13b 823d 14c9 82be 2eae 333e 27f5 60be
00000290: a2bc 3a3e 6903 6ebe 0e8f f53d a59d 63be
000002a0: f893 303e

linear.bias f4 [13]
-0.07205106 0.32374674 0.09600482 0.12581901 0.43963003 -0.16625416 0.23281755 0.012879328
0.25975683 -0.3931407 0.58641535 -0.26545972 -0.1498723
00000000: 828f 93bd 22c2 a53e 2d9e c43d b3d6 003e
00000010: 3017 e13e 883e 2abe b967 6e3e d103 533c
00000020: d9fe 843e bd49 c9be 511f 163f 56ea 87be
00000030: 2078 19be
