model.pth (torch, 18100 bytes, 6 tensors)

linear1.weight f4 [50, 13]
000000 f7 88 86 3e 85 fa 8d be 4b 29 88 3e 10 5c de bd
       0.2627637 -0.27730194 0.26594004 -0.10857403
000010 38 39 22 3d 00 67 c5 bc 40 8f 01 3d c4 65 5f be
       0.03960535 -0.024096966 0.031630754 -0.21816164
000020 d0 9e 50 bd a4 5c d5 3d b4 b2 a0 3d a8 e4 8a be
       -0.050932705 0.104180604 0.07846585 -0.27127576
000030 44 9c 77 bd 5c 27 50 3e 7d e1 82 3e bd 6b b2 ba
       -0.06045176 0.20327514 0.2556266 -0.0013612431
000040 a3 84 f4 bd bd 0c 45 be b9 31 b1 3d 69 0f 73 3e
       -0.11939361 -0.1924314 0.08652062 0.23736347
000050 5c ba 16 3e 84 21 72 be f9 d0 8f be e5 eb 90 bd
       0.14719528 -0.23645598 -0.2808912 -0.07076243
000060 da 1e 73 3e 40 12 7a 3e 18 87 b0 3d 4c b7 55 bd
       0.23742238 0.24421024 0.08619517 -0.05217676
000070 b7 d2 04 be fe cc 71 3e bc f2 8d be a6 fe 54 be
       -0.12971006 0.23613355 -0.27724254 -0.20800266
000080 a5 ee 08 be 40 c7 9a 3b 50 57 be bd c0 3d f5 3b
       -0.13372286 0.0047234595 -0.09293997 0.007484168
000090 28 95 33 3e f8 9d 39 be 40 25 93 bc 1a 22 5e 3e
       0.17537367 -0.18126667 -0.017962098 0.21692696
0000a0 43 a0 8e 3e 58 22 d0 3d 92 97 79 3e b0 db 67 bc
       0.27856645 0.101628006 0.24374226 -0.014151499
0000b0 96 2b 0f 3e 7f ee c3 bd b1 8f 5f be 4f 46 96 3e
       0.1398147 -0.09566974 -0.21832158 0.29350516
0000c0 b7 22 29 bd 19 59 15 3e e7 b1 a7 bd c1 61 f1 3d
       -0.041292872 0.1458477 -0.08188229 0.11786223
0000d0 3d e6 25 be f9 1a 1d be 21 9a 06 3d 48 1b 75 be
       -0.1620111 -0.1534232 0.032861833 -0.23936188
0000e0 03 88 0c 3e b6 26 02 be 6d 59 49 be b2 ab 14 3d
       0.1372376 -0.1271008 -0.1966302 0.036296554
0000f0 b1 4c c4 bd 28 16 8b 3e f3 4b 88 3e c3 17 57 3d
       -0.0958494 0.2716534 0.26620445 0.052512895
000100 31 ce b7 3d 0a 19 35 bd 7b a2 88 3e ce 3f 1a 3e
       0.08974875 -0.044213332 0.26686463 0.15063402
000110 cb 83 12 be b8 29 84 bd b0 0c 55 3e 3b c5 8a bd
       -0.14308088 -0.0645327 0.20805621 -0.067759
000120 c9 27 a2 3e 96 eb 5e be be de 33 3e 5e 7d 43 3e
       0.3167098 -0.21769556 0.17565438 0.19090793
000130 2f 18 51 be f5 d7 f2 3d d0 9f 61 3d 50 6c ba 3c
       -0.20419382 0.11857597 0.05508405 0.022756726
000140 ac a9 5e 3e b2 ad fa bd 52 d4 47 3e a8 cc 60 be
       0.21744412 -0.12240161 0.19514588 -0.2195307
000150 50 6d fa 3d 70 da 4f 3d 9e 90 6b 3e 08 20 5a 3d
       0.12227881 0.050745428 0.23004386 0.053253204
000160 bc c6 d9 bd ac 60 e6 3d fc 0e 52 be e4 ca 8c 3e
       -0.10633609 0.112489074 -0.20513529 0.27498543
000170 0a 6f 12 be 2d 4b 6d 3d 90 85 fa bd 11 e0 e2 3b
       -0.1430017 0.05793302 -0.12232506 0.0069236835
000180 8e ba d6 bd 7d 60 25 3c 67 f7 13 be 3d 0c 83 bd
       -0.10484801 0.010093805 -0.14449845 -0.06398819
000190 8f 13 21 3d cd 21 95 3e fe 23 40 3e 7e 2b 0a bd
       0.039325293 0.2912735 0.1876373 -0.033732884
0001a0 1c 6d 80 be ab 77 58 be 08 df 4c be c3 bf 7a be
       -0.25083244 -0.211394 -0.20006955 -0.24487214
0001b0 9c 91 bd bd c0 9c e5 3c 60 06 1a 3d 2c ea 00 bd
       -0.092562884 0.028028846 0.037603736 -0.031473324
0001c0 54 13 e7 bd 41 80 54 be a6 de 39 be f2 09 7e 3e
       -0.112829834 -0.2075205 -0.1815134 0.24808481
0001d0 04 3e ad 3d d9 a9 f9 bd 53 c3 9e 3d 7d 45 e1 bd
       0.08459094 -0.12190599 0.07752099 -0.10999582
0001e0 e6 b5 28 3e c2 ec d5 bd c5 a3 68 be a5 a4 05 bd
       0.16475639 -0.104455486 -0.22718723 -0.03262772
0001f0 3a f3 59 be 16 6f 1f bd e6 0b 5e 3e 79 33 82 3e
       -0.2128419 -0.0389243 0.21684226 0.25429896
000200 21 9c 24 3e 4b c5 2d 3e a0 3a 2c 3c 8b ae 88 3e
       0.16075183 0.16969793 0.010512024 0.26695666
000210 74 18 bb bd c0 64 0e 3e 0c 81 58 be b2 34 17 3e
       -0.091355234 0.1390562 -0.21142977 0.14766195
000220 92 0a 0e 3e f2 00 7a be b0 91 95 bd c8 df a1 3d
       0.1387122 -0.24414423 -0.07303178 0.07904011
000230 58 ae 50 be 28 5f ab 3d 2c 72 3c 3e 8c a6 aa 3e
       -0.20379007 0.08367759 0.18402928 0.3333019
000240 cf c7 23 3e 6b 43 ba 3d 07 5f 76 be a6 cc 08 3e
       0.1599419 0.0909489 -0.24059688 0.13359317
000250 d2 ed 35 be 7f 81 5c be 48 ba 6c 3e c3 19 25 bb
       -0.17766502 -0.21533774 0.23117936 -0.0025192357
000260 23 18 16 3e bc 44 98 3e d9 0e f6 bc 4b 16 4e be
       0.14657645 0.2973994 -0.030036377 -0.20125692
000270 25 5c 6d 3e 1d 74 86 3e f4 7b 05 be ff 82 53 be
       0.23179682 0.26260462 -0.13035566 -0.2065544
000280 e5 da 9c 3e 56 d1 d6 bc e6 ab fc 3d b8 7a 77 3e
       0.30635753 -0.026222866 0.123374745 0.24167907
000290 8c 6f 41 3e f3 bb 5a be 67 69 2f be 13 b6 2d 3d
       0.18890208 -0.2136076 -0.17130052 0.042409968
0002a0 4a 28 db 3d c8 81 58 bd a9 86 20 be 26 24 0d 3e
       0.10701044 -0.052858144 -0.15676369 0.13783321
0002b0 b4 b2 ab bd 96 5b 28 3e e0 59 de 3c 7e 14 66 3e
       -0.08383694 0.16441187 0.027142465 0.22468755
0002c0 1c 52 13 be 10 80 89 bd 32 17 02 3e d8 ca 0a be
       -0.14386791 -0.06713879 0.12704161 -0.13553941
0002d0 20 ce b0 3c 78 c4 55 3d ee 25 44 3e 90 ee c5 bd
       0.021582663 0.05218932 0.19155094 -0.09664643
0002e0 f9 a2 7b be e1 27 74 be 84 d4 14 3e 84 6c c5 3d
       -0.24573888 -0.23843338 0.14534193 0.09639838
0002f0 60 a0 85 3c 00 73 bb 3b 50 a7 67 3d 3c 68 2b be
       0.016311824 0.005720496 0.056556046 -0.16738981
000300 e2 5b 25 be 90 34 e1 3c 20 fa 8a bc b9 75 63 be
       -0.16148332 0.027490884 -0.016964972 -0.22212876
000310 be b8 ac 3d 34 07 01 3e ec fd 6f 3e be 71 62 3e
       0.08433674 0.12600404 0.23436707 0.22113702
000320 f8 d8 a8 3d f6 f3 59 be df 7b 2e be 5d 47 60 3e
       0.082445085 -0.2128447 -0.1703944 0.21902223
000330 31 31 5f 3e 57 11 0b be 95 dc ea bd ce 82 1f 3e
       0.21796109 -0.13580833 -0.11467854 0.15577242
000340 5d bd 4c 3c b4 6c 24 3e 41 ea 8a 3e 77 17 fa bd
       0.01249632 0.16057092 0.27131847 -0.12211507
000350 ae fb 57 3d fb d6 a8 3d 42 09 cd bd 6d ac 8e bc
       0.052730255 0.08244129 -0.100115314 -0.017416203
000360 24 56 4e 3e 74 e8 88 3c 9a 32 84 3e fb 7a 00 3d
       0.20150048 0.016712405 0.25819856 0.031367283
000370 40 c0 98 3d 30 59 bc bc e8 a0 4b be ae 4d 0f be
       0.07458544 -0.022991747 -0.198856 -0.13994476
000380 12 50 c0 bd 8e 76 7d 3e f5 62 1c be 40 1c 85 be
       -0.09390272 0.24752256 -0.15272124 -0.25998116
000390 a0 2a 86 be 54 82 fc 3d a0 2f c8 bc 06 c4 45 3e
       -0.26204395 0.123295456 -0.024436772 0.19313058
0003a0 80 8a 75 bc 2f 9a 84 be c3 7a 29 be 6a e8 88 be
       -0.014986634 -0.25898883 -0.16550736 -0.26739818
0003b0 f0 5c 41 3b 99 d7 e9 bd 7c c1 9a bd 14 93 12 be
       0.0029504858 -0.11418075 -0.075564355 -0.14313918
0003c0 d7 bc 15 be e8 22 bc 3d 02 f8 20 be cc bc 42 3d
       -0.14622818 0.09186345 -0.15719607 0.047543332
0003d0 6a d5 4d 3d 44 4d fd bd 84 e2 12 3e 20 66 be bc
       0.050252356 -0.12368253 0.14344221 -0.023242056
0003e0 d7 b1 7c be a5 46 0d be 28 f3 2f 3d c4 40 c2 bd
       -0.24677216 -0.1379648 0.0429565 -0.09485009
0003f0 e6 1a ad bd 4a 9f 59 3e 00 07 4c bb c6 3e 33 be
       -0.08452396 0.2125217 -0.0031132102 -0.17504415

linear1.bias f4 [50]
000000 f8 00 3d bd 7c 0d 99 3e e4 87 22 3e 37 93 1c be
       -0.046143502 0.298931 0.1587215 -0.15290533
000010 1d 3f 2d be 7f 54 29 3e d2 72 2d 3e 3c c2 99 3e
       -0.16918607 0.16536139 0.16938332 0.30031002
000020 f9 4c 05 be 5f 70 4e be 5e ba 44 3e 47 02 16 bc
       -0.13017644 -0.20160054 0.19211718 -0.009155816
000030 87 f7 e7 3d d0 eb 23 3e d6 1e 50 3e e1 cd fb bc
       0.11326509 0.16007924 0.20324263 -0.03073782
000040 fc dd 65 be 46 32 b7 bd 3b f4 5d 3e d2 2d 25 3e
       -0.22447962 -0.08945136 0.21675198 0.1613076
000050 9f fe ec 3d ae e2 95 bd fc 5c 37 3e 34 38 9f bd
       0.115720026 -0.07318626 0.17906564 -0.07774392
000060 82 bd 62 be 00 3f 50 bc 44 36 e4 3d d0 1d 4e be
       -0.22142604 -0.012710333 0.11143163 -0.2012856
000070 3e b9 65 3e 5a 4e cd 3c 0e 88 48 3e 78 e6 f4 3d
       0.22433946 0.025061775 0.1958315 0.11958021
000080 ee f0 96 be 25 61 fc bc 92 2f 0b bd 24 b6 9b bd
       -0.2948069 -0.03080804 -0.033980913 -0.076031
000090 1a 9c 06 bd 41 43 0a 3e 51 07 2e 3e 31 2a 4a 3d
       -0.032863714 0.13502218 0.16994978 0.049356643
0000a0 cc 8e 29 bd 09 2a 40 be 89 20 9f 3e 02 ca 90 bd
       -0.041395947 -0.18766035 0.3107951 -0.0706978
0000b0 4a 45 28 be de b5 c0 bd d4 06 2c be e4 28 db 3b
       -0.16432682 -0.094096884 -0.1679948 0.006688224
0000c0 65 a3 35 3e 4e 05 6e 3e
       0.17738111 0.23244211

linear2.weight f4 [50, 50]
000000 fe 50 a3 bd 95 39 82 bd 3b ce 00 be 84 b1 d4 3d
       -0.079744324 -0.06358639 -0.1257867 0.10385421
000010 36 65 95 3d 1e 11 34 bb 94 03 00 be ae 65 52 3d
       0.07294695 -0.0027476023 -0.12501365 0.0513665
000020 68 b5 41 3d 13 9b a5 bd c0 42 0f 3b b9 4d 42 bd
       0.047292143 -0.08086219 0.0021859854 -0.047437403
000030 ca 3c 4d bd a8 b8 b7 3c 80 86 e5 3a f7 14 93 3d
       -0.0501068 0.022426918 0.0017511398 0.07181733
000040 4f b3 ba bd 80 1c 88 3a 03 80 11 bd 48 ad 0a 3d
       -0.09116232 0.001038447 -0.035522472 0.03385666
000050 4e 78 64 3d c9 32 1f bc 2c 48 c7 bc a0 ec ed 3c
       0.055778794 -0.009716698 -0.024326406 0.029043496
000060 72 03 b7 bd ca f9 fe bd f0 6f 81 bd e0 a0 09 3d
       -0.08936204 -0.12449987 -0.063201785 0.033600688
000070 01 a8 ed bc 84 61 5d 3d 77 2f ad bd 77 d8 ce bd
       -0.029010775 0.054048076 -0.08456319 -0.10099881
000080 58 fd 20 bd 50 0a 48 3d 68 09 4b 3d 90 12 25 3c
       -0.039304107 0.04883796 0.049569517 0.010075226
000090 db d1 86 3e 98 0e da 3d fb 07 22 bd c1 a2 97 3d
       0.26331982 0.10647315 -0.039558392 0.0740409
0000a0 27 82 7f bd 97 1c 52 bd 3c ac 97 3d 12 75 0b 3e
       -0.062379982 -0.051296797 0.07405898 0.13618878
0000b0 f0 08 d9 3d a8 43 12 3e 00 5b 1d 3c 1b 46 3c 3c
       0.10597408 0.14283621 0.009604216 0.011491324
0000c0 c2 04 c4 bc 30 e5 2f 3d 2d f2 06 be 19 9e 28 3e
       -0.02392805 0.04294318 -0.1317832 0.1646656
0000d0 80 ed 4d bc c6 34 6c bd 96 d4 61 bc 67 63 3b 3e
       -0.012568831 -0.057667516 -0.013783595 0.18299638
0000e0 36 19 e0 3d b3 36 cc 3d 8e 6c e5 bd c2 56 5b bd
       0.109423086 0.099713705 -0.11202346 -0.053549536
0000f0 70 e1 e3 bc b8 72 ed 37 85 6b e3 3d 97 58 02 be
       -0.027817458 2.8306022e-05 0.11104492 -0.12729107
000100 b2 c6 fd 3d f6 87 80 bd b4 db 1d bc 90 55 0b be
       0.12391414 -0.062759325 -0.009634901 -0.13606858
000110 7c 25 ad 3c 28 48 f2 bc ce 3b 1f 3e b1 5d 29 3d
       0.021136038 -0.029575422 0.15550157 0.041349117
000120 cc 34 2c 3d 7c 92 6b 3d f4 05 a8 bd a8 42 d6 3c
       0.04204254 0.057512745 -0.082042605 0.026154831
000130 34 37 37 3d 54 b8 5f bd e2 74 24 3e 1e 15 5a 3e
       0.04473038 -0.05461915 0.16060212 0.21297118
000140 78 de eb 3c 04 4b 5b bd 24 6f 42 3e 2d a3 23 3d
       0.028792605 -0.053538337 0.1898771 0.03995054
000150 37 88 e1 3d 70 ad 4d bc 7c a7 40 bc b2 ac d1 3c
       0.11012309 -0.012553558 -0.011758681 0.025595043
000160 82 0c 33 bd b6 6f 1f 3d c2 61 91 3c c3 f8 ed 3d
       -0.0437131 0.038924895 0.01774681 0.11619713
000170 6b 98 25 3e 62 a4 d6 3d cc 3b 01 3e c5 ad 39 3e
       0.16171424 0.10480572 0.12620467 0.18132694
000180 2e 66 10 be d7 e6 06 3e 62 06 07 3e 9e 62 37 bd
       -0.14101478 0.13173996 0.13186029 -0.044771783
000190 76 45 50 bd 44 1b ed bd 87 6f 8c bd c5 a4 b8 3d
       -0.050847493 -0.11577466 -0.0685721 0.09015802
0001a0 58 09 8c 3c 2e c2 ae bd b4 10 c2 bd 0a 11 65 3d
       0.0170943 -0.085331306 -0.09475842 0.055924453
0001b0 8c aa 29 bd fc fb 1d 3d 74 64 22 3d 8a bf e7 bd
       -0.04142241 0.03857039 0.03964658 -0.1131583
0001c0 24 0e 1b be c0 a6 d5 3c 40 d4 a5 bc 5c 2d 01 3c
       -0.15142113 0.02608049 -0.02024281 0.00788435
0001d0 59 89 3a bd a4 a1 dc bc 5f d6 3d 3d b8 f7 08 3d
       -0.04554114 -0.026932545 0.04634702 0.033439368
0001e0 c4 8b fd 3d 58 9d 20 bd e0 73 78 bc e2 5e f9 3d
       0.12380174 -0.039212555 -0.0151643455 0.121763006
0001f0 8d 95 99 bd fb 82 a5 bd 90 50 4c 3d a0 9f a4 3c
       -0.07499228 -0.08081623 0.049881518 0.020095646
000200 47 cd f6 bd 89 4e 41 3d d4 4b 8c bc c7 da f4 3c
       -0.12050872 0.047194038 -0.017126001 0.029889477
000210 4b 52 28 bd 59 de 87 bd 0c 43 d7 bd 19 19 bd bd
       -0.041094106 -0.06634206 -0.10510835 -0.092333026
000220 2b 6a 01 3c 04 79 b4 bd db 51 a7 3d 97 55 e2 bc
       0.007898848 -0.088121444 0.081699096 -0.027628703
000230 ca d5 fe 3d a7 7b d2 3c 9b 92 fc 3b a5 00 4a 3d
       0.12443121 0.025693728 0.0077079064 0.04931702
000240 f5 c8 d8 3d 40 d3 61 3d 00 08 39 ba ad 36 a6 3d
       0.105852045 0.055133104 -0.0007058382 0.08115897
000250 98 f2 eb bd df c3 3a 3a c1 a1 03 3e 74 81 0a be
       -0.115208805 0.0007124524 0.12854673 -0.13525945
000260 e4 ce 24 bd e0 ea a5 bb 3c 43 e8 bd 24 68 99 3d
       -0.04023637 -0.0050633997 -0.11340949 0.074905664
000270 50 f6 cc 3d 24 de 0b 3d 47 df 04 be fa 72 ae bd
       0.10007918 0.034147397 -0.12975799 -0.08518024
000280 a4 12 6f 3d a2 d6 43 bd da 77 dc bd e6 60 c6 bd
       0.058367386 -0.04781211 -0.10765047 -0.09686451
000290 08 eb cd 3c c5 5c fe bd a8 69 2c 3d 00 3e 69 ba
       0.025136486 -0.12420038 0.04209295 -0.00088974833
0002a0 ea 76 ff bd 40 5a 48 bc c7 85 d7 bd 62 35 10 be
       -0.12473853 -0.0122285485 -0.10523563 -0.14082864
0002b0 00 03 81 bb 2a 04 81 bd cc c0 0b be 34 1e 84 3d
       -0.003937125 -0.06299622 -0.13647765 0.06451073
0002c0 20 17 0a be b9 3d 0c 3e 70 70 74 3c 5c bd 9b bd
       -0.13485384 0.1369542 0.014919385 -0.07604477
0002d0 ce 8e fd 3d a7 c5 10 be 08 22 d3 3c 58 cb 5f 3d
       0.123807535 -0.14137898 0.025773063 0.054637283
0002e0 ff 85 84 bd 61 26 8d bd 03 90 97 bd 08 a2 af bd
       -0.0647087 -0.06892086 -0.07400515 -0.08575827
0002f0 ec ef a0 3d f0 ab 0a 3d 98 6e 4d 3d ed 53 05 3e
       0.078582615 0.03385538 0.0501543 0.13020296
000300 a6 8b aa bd f1 6d df bd 5a 80 e0 3d 8a 14 f6 3d
       -0.08327417 -0.109096415 0.10961981 0.12015636
000310 8f 8c 9c bd b0 a5 5b bc 78 04 ad 3c 1a cc 5e bd
       -0.07643997 -0.013406202 0.021120295 -0.054393865
000320 88 f6 ba 3d 97 ab d2 bd 04 e5 95 bd 1b 45 d4 bb
       0.09129053 -0.102866344 -0.07319072 -0.0064779646
000330 e1 bb b3 bd 2a 89 91 3d 04 5c c1 bd ce 57 80 3c
       -0.087760694 0.0710624 -0.09441379 0.015666869
000340 5e e4 8f 3d bf 12 9a bd e0 52 63 bd 44 4f f0 bd
       0.070259795 -0.07523107 -0.055498958 -0.11733869
000350 d6 c1 f7 bd 9e b4 f6 3d e2 05 20 bd 08 51 1a bd
       -0.12097518 0.12046169 -0.03906811 -0.037674934
000360 b1 be 86 3c cc c4 4c 3d 36 cf a5 3d 50 56 d8 3d
       0.01644835 0.049992368 0.08096163 0.10563338
000370 1f 58 47 bd 56 4d 17 3c 16 d1 d7 bd d4 9e ab 3d
       -0.048668023 0.009234747 -0.10537927 0.083799034
000380 00 49 7f 3b 76 12 b0 bd 84 08 0c be 10 8b ee bd
       0.0038953424 -0.08597271 -0.13675123 -0.11647618
000390 d0 62 df 3d ee 32 07 be 94 c1 30 3d e8 18 a0 bd
       0.10907519 -0.13203022 0.04315336 -0.078172505
0003a0 c7 53 c4 3d 19 20 12 be 47 e2 bf bc 98 44 0f be
       0.09586292 -0.14270057 -0.023423327 -0.1399101
0003b0 ae 41 00 bd 46 03 c5 bd 44 7c d0 3c 49 a6 23 3d
       -0.031312637 -0.09619765 0.02544988 0.039953504
0003c0 6a 68 c0 3d 37 41 e3 3d 82 00 52 bd 6f fd 59 3d
       0.093949154 0.11096423 -0.051270016 0.05322021
0003d0 0d 5b e3 bc e8 da 06 be a8 07 18 bd ee c5 8b bd
       -0.027753377 -0.13169444 -0.037116677 -0.068248615
0003e0 1a 61 60 3d 28 d5 68 bd d0 d8 91 bd 80 c9 0c 3e
       0.054780103 -0.056843907 -0.07121432 0.13748741
0003f0 58 87 7c 3d 4e 40 bc 3d 1f 98 a5 3d 19 94 6a bd
       0.06165251 0.09191953 0.080856554 -0.057270143

linear2.bias f4 [50]
000000 a1 bb e2 3d af 4f fb 3d c3 52 00 3e 44 63 2f bd
       0.110709436 0.12271058 0.12531571 -0.042819276
000010 0d bb 36 3d 3e 1a c6 bd 34 5b fd bc 64 1f 0b 3d
       0.04461198 -0.09672974 -0.030927278 0.033965483
000020 61 b2 6b bc 8d 4a 27 3e 98 aa c0 bd ea 24 cc bd
       -0.014385791 0.16337033 -0.09407538 -0.09967978
000030 68 36 d7 3c 01 ad df 3d 18 12 e0 bd 3b 28 00 3e
       0.02627106 0.1092167 -0.10940951 0.12515347
000040 d3 f2 a9 bc 38 2c 1b 3d de c6 99 3d 43 24 91 3d
       -0.02074567 0.037883967 0.07508634 0.070869945
000050 70 0f 9a 3d 44 7a 2c 3d a8 29 cf 3c 2c 05 fd 3d
       0.07522476 0.04210879 0.025288418 0.12354502
000060 24 4d ec 3c 0d a2 60 3c 3c a3 c3 bd 90 f7 ef bc
       0.028845377 0.013710511 -0.09552619 -0.029292852
000070 4e 1e cf 3d 0a d3 90 3d 65 e4 66 3d 4b 54 08 bd
       0.10113202 0.070715025 0.056370158 -0.033283513
000080 15 90 b6 3d 00 5b 6d ba 3f f5 cc 3d cd 70 11 3e
       0.089142 -0.00090543926 0.100077145 0.14203186
000090 e1 4f d3 3a 88 1d db bc ec c6 c8 3d b2 4c f2 3d
       0.0016121828 -0.02674748 0.09803566 0.11831035
0000a0 41 57 05 3e 88 0a d2 3c 87 94 ce 3c 0d 75 f0 bd
       0.13021566 0.025639787 0.025217308 -0.11741076
0000b0 80 77 31 bd 14 b0 14 bd 65 27 05 3e 20 6b a1 3d
       -0.043326855 -0.036300734 0.13003309 0.078817606
0000c0 f1 42 ce bd 97 72 01 3d
       -0.10071362 0.031603422

linear3.weight f4 [13, 50]
000000 9e a6 12 3e df 37 fb bc 82 46 c9 3d 88 aa 90 3d
       0.14321372 -0.03066629 0.098279014 0.07063776
000010 a4 67 e1 3d 55 d9 a6 bd c5 d0 03 be 90 f2 2b bd
       0.11006096 -0.081469215 -0.12872608 -0.041979373
000020 9c b9 98 bd 0b a0 1d 3d d5 99 01 3d d0 31 b4 bd
       -0.07457277 0.038482707 0.031640846 -0.087985635
000030 49 15 00 be c8 ea 0a 3e a0 d9 aa bc d0 1b 03 3c
       -0.1250812 0.13566124 -0.020855725 0.0080022365
000040 ea 83 4f bc 3e b3 ab bd c8 31 92 3d 00 6e 5f 3d
       -0.012665728 -0.08383797 0.07138401 0.054548264
000050 2e 80 d3 bd 18 24 01 3d 70 52 ab bc 2a 33 de 3d
       -0.10327183 0.031528562 -0.020913333 0.108496025
000060 15 7c 1c bd d9 2e 18 3e ad 10 dc bd 07 c4 0c 3e
       -0.03820427 0.14861621 -0.10745368 0.13746653
000070 3a ac 74 bd 84 a0 7c bd d2 52 9a bd 21 45 96 bd
       -0.05973456 -0.061676517 -0.07535328 -0.07337404
000080 98 69 d8 3d 32 f5 89 3d 5f fa 3b bd ac 42 0d bd
       0.105670154 0.067362204 -0.04589307 -0.03448741
000090 c3 2c f4 bd b5 11 ff bd 00 d2 6f 3a b1 96 b2 bd
       -0.119226 -0.12454549 0.0009148419 -0.08720148
0000a0 e0 f5 ae bc 62 6b 9b 3d ae bb ac bd 03 93 46 3d
       -0.021357477 0.07588841 -0.084342346 0.048480045
0000b0 a6 44 6f 3d 3f b3 a4 3c 82 16 ef 3d 23 48 1d bd
       0.058415078 0.020105002 0.11674215 -0.038398873
0000c0 75 41 ac bd 3f a7 e7 3d 91 7d 43 3d 75 b8 b5 bd
       -0.084109224 0.113111965 0.04772717 -0.08873073
0000d0 c4 82 17 3c b0 5f 80 bc f3 35 ee bd 2e bc f7 3d
       0.009247486 -0.015670627 -0.11631384 0.12096439
0000e0 d6 e4 9a 3d b3 6f f5 bd 17 62 94 3d 43 e1 46 bd
       0.07563178 -0.119841956 0.07245272 -0.04855467
0000f0 f7 89 ad 3d 40 f5 05 be d4 20 c5 bd 71 78 35 bd
       0.0847358 -0.13081837 -0.09625402 -0.044304315
000100 ea c9 d2 3d 8a 78 9f bc 6e d1 8e bd a4 82 f2 bc
       0.10292418 -0.019466657 -0.06973539 -0.02960331
000110 f4 78 15 3d d0 92 c6 3c ad b3 c1 bd 40 99 1d bd
       0.036492303 0.024239928 -0.094580986 -0.03847623
000120 18 b8 af 3d 7f 06 a2 bd 55 9a dd bd fb 49 2f 3e
       0.08580035 -0.07911395 -0.10820452 0.17118065
000130 64 b7 ca 3d 8a 9b f7 bd 6c ac 38 bd e0 27 ed 3b
       0.0989826 -0.120902136 -0.04508631 0.0072374195
000140 c3 46 2c 3e f1 be c1 3d 42 8d a4 3d 88 5c b6 bc
       0.16823868 0.09460247 0.08034755 -0.02226092
000150 ef 86 f4 bd 46 74 a6 3d 04 d7 19 3d 85 cd dc 3d
       -0.11939799 0.08127646 0.03755857 0.10781387
000160 7a c5 f9 bd 0d 2b 41 3b 0c 18 6a 3d a0 98 d8 3b
       -0.12195869 0.0029475123 0.05715184 0.006609991
000170 8d f7 8a 3d cb 1e 3f 3c c1 71 b2 bd 2c 28 01 3d
       0.06785498 0.011665056 -0.08713103 0.03153245
000180 ea a1 e6 bd 29 5a 97 3d 44 6f 24 3e 50 db b4 bc
       -0.112613514 0.073902436 0.1605807 -0.022077233
000190 47 0a 92 3d 6a de 92 bd 59 91 4e 3c 82 cf e7 bd
       0.071308665 -0.07171328 0.012607896 -0.11318876
0001a0 19 e4 ac bd 4f 50 68 3d 78 9e 79 3d 6f 46 ce bd
       -0.08441944 0.056717213 0.060942143 -0.10072028
0001b0 33 07 a8 bd 87 4b 0a 3d a8 f4 55 bd 74 32 bf bd
       -0.08204498 0.033763435 -0.052235276 -0.09335795
0001c0 3c 92 d5 3b ac ae 07 3e f0 ca 22 3d 1b 99 64 bc
       0.0065176766 0.13250226 0.039744318 -0.013952519
0001d0 38 35 e7 3d ae d4 dd 3d 14 c1 cc bd 72 d7 68 bd
       0.112894475 0.10831581 -0.09997764 -0.05684609
0001e0 0f 4c 76 3d a0 1a 80 3b dc c8 bc bd ea 47 ae 3c
       0.06013113 0.003909424 -0.092179984 0.021274526
0001f0 73 d8 b4 bd 10 de 18 bd 4c 5c 26 3d 1e 5f 08 bd
       -0.08830347 -0.03732115 0.040615365 -0.033293836
000200 68 d6 0c bd e4 ae 6a bd c1 87 6c bd ef 98 f9 bd
       -0.03438416 -0.057295695 -0.057746653 -0.12187373
000210 81 75 c0 3d e6 05 b1 bd 89 d9 05 bd 86 4e 69 3d
       0.09397412 -0.08643703 -0.03267816 0.05695965
000220 59 a2 02 3e 71 ff 00 3e 22 b5 d1 3d b6 51 dd 3d
       0.12757243 0.12597443 0.102396265 0.10806601
000230 de 00 b9 bd 90 a7 29 bd a1 f4 7d bd 47 78 98 bd
       -0.090333685 -0.041419566 -0.062000874 -0.07444816
000240 cb 95 10 3d 39 2d 45 bd 68 7d a8 3d 18 7d 83 bc
       0.035299104 -0.04813883 0.08227044 -0.01605086
000250 e8 8a 85 bc af 57 0e be 84 ac 78 bd 83 e3 1a be
       -0.016301587 -0.13900636 -0.0607114 -0.15125851
000260 13 5d 03 3c 78 12 85 3d fc aa 6f bd d5 45 03 be
       0.008017796 0.06497663 -0.058512673 -0.12819608
000270 96 d9 80 3d b9 e3 99 bd ed 75 80 3d de 97 8a 3d
       0.06291501 -0.07514138 0.062724926 0.067672476
000280 e5 3f a5 bd 94 8e 97 3d fc 3f 6f 3c f9 b7 23 3c
       -0.080688275 0.074002415 0.014602657 0.009992593
000290 38 e5 a1 3d dd 48 62 3d 7f ab 3b bd 00 00 69 b7
       0.07905048 0.05524527 -0.04581785 -1.3887882e-05
0002a0 f9 0b 9b bd 49 61 d3 bc dc 7f 30 bd 30 66 61 3c
       -0.07570643 -0.025803225 -0.043090686 0.013757274
0002b0 d8 c6 07 bd 8a ba 00 be 0e 6e 08 3e 29 cb 75 3d
       -0.033148617 -0.12571159 0.13323233 0.0600082
0002c0 78 65 35 bd c4 50 66 3d 2c ef a0 bd 50 5e 4d 3c
       -0.04428622 0.056229368 -0.078581184 0.012534693
0002d0 a6 93 bf 3c 2d da d5 bd 1f 9d b5 bd 00 b8 a6 3b
       0.023385834 -0.10442004 -0.08867859 0.0050878525
0002e0 7a cd 95 3d 8e 3c bb 3d b0 fd 08 bd 64 8e 0c be
       0.07314582 0.09142409 -0.03344506 -0.13726193
0002f0 4d 6a 9b bd df 8b 23 3d 30 a2 54 bc 75 13 0b be
       -0.07588635 0.039928313 -0.012978122 -0.13581641
000300 90 36 81 3c 50 fd 85 bc c5 e1 80 bc 3c 4e 4e bb
       0.015773088 -0.01635614 -0.015732655 -0.0031479737
000310 c0 06 d9 bb 68 ac fe bd 49 b4 d3 3d f2 ef 09 3d
       -0.006623119 -0.12435228 0.10337121 0.033676095
000320 e4 58 bc 3d 37 41 7f bc 41 5c 60 3d 49 e5 a6 bd
       0.09196642 -0.015579513 0.05477548 -0.081492014
000330 11 a7 85 bc b3 cc 8f 3d 4f 81 9c bd 26 37 98 3d
       -0.016315015 0.07021465 -0.07641851 0.07432394
000340 11 49 04 3e e5 80 8d bd fe 90 02 3e 10 07 66 bc
       0.12918498 -0.0690935 0.12750623 -0.01403977
000350 02 6b bf bd df 1f ce bd 22 b3 f1 3d 48 7d 98 3c
       -0.09346582 -0.10064673 0.11801745 0.018614426
000360 91 6b 6b 3d bc 07 0a be 50 60 29 3e 15 67 80 bc
       0.05747563 -0.13479513 0.16540647 -0.015674153
000370 de 3e 04 3d f0 37 a4 bc 18 f8 ac 3c 1a 3c 19 bd
       0.032286517 -0.020046204 0.021114394 -0.037410833
000380 31 39 1c 3d d1 7b 18 bd 52 bd 22 bd 7c a4 ef bc
       0.03814048 -0.037227456 -0.03973133 -0.029253237
000390 00 0b 5e 3c 64 0d 2c 3d db ba 2e bd 44 46 df bd
       0.013552427 0.042004958 -0.042658668 -0.10902074
0003a0 fc f0 a8 3d 52 df 83 3d d8 8f 8e 3d 19 7f 0d 3e
       0.08249089 0.06439079 0.0696103 0.13818015
0003b0 68 56 de bd a1 bd 30 3d 35 d5 c8 bd 0d b8 bc 3d
       -0.108563244 0.043149594 -0.09806291 0.092147924
0003c0 58 4e 4c bd 3f 98 84 bd 29 25 31 3e 34 44 39 3b
       -0.049879402 -0.06474351 0.17299332 0.0028269412
0003d0 48 69 17 bd 07 90 45 3d dc ec c1 3d 67 f7 2e bd
       -0.03696564 0.04823306 0.094690055 -0.04271641
0003e0 e5 a5 e5 bd 92 94 23 3e 4c eb 0f 3e 3f 96 c9 bd
       -0.112132825 0.15974644 0.14054602 -0.0984311
0003f0 58 33 03 3e 4c cd 09 bd 9e 3f 09 3e 10 96 9b bd
       0.12812555 -0.033643052 0.13403174 -0.075969815

linear3.bias f4 [13]
000000 70 71 f8 bd 3b e4 b7 3d cb a1 23 bd 29 7e 5a 3c
       -0.121310115 0.089790784 -0.03994922 0.013335743
000010 6c 67 1f 3d b3 8c 48 3d 2a 24 01 3e 24 41 f6 bc
       0.03891699 0.048962306 0.12611452 -0.030060358
000020 69 ba 06 3e fe b0 4a bd 7f 6f 6f 3d bb 92 f0 bd
       0.13157047 -0.0494852 0.05845594 -0.117467366
000030 52 5f 02 3d
       0.031829186
