model.pth (torch, 2188 bytes, 2 tensors)

linear.weight f4 [13, 13]
000000 4f 00 96 bd a9 2c 50 bc 98 06 d3 bd 72 d6 30 3e
       -0.073242776 -0.01270596 -0.10303992 0.17269304
000010 c7 69 4d 3e 2e 9a ca 3d 72 4e 82 bd e1 57 1a be
       0.20059882 0.09892689 -0.063626185 -0.15072586
000020 8f c3 48 3e 12 fe 63 3e 22 fa 85 bd 5b de 0f 3e
       0.1960585 0.22264889 -0.0654185 0.14049666
000030 3a 48 f7 3c 98 67 6c 3e 65 11 b8 3e cf 44 73 bd
       0.030185807 0.23086393 0.3595077 -0.059391793
000040 cc 3e 65 3d 7a e8 18 bd 74 a8 be 3e 37 08 c8 3e
       0.05596809 -0.037331082 0.37237895 0.39068767
000050 0f 52 08 bd 47 51 c3 3d 9e 9a 10 be 10 92 16 3e
       -0.033281382 0.09536987 -0.14121482 0.14704156
000060 c6 da b3 3e e4 f8 ad 3c fc e4 bf bd 6f c1 af 3d
       0.35127848 0.021236844 -0.09369847 0.085818164
000070 81 8e 22 bd 94 96 7c 3e a9 64 dd bd e9 be 4c be
       -0.039686684 0.24666816 -0.10810215 -0.19994701
000080 11 67 49 3e 2d fb 51 bd 9e d2 b5 3d cc fd 6a be
       0.19668223 -0.05126493 0.08878063 -0.22948378
000090 67 8f 4e 3e 7f bf 52 3d ff b2 92 bd 58 d5 30 be
       0.20171891 0.051452156 -0.07163047 -0.17268884
0000a0 09 ea 8e be 58 d9 59 3d da bf 6d 3e de 22 fa 3d
       -0.2791293 0.05318579 0.23217717 0.12213682
0000b0 e0 74 40 3d fc e4 f5 bd fc 57 b9 3d 44 f1 e4 bd
       0.04698646 -0.12006566 0.09049985 -0.1117883
0000c0 b1 ee a3 bc 62 31 d7 3d ff ec 66 3d b9 95 15 be
       -0.020011278 0.10507466 0.05637836 -0.14607896
0000d0 c7 da c7 bd 52 f7 b2 bc fe 00 6d bd be 53 43 be
       -0.09758525 -0.021846447 -0.057862274 -0.19074914
0000e0 cc 41 4b 3e ac bb df 3c 34 05 2c 3d b4 7e 87 3e
       0.19849318 0.027311169 0.04199715 0.26463854
0000f0 16 ee 5c be 71 bf a9 bc 02 bb 90 3e 5c a5 76 3e
       -0.21575198 -0.02072117 0.28267676 0.24086517
000100 b8 f2 f8 3b 36 1f 89 3e 1e 3f 6e be 25 e8 0a 3d
       0.0075972937 0.26781625 -0.23266265 0.033912797
000110 ae 5d 1e 3e 22 22 b9 3d b7 14 44 3d 51 02 b9 bd
       0.15465423 0.090397134 0.047871318 -0.09033645
000120 5f 04 6a 3e b4 80 5c 3e ee cb b9 bd 60 a1 09 be
       0.2285323 0.21533471 -0.090720996 -0.13440466
000130 ce e5 97 3d c6 68 2e 3d f9 3f 52 bd 48 e2 83 bb
       0.07416879 0.04258039 -0.05133054 -0.0040247776
000140 a0 6a 10 be 16 f5 bd 3d a3 2b 29 be cb 4e 8a be
       -0.14103174 0.09275262 -0.16520552 -0.2701324
000150 8c e9 37 be 65 be 5f 3e 34 eb 01 3c 77 f3 86 3e
       -0.17960185 0.21849973 0.007929612 0.26357624
000160 00 0a b2 3d 7b 79 8e 3d 7d 0b e9 3b c6 11 a1 3e
       0.086933136 0.06956764 0.007111965 0.31458873
000170 14 f4 a9 3e cb 25 90 3d 66 78 25 3e e4 b6 1a be
       0.3319403 0.070384584 0.1615921 -0.1510883
000180 2f 56 7b 3e 35 12 25 3e 42 26 e2 bc 20 e1 fc bd
       0.24544595 0.16120227 -0.027606133 -0.12347627
000190 31 fe 5c 3e 1b 1c 98 3e e4 ec f2 bd 12 8c 60 3e
       0.21581341 0.29708943 -0.118615896 0.21928433
0001a0 cf 79 ad bd fc 2f 96 be 57 6b 09 3e 25 40 ea bd
       -0.08470499 -0.29333484 0.13419853 -0.11438016
0001b0 1e f5 c2 3d f8 b6 ed bd 02 a4 88 bd 65 29 24 3e
       0.09519409 -0.11607164 -0.06671907 0.16031416
0001c0 b2 54 8e be b9 44 c0 3b 04 22 51 bd ce e6 5e be
       -0.27798992 0.0058675674 -0.05105783 -0.21767733
0001d0 f1 88 e5 3c 0f 5a 75 3a bd 22 c8 bd 8a 0b 8f 3e
       0.0280194 0.0009359428 -0.09772251 0.2793849
0001e0 64 c9 16 3e 31 af 21 be cc 8b 25 3d 06 44 d4 bd
       0.14725262 -0.15789486 0.040416524 -0.10364537
0001f0 4d 4d 11 3e 98 b0 f3 bd b3 9d d7 bd ab 78 29 be
       0.14189644 -0.11898917 -0.105281256 -0.16549937
000200 39 45 cc 3d 80 dc 36 3e 6f c0 34 bd d1 34 b2 3e
       0.09974141 0.17857552 -0.04412883 0.3480592
000210 99 5b 5d 3e 89 da c9 be 26 0c ce 3e 88 77 f1 3e
       0.21616973 -0.39424542 0.40243644 0.47161508
000220 d9 14 62 3e 41 bb 97 3e 03 d0 d6 3e 41 8a a9 3e
       0.22078265 0.2963505 0.41955575 0.33113292
000230 f4 3e 06 3e 0f bc 9a 3e 67 b1 2d 3e c2 b4 bd bd
       0.13109952 0.30221602 0.16962205 -0.092629924
000240 20 64 9f 3d 1c 87 24 3e e2 aa 7a 3e 50 3f b5 3d
       0.07782769 0.16067165 0.24479249 0.088499665
000250 2f 84 60 be 02 b7 6e be 90 fe 98 3d 7d 9a 15 3e
       -0.21925424 -0.23312 0.07470429 0.14609714
000260 ae 73 6e 3d 77 f1 fc bd e4 77 c5 bd 8d a1 b3 3d
       0.05821579 -0.12350743 -0.09642008 0.08771048
000270 55 84 2d 3e e2 9f 45 3e b9 5b 3c 3e ce 38 0c be
       0.16945012 0.19299272 0.18394364 -0.13693544
000280 d6 da 13 3e 90 fc 85 3e 4d 9f 80 3e c9 11 fc 3d
       0.14438948 0.26169252 0.25121537 0.1230808
000290 ef 70 b6 3e 29 ec 59 3e 99 d5 1f 3f a4 51 08 3f
       0.35633036 0.21281494 0.624353 0.53249574
0002a0 c9 13 8a 3e
       0.2696822

linear.bias f4 [13]
000000 e9 9f ff bc a7 eb c1 3e 39 ed 20 bd ce ba 7a bc
       -0.03120418 0.378751 -0.039288733 -0.015303327
000010 64 4d 3e be df ad c5 3d bd 33 21 3e e0 58 13 3c
       -0.1858421 0.09652304 0.15742393 0.008993357
000020 00 09 43 be 2a 13 24 be 85 5a d9 3e a6 7a ca bd
       -0.19046402 -0.16022936 0.42451873 -0.098866746
000030 e7 c4 a1 3e
       0.31595537
