treated_ECG/best_model.pth (torch, 25139 bytes, 2 tensors)

fc1.weight f4 [15, 400]
00000000: 46e2 9d43 b3e4 3a43 7c1a 6f41 468b ccc1
00000010: 4256 c3c2 21f6 1ec2 0879 b442 8376 2b43
00000020: eed0 c143 ace0 fb43 caa3 1844 7ce5 0a44
00000030: 9a7a ff43 1eba cd43 759f 4b43 0940 5f42
00000040: 5f6f 5dc2 5b2c 5cc2 b875 88c1 8417 7542
00000050: 0774 8342 44f7 0543 333e bc42 2420 9041
00000060: 18d0 c3c2 e56e 5ec3 1eeb bbc3 8b08 f4c3
00000070: e2b0 fbc3 e04d 07c4 0238 c7c3 f24a 80c3
00000080: f086 afc2 b494 d9c0 948b ab42 3eac 1943
00000090: 6ff5 1143 1d10 c442 dcb6 9341 053a dbc1
000000a0: 44b4 9b40 b16f 5a41 469d 2742 0529 1043
000000b0: bd1f 2d43 1af9 4643 dcf6 3f43 ef57 3143
000000c0: 999d da42 17e5 d142 5c76 9742 36f8 ca42
000000d0: 23fd 0143 8a55 2643 9d76 3443 bfe5 3d43
000000e0: 9c93 ea42 51dc 5a42 0872 96c1 fec6 e0c2
000000f0: ca4e f6c2 b0e0 33c3 b49c 56c3 be6a 17c3
00000100: de71 bcc2 7494 65c0 8ef8 c142 1d3b 1243
00000110: 21d5 4943 9fdd 0143 7d3e 9e42 1378 28c2
00000120: f043 07c3 1086 58c3 d50a 4dc3 5936 4ec3
00000130: 3259 1dc3 9963 eec2 31bc 89c2 d859 8e41
00000140: 769d 4e42 6fcc de42 b9a0 fc42 8363 0843
00000150: 18bb 2643 a993 0543 75f6 1b43 4629 0943
00000160: 7dae d542 e36e 9342 a30a 9641 c060 dcbe
00000170: 1eb8 2fc2 ba57 91c1 7bb0 32c2 f63e 54c2
00000180: f07d a0c2 bd9f 4dc2 6b7d dbc2 fc57 17c3
00000190: 0e63 2ac3 d600 2dc3 94fc 2bc3 d309 c6c2
000001a0: 292e 3742 a1de 6843 3ead a043 abca ca43
000001b0: f658 e543 c436 ce43 2619 8243 9f9d 9842
000001c0: 699a c9c2 c2b8 d6c3 1458 08c4 c4b7 12c4
000001d0: 0a50 fdc3 0ad1 a2c3 6c26 cfc2 61ad 0243
000001e0: 4f79 6943 8290 ac43 3c0b be43 ac81 0544
000001f0: 470a c343 feae 6743 1f0f 1243 f4c4 4e42
00000200: 90be 34c1 ca3e 2642 083d 1843 f891 7343
00000210: 4022 ba43 cead cb43 131f b643 be8e 5c43
00000220: 607d 8541 38d6 6cc3 39a5 e2c3 3529 29c4
00000230: 1308 4ac4 8e86 54c4 230b 5bc4 e816 4fc4
00000240: d1be 2fc4 ab97 0ec4 a943 dbc3 2f85 b9c3
00000250: 5e54 9fc3 b091 9dc3 3451 a3c3 bd68 9fc3
00000260: 1887 b1c3 0f57 b2c3 0b0d 97c3 3e80 66c3
00000270: 2747 1fc3 37c8 18c2 c795 4242 bdd1 6a42
00000280: ac33 c542 e45f 0c43 2d3b 0043 6e2a 8842
00000290: b273 7d40 645f cac1 410d 30c2 c1df 0942
000002a0: 70dc 3841 ef50 8ac1 f605 9dc1 8ec8 9cc1
000002b0: a7bf e9c1 01da edc1 354a a8c1 44bd 74c1
000002c0: 0021 cac0 2339 e541 c2e2 8642 6ac5 d542
000002d0: ea52 62c2 f796 0fc2 bd3b fbc1 5b66 6cc2
000002e0: 90ff 8fc2 c8c1 86c2 824b 9ec2 659d b3c2
000002f0: 11aa bac2 d370 c1c2 f1b5 77c2 4079 57c1
00000300: 889a 1b42 6106 b042 1081 af42 3a5b 4342
00000310: b059 3dc0 64ac 94c2 974c 12c3 b5a9 4dc3
00000320: 3fa2 27c2 61cf 60c2 b1bd 19c2 d29b 7941
00000330: df73 b742 bbb5 3443 730d 8843 4dcc 4543
00000340: bd42 7243 9d62 7e43 2de1 5943 832f dc42
00000350: d607 62c2 7d29 45c3 9c17 87c3 df46 93c3
00000360: d7ea 80c3 22cc 2bc3 d2b4 02c2 6aff 1343
00000370: d652 8743 1fa2 9943 04db 8843 f5d2 4443
00000380: 181f 8c42 1fa6 89c2 a1bd 26c3 a402 4ec3
00000390: 4c50 5dc3 8cf6 39c3 eec4 d4c2 d7d3 85c2
000003a0: 368f c9c1 467d 1a42 146d 8542 04e1 4242
000003b0: ec0c 1142 2293 db41 be94 cec1 022b 39c2
000003c0: 0747 76c2 1bca 66c2 4110 88c1 1172 60c1
000003d0: a1b0 0642 c43c e142 3396 f542 924e 0ac2
000003e0: 2ad0 42c2 bf7f 86c2 1ef2 dec2 8d94 2bc3
000003f0: a783 64c3 0645 8cc3 d3f5 64c3 9f17 f5c2
315.76776 186.89336 14.943966 -25.568005 -97.66847 -39.74036 90.23639 171.46294
387.63226 503.75525 610.5592 555.5857 510.95782 411.45404 203.62288 55.812534
-55.35876 -55.043316 -17.05748 61.272964 65.726616 133.96588 94.12148 18.015694
-97.90643 -222.43318 -375.83685 -488.06674 -503.3819 -541.2168 -398.43756 -256.5855
-87.76355 -6.799402 85.77261 153.67282 145.95872 98.03147 18.464287 -27.40333
4.865755 13.652268 41.903587 144.16023 173.12398 198.97305 191.9643 177.34349
109.30781 104.94744 75.73117 101.48479 129.98882 166.33414 180.46333 189.89745
117.2883 54.715153 -18.80568 -112.38866 -123.153885 -179.87769 -214.61212 -151.41696
-94.2224 -3.5871859 96.98546 146.23091 201.83253 129.8657 79.12205 -42.11726
-135.26538 -216.52368 -205.04231 -206.2123 -157.34842 -119.19453 -68.86756 17.793869
51.65377 111.399284 126.31391 136.38872 166.73083 133.5768 155.96272 137.16122
106.8408 73.716576 18.755194 -0.43042564 -43.929802 -18.167835 -44.672344 -53.061485
-80.24597 -51.405994 -109.74496 -151.34369 -170.38693 -173.00327 -171.98663 -99.01919
45.79508 232.86964 321.35345 405.58334 458.695 412.42786 260.19647 76.30785
-100.80158 -429.44342 -545.3762 -586.87134 -506.6253 -325.63312 -103.57504 130.67726
233.47386 345.12897 380.08777 534.0261 390.0803 231.68356 146.05907 51.692337
-11.296524 41.561317 152.2384 243.57019 372.26758 407.35785 364.24277 220.55759
16.686218 -236.83679 -453.2908 -676.64386 -808.12616 -850.1024 -876.174 -828.3579
-702.9815 -570.3698 -438.5286 -371.0405 -318.65912 -315.13818 -326.6344 -318.81827
-355.05542 -356.68015 -302.1019 -230.50095 -159.27794 -38.195522 48.646267 58.704823
98.60092 140.37457 128.23116 68.08287 3.9601865 -25.296577 -44.012943 34.46851
11.553818 -17.289518 -19.62791 -19.597927 -29.21858 -29.731447 -21.036234 -15.296207
-6.3165283 28.652899 67.44289 106.885574 -56.58097 -35.897427 -31.40417 -59.099957
-71.999146 -67.37848 -79.14748 -89.80741 -93.33216 -96.72036 -61.927677 -13.467102
38.90091 88.01246 87.752075 48.83909 -2.958599 -74.3367 -146.29918 -205.66292
-41.908443 -56.20252 -38.435246 15.600542 91.72631 180.70988 272.10507 197.79805
242.2607 254.38521 217.8796 110.0928 -56.507652 -197.16206 -270.18445 -294.55368
-257.8347 -171.7974 -32.676582 147.99771 270.64716 307.26657 273.71106 196.82405
70.06073 -68.824455 -166.74074 -206.01031 -221.31366 -185.96307 -106.38463 -66.91375
-25.194927 38.622337 66.71304 48.71974 36.26262 27.446842 -25.822628 -46.292
-61.569363 -57.69737 -17.007936 -14.027848 33.67249 112.61868 122.79336 -34.57673
-48.703285 -67.249504 -111.472885 -171.58028 -228.51427 -280.53925 -228.96025 -122.546135

fc1.bias f4 [15]
00000000: bc1a de40 8ec8 1d42 fcfa 3ac3 3aa9 9f42
00000010: ed78 0b42 c81c 69c3 ac58 9bc0 577e 0743
00000020: 6636 1141 c73f a7c2 6e58 8743 3183 fbc2
00000030: f621 5142 e32d 7c43 8bda 8842
6.9407635 39.445854 -186.98041 79.83052 34.86809 -233.11243 -4.854574 135.49352
9.075781 -83.624565 270.69086 -125.75623 52.283165 252.17924 68.42684
