treated_ECG/best_model.pth (torch, 588715 bytes, 10 tensors)

fc1.weight f4 [256, 400]
00000000: 14bf 9cbe cad8 95be 1f76 84be 071a 4fbe
00000010: da38 5bbe 54dc 10be 8876 34be 07a1 26be
00000020: 6bf1 12be 2cf9 bdbd 5432 d9bd 41b0 71bd
00000030: 1aa9 29bd 9993 d13c 33a5 58bd 7376 a1bc
00000040: 27ec cf3c 8cda 26bd ce49 1bbd cae2 2cbd
00000050: 411a efbd ec70 1cbd 01dd b8bd 16b8 13be
00000060: c5af 0dbe 7e5e 1abe ee05 d3bd a1bc 07be
00000070: 6072 e3bd a585 a8bd ae0c b8bd 56e8 fcbd
00000080: ada2 a4bd 3549 d8bd f18c 0dbe 8e1a f5bd
00000090: e1f3 21be f2dd 0abe 3658 38be dabd 56be
000000a0: 59fc 55be 7bd5 33be 1c97 64be f874 26be
000000b0: fddf 53be a698 83be aac3 44be 34a3 62be
000000c0: c6da 4cbe 494e 2bbe 5edc dabd dbe7 2cbe
000000d0: a67b f9bd fcb0 1dbe bd5c 54be 78da 02be
000000e0: 9272 45be 0dff 19be bae3 afbd a77a 8cbd
000000f0: e876 0dbc 74f7 76bb 6034 5f3c 49ba 043e
00000100: f535 e93d 1608 d53d 5ccf 3e3d ecf8 373d
00000110: 617d 543d 5984 663d ece0 043d 9f62 a73c
00000120: a1dd 4b3c d9ab db3d 0415 0c3e 438f 9c3d
00000130: 3140 873d 44a2 8a3d 7764 593d a496 ab3d
00000140: 2443 f43d 653f f73d ebb9 d53d 12a8 1f3e
00000150: 13d2 543e 3e93 893e 5ce4 403e 0d64 643e
00000160: 6864 753e d133 443e eb6b 473e 24b9 083e
00000170: d43c 803d 6593 1b3e 3360 1a3e 70e2 303e
00000180: 2a85 263e 5785 783e dcf1 613e 8248 853e
00000190: a211 6f3e 7616 863e d836 323e 10e4 3a3e
000001a0: e283 f73d daf3 2d3e e68f 853d 40ff dd3d
000001b0: 5672 013e 109c 8d3d 2e5f 023e b2a5 463e
000001c0: adee 693e b61d 413e f16b 8d3e f52f 753e
000001d0: f11a 553e a3c7 783e 91cd 0d3e e8da e23d
000001e0: a74e f63d 1197 1a3d 8357 443d a8e1 42bc
000001f0: 8891 6a3a aed7 4a3c 6bd0 5e3d 1324 a43c
00000200: 668d 643d f446 603d 84d3 c73d 727d a93d
00000210: 0150 123e f222 313d b854 3dbb 4b36 8d3d
00000220: 6d22 513d 5001 473d e191 883d 2df9 f33d
00000230: d563 ce3d 3fca 633e 8ec7 333e 4622 4d3e
00000240: 7164 623e 2063 683e 70cd 353e 7ef7 0e3e
00000250: c3e2 193e 28a4 ec3d 0e7a 213e 55c9 533e
00000260: 173c 823e 00a1 673e 948b 3d3e 1888 833e
00000270: 1696 823e d942 703e 0455 743e ed5d 7a3e
00000280: 9e01 823e db76 663e c22d 623e c414 483e
00000290: e98d 443e d181 653e e9b7 233e c02b d63d
000002a0: 0c69 683d e5b5 67bd 80f4 a2bd d99a 5ebe
000002b0: ec16 85be b504 62be adab 29be f83a 2bbe
000002c0: dc72 15bd e4b8 99bd fab9 79bd 745a cbbc
000002d0: d857 fbbc 538c c4bc 7fa1 86bd 6c86 66bd
000002e0: f3d6 47bd fda7 eabc a537 8dbd 8a44 98bd
000002f0: a4e4 be3b 1726 5bbc 527c 86bc d4f7 97bd
00000300: 9b33 8cbd 1e4f 7ebd a218 92bd 0a3c d4bd
00000310: c91a 4bbd eae0 d7bd cc12 8dbd 74ed e1bc
00000320: 8e9a e3bd 6bfc 23bd 61e9 4bbd 67c2 15be
00000330: 76be 09be 5d7c 03be 5652 d2bd 8492 6dbd
00000340: d480 c7bd b601 bcbc da9b 0abd 8e6a 94bb
00000350: a794 e63c f7d9 053d 81ec 6c3c 10a5 5e3d
00000360: 4d03 843d 2e99 993b 32de 923d c033 b8bc
00000370: 47db fb3c 6ec6 14bd 0054 9dbd c705 0dbe
00000380: e3bb 1cbe 9fa5 debd b19b bbbd e41d 54bd
00000390: 71b9 63bc 8831 263d 32e3 d53d dabb 673d
000003a0: 0bf4 ce3d 2d50 373d 51c8 9b3d 0495 ec3d
000003b0: 90b0 873d 442a d93d 830d 123e 6319 303e
000003c0: 483d 553e 0a27 443e 674a 973e 32f6 963e
000003d0: 10f6 7b3e e1df 873e b701 743e 2eab 523e
000003e0: 7e6d 3c3e a922 573e 2aab 903e 41f7 643e
000003f0: 7852 873e f23e b73e cf5c ca3e 19ad d53e
-0.3061453 -0.2926696 -0.2587137 -0.20224772 -0.21408406 -0.14146549 -0.17623341 -0.16272365
-0.14349906 -0.092760414 -0.106053025 -0.05900598 -0.041421033 0.025583075 -0.05289192 -0.019709801
0.02538116 -0.040735766 -0.037912183 -0.04220847 -0.116749294 -0.03819363 -0.09026528 -0.14425692
-0.13836582 -0.15075108 -0.103038654 -0.1325555 -0.111058 -0.08228616 -0.089867935 -0.12349002
-0.080388404 -0.10560838 -0.13823296 -0.119679555 -0.15815689 -0.13561228 -0.180024 -0.2097086
-0.20897044 -0.17561905 -0.22323269 -0.16255558 -0.20690913 -0.257024 -0.19215265 -0.2213257
-0.2000533 -0.16729082 -0.10686563 -0.16885321 -0.12181787 -0.15399545 -0.20738502 -0.12778652
-0.19281986 -0.150387 -0.08588357 -0.068593316 -0.0086343065 -0.0037684115 0.013623327 0.12961687
0.113872446 0.10401933 0.046584472 0.044915125 0.051877383 0.05627856 0.032441065 0.020432768
0.012442977 0.10726137 0.13679892 0.076445125 0.066040404 0.06769231 0.053074326 0.08378342
0.119268686 0.120726384 0.10435852 0.15591457 0.20783262 0.2687015 0.18837112 0.22303791
0.23964083 0.19160391 0.19474761 0.13351876 0.06261602 0.15192945 0.1507576 0.17273879
0.16261736 0.24269615 0.22064918 0.26031882 0.2334657 0.2618901 0.17403734 0.18251061
0.120857015 0.16987553 0.06521587 0.10839701 0.12641272 0.06914532 0.1273162 0.19399145
0.22844954 0.1885899 0.27621415 0.23944075 0.20811059 0.24294905 0.13847949 0.11076909
0.120267205 0.037741724 0.04793502 -0.011894621 0.00089480774 0.012380524 0.05439798 0.020036733
0.05579891 0.054755166 0.0975714 0.0827588 0.14288332 0.043246217 -0.0028889608 0.06895121
0.05105822 0.048585236 0.06668449 0.11912761 0.10077635 0.2224512 0.17556593 0.20032606
0.22108628 0.22694063 0.1775415 0.13961598 0.15027909 0.11554748 0.15769216 0.20682271
0.2543647 0.2262001 0.18510276 0.2568977 0.2550513 0.23463 0.23860556 0.24449892
0.2539186 0.22506277 0.22087768 0.19539171 0.1919476 0.22412802 0.15988125 0.104575634
0.056740806 -0.056569953 -0.07956791 -0.21738757 -0.2599405 -0.22072108 -0.16569395 -0.16721714
-0.03648649 -0.07505968 -0.060968377 -0.024823405 -0.030681536 -0.023992693 -0.06573772 -0.05628054
-0.048788976 -0.028644556 -0.06895379 -0.07434948 0.005825596 -0.013375781 -0.016416702 -0.07420316
-0.068457805 -0.06208717 -0.071336046 -0.10363014 -0.04958609 -0.10540946 -0.06888351 -0.027579047
-0.11113463 -0.040035646 -0.049783114 -0.1462494 -0.13451561 -0.1284041 -0.102696106 -0.058001056
-0.09741369 -0.022950035 -0.033840038 -0.004529304 0.028147055 0.03267857 0.014460684 0.054356635
0.06445942 0.00468745 0.07171287 -0.022485614 0.030744208 -0.03632205 -0.07682037 -0.13771735
-0.15306048 -0.108714335 -0.09160555 -0.05178632 -0.013899193 0.04057458 0.10443725 0.056575634
0.10105141 0.044754196 0.07606567 0.1155186 0.066254735 0.10603765 0.14262967 0.17197184
0.20824158 0.19155517 0.29548952 0.29484707 0.24605584 0.26537994 0.23828779 0.20573112
0.18401143 0.21009316 0.28255588 0.22359945 0.26430106 0.3579021 0.39523932 0.41733626

fc1.bias f4 [256]
00000000: 6425 9dbe 2fa7 4abd 6e5a d0be 066c 38be
00000010: 037a d9be b8a6 8fbe e43a 27be 1abd c6be
00000020: 0e9e aabe b682 c8be 9a4f 87be 1783 9cbe
00000030: 4188 bdbe e4c8 d8be 7189 b9be dd94 87be
00000040: 42f0 a4be ca85 90bd 9bfa 04be b9e0 a7be
00000050: fc49 533c 61a7 89be 3fa3 f6bd ab20 4bbe
00000060: 592f 97be 4404 43bd 38e6 a3be d6b0 49be
00000070: 6b78 08be f2b1 abbd d00d babe 711b acbe
00000080: 002d 90be e2ba 4cbe 9aab cfbe f69a 88be
00000090: 23e4 32be 581c dfbe e422 b5be c620 b1be
000000a0: fc1a bcbe b191 c2bb d776 bebd 62a6 39be
000000b0: 951e acbe c0e4 6dbe 557f d1be 8d86 babe
000000c0: a895 93be 5e36 e0be b071 91be 1462 d0be
000000d0: 3614 c1be 9867 c0be 6de2 a1be feb5 bdbe
000000e0: eb76 33bd dba4 49be 63ac b0be 1d10 bfbe
000000f0: a853 b8be 97ef 2cbe 71f4 713d 09bf 1bbe
00000100: 05dd bcbe 6f98 bbbe 1762 8dbe e1ad a1bd
00000110: 2404 31be 20bc 77be 4f28 02bd 3280 cfbe
00000120: 4228 aa3d c7d9 94be ce65 bebe 0132 0abf
00000130: 7a94 c7bd de9f 5bbe 2c6a 6bbe b330 92be
00000140: bc9a ffbd 69eb e8be a681 40be 09f2 d0be
00000150: 44a5 bfbe d42d d4be e862 0ebe 4db1 11be
00000160: 9a29 a4be 55a3 debd b27d 18bc fe71 bb3d
00000170: 5dc9 e5be 1d8a ccbe 7303 d2be 8139 82be
00000180: ba2d e8be 3645 f6bd 0300 afbe aee8 dbbd
00000190: 7215 2e3d 5eee b4be ff5b b8be 87e3 c6be
000001a0: fcb0 30be 31d0 dfbe 126f e1be 8a4c 92be
000001b0: ba81 acbe 2534 a2be c7fd a0be c1b7 edbe
000001c0: 63fd cbbe be4f 9abe 6e99 24be 6de2 26be
000001d0: 90b7 81be 8b5f b6be 79da d7be 8ea5 b2be
000001e0: 0abe ecbe df88 a6be cd3e 83be e704 3cbe
000001f0: faba 53be b4d4 05bc 3ed2 94be 0cf3 f7be
00000200: 457e 98be 8fb9 d5be 3c4c fabd 8dbf a7be
00000210: 5dc8 b1be 932b adbe d2c6 63be 964b c93c
00000220: ccfd 8fbe 4238 e5be 017a fcbe dcbc c7be
00000230: 7d5f e5bd aad4 babe 0ca9 dbbe 9317 a0bd
00000240: 6faf 72be 5be4 9abe ab0b b6be bdae d4be
00000250: f4c1 b3be eedf 04bf d2de 1fbe 0ff7 9dbe
00000260: c613 d2be b25d 51bd e207 9bbe b8ff 0abe
00000270: ce23 98be 88da 8dbe ad68 aebe c401 98be
00000280: ccbf adbe afaa 99be 6816 b7be 38af a9be
00000290: 06ac cebe 5a28 9bbe fd27 b1be 6c6a a2be
000002a0: 2dae 00be b022 99be 0698 b2bd fb8e a2be
000002b0: 6721 ba3c 3c6d b7be 0e21 3fbe 2d5a 84be
000002c0: ced2 bbbe ccb8 e1be 2b38 babe 429f a5bc
000002d0: b899 63be 1312 7abe 1e0a 8cbe 08bf e8bd
000002e0: c1bd c7be 3db7 30bd ee8c b6be 2b63 a5be
000002f0: 151d 13be 6660 f7be 905b 69be 373c ecbd
00000300: 813b a7be 99d9 b4be 9f50 09be 209c b7be
00000310: 8eb9 8abe a86f b9be e970 c6be 9f30 01be
00000320: 62a2 27be 3798 8ebe 5677 b0be 6cc3 3cbb
00000330: c77b d43e 3e22 cdbe 9ece bfbe e99c bbbe
00000340: 7689 aabe 04d7 d7be 24d5 31be 368c 99be
00000350: 3197 96be 3221 53be e7ec bcbe 67bd 82be
00000360: ad05 a4be fdba b2be 773e 8abd 1d86 983e
00000370: ffa9 9ebe 7e6b 1cbe 46c1 82be fd08 b6be
00000380: 85e5 abbe c512 b3be 738b e0be 19e7 86be
00000390: 427b a5be 72f7 a4be b62f 34be f504 eabe
000003a0: 459c 31be 9236 853c d5b8 b4be 284c 9dbd
000003b0: d9e6 bd3d 2136 02bf a95b bdbe 2075 03bf
000003c0: edd9 9cbe 3a3c 3abe d4fa 16be 12a9 d1bc
000003d0: b6bc e4bd ddc0 aebe 8e04 cebe 4d95 abbe
000003e0: 20ef 6dbe ba82 c0be 9e9a 22be 2ac8 133e
000003f0: 0a34 d4be 1d31 e6be e21c d6be 33fc 3dbe
-0.3069259 -0.049475845 -0.40693992 -0.18009958 -0.424759 -0.28056884 -0.16331059 -0.38816148
-0.3332371 -0.39162225 -0.2642792 -0.30568764 -0.37018016 -0.42340767 -0.36237672 -0.2648076
-0.32214552 -0.07056768 -0.12986223 -0.32788637 0.012896057 -0.26885512 -0.120428555 -0.1983668
-0.2952831 -0.04761149 -0.3201158 -0.19696364 -0.13327186 -0.0838355 -0.36338663 -0.33614686
-0.28159332 -0.19993165 -0.4056061 -0.26680726 -0.1746984 -0.43576312 -0.35378182 -0.34595317
-0.36739337 -0.005937778 -0.09300011 -0.18129876 -0.33617082 -0.23231792 -0.4091746 -0.3643078
-0.28825116 -0.4379148 -0.2840705 -0.40699828 -0.37710732 -0.37579036 -0.31618062 -0.37052912
-0.04381458 -0.19691794 -0.3450652 -0.3731698 -0.36001325 -0.16888271 0.059071008 -0.15209593
-0.36887375 -0.36639735 -0.276139 -0.07894493 -0.17286736 -0.24192858 -0.031776723 -0.40527493
0.0830846 -0.290724 -0.37187046 -0.5398255 -0.097451165 -0.21447703 -0.2298972 -0.2855278
-0.12480685 -0.45492104 -0.18799457 -0.40809658 -0.37430775 -0.41441214 -0.13904917 -0.14227791
-0.3206299 -0.10870997 -0.009307312 0.09152602 -0.4488019 -0.39949122 -0.41018257 -0.25434497
-0.45347387 -0.1202492 -0.34179696 -0.107377395 0.04250092 -0.3533811 -0.36007687 -0.38845465
-0.17255014 -0.43713525 -0.44030052 -0.2857402 -0.33692724 -0.31680408 -0.31443617 -0.46429256
-0.39841756 -0.30138963 -0.16074154 -0.16297312 -0.2533536 -0.35619769 -0.4215887 -0.34891933
-0.46238738 -0.325263 -0.2563385 -0.18361245 -0.20676795 -0.008168388 -0.29066652 -0.48427618
-0.29783836 -0.41743132 -0.12221572 -0.3276333 -0.34723178 -0.33822307 -0.22243813 0.024572175
-0.2812332 -0.44769484 -0.49311832 -0.39011276 -0.111998536 -0.36490375 -0.4290241 -0.078169964
-0.23699735 -0.30252346 -0.35555777 -0.41539565 -0.35108912 -0.5190419 -0.15612343 -0.30852553
-0.4103071 -0.051114745 -0.30279452 -0.13574111 -0.29714817 -0.2770579 -0.34064236 -0.29688847
-0.33935392 -0.30013034 -0.35759282 -0.33141494 -0.40365618 -0.30304223 -0.3460082 -0.31721818
-0.12566443 -0.29909277 -0.087204024 -0.3174971 0.022721006 -0.35825527 -0.18664953 -0.2585005
-0.3668427 -0.440863 -0.36370978 -0.020217542 -0.22226608 -0.24420957 -0.2735147 -0.11364561
-0.39011958 -0.0431435 -0.35654396 -0.32302222 -0.14366563 -0.48315734 -0.22788835 -0.115349226
-0.32662585 -0.35322264 -0.13409661 -0.358613 -0.27094692 -0.36218 -0.3875802 -0.12616204
-0.16370538 -0.27850506 -0.34466046 -0.0028803004 0.41500685 -0.40065187 -0.37462324 -0.3664315
-0.33308 -0.4215623 -0.17366463 -0.29989785 -0.29412225 -0.20618132 -0.36899492 -0.25535128
-0.3203558 -0.34908286 -0.067501955 0.2978982 -0.30989072 -0.1527538 -0.2553808 -0.35553733
-0.33573547 -0.34975258 -0.4385639 -0.2634819 -0.323206 -0.32220036 -0.17596325 -0.45706907
-0.17344768 0.016261373 -0.35297266 -0.07680541 0.09272546 -0.50863844 -0.36983994 -0.51350594
-0.30635014 -0.18187037 -0.14744121 -0.025593314 -0.11168806 -0.34131518 -0.4023785 -0.33512345
-0.2323575 -0.37599736 -0.15879294 0.14431825 -0.41445953 -0.44959345 -0.4181891 -0.18553238

fc2.weight f4 [128, 256]
00000000: e1db 9d3e 64cc 373d c05c 7f3d 4382 963e
00000010: 914f 52bc b914 56bd f184 013f 9563 393c
00000020: 6640 a83c e3aa 4a3c aa79 1a3e de07 f63d
00000030: 5fe0 00be 2eeb 2e3c 8186 2cbe cf6b 713d
00000040: 31d5 6a3d c00b 8e3e 0a46 0b3d 605b 59b9
00000050: da47 693e 597c 203e 1581 ffbc 924e 4b3e
00000060: cc82 aabd 2863 9f3e e76e 0fbd dac8 0f3f
00000070: b028 133e f7c6 da3e c1be 6fbd 1028 42bd
00000080: 6d56 263e ac27 8d3d fced e4bb a030 6e3d
00000090: 5bd0 083f 1c4c 8dbd 5507 d7bc 4f3f cd3d
000000a0: 92c3 f43d 550f 97bc 9088 fa3e e2ef 1a3f
000000b0: 3e8b 583d 26ea 083f 224f afbd 34f2 1b3d
000000c0: 3a9e a5bc 6ad9 a83b 38ba 7e3d 7af8 31bd
000000d0: ba1a 873b 6a46 8ebd 6494 e33c c57e 29bd
000000e0: 2ee8 0b3e 806d c8b8 bf9f 913e ae23 87bc
000000f0: eb85 39bd 78a8 d13d 2bc6 cb3e 00fa 143f
00000100: 328b fbbc ee7c 1ebd 8023 2d3e 395f a53e
00000110: 6e5b fa3e d860 743c 9080 af3c 88d8 c13e
00000120: 0855 fe3e 7853 923d 530d 0f3d ea75 833d
00000130: 3062 663e f48e ce3d e07c ed3d 46f7 ce3d
00000140: 8cc4 6e3d 7049 633d a972 cabd fc40 4c3d
00000150: 4127 843c 88b0 c83d bd97 133f 5178 273e
00000160: 304c ab3d 6b6d a23d 3a61 aa3e b089 bf3e
00000170: f240 553c 3f94 c5bc af81 9cbc 42a9 e9bb
00000180: 56c0 8ebd 1a4c fb3e 2c8f 033e da89 373d
00000190: 1925 e53d 4f4b d3bd 805c b23d aa49 91bd
000001a0: 6da6 123c 759b 5d3d 4d8a 8b3c 7fea 4f3d
000001b0: 6423 893d 5e21 4d3c bcf7 fbbc 4325 8cbc
000001c0: 6f49 50bd a8db 8a3e 27a5 ce3e 57d3 0a3f
000001d0: fcd6 b13d 6ce2 d93d 85ba d2bb 4ca5 bcbb
000001e0: 8ff2 d93c ce55 03bd 406b 143c d93c 9f3d
000001f0: 4e03 5a3d 940e 5a3e 4f2a 5d3f 95a9 c13c
00000200: 8414 4a3d 2c00 893d 0e80 2f3f fe9d 233b
00000210: 0dd7 863c 5b3e 063e 2c98 023f ccd1 f83d
00000220: d341 32bb c84d ebbc 2acc ae3d c6f1 59bd
00000230: 00ba ae3e 7df2 02bd c3e8 0c3c eed3 d23e
00000240: aaaa c23e 2ff8 8a3d 841a 05bd a349 1f3d
00000250: 2675 a9bb 9c03 93bd e131 f73d 4306 003e
00000260: d394 de3c 72ba 113e a4a9 733d 511c ffbb
00000270: c033 273d 8966 b73d 96c5 39bb cbae 333d
00000280: 3c78 d6bd faea 99bd 3c35 24bd ba66 8b3d
00000290: 4271 a73d b24a 203e 44b5 68bd d749 2c3e
000002a0: 0251 d63e 30b2 893e 97aa 9f3e 94ba efbd
000002b0: e8d4 003e 304a a0bc 38fa c83e 0a4d acbb
000002c0: 4001 03bc 06f2 2a3d 7823 41ba 4f46 2c3e
000002d0: 042d 333d ec19 0a3f 0663 123e deb3 363f
000002e0: 2fb4 573d 6c77 a03d 0ff1 06be e621 1f3e
000002f0: 1801 1e3e 7c5a 813d 8d0a 853e 9048 913e
00000300: ef5f 02bd 0561 c5bd 7d94 483e 752b 31bd
00000310: 318e 6a3e 4cfa bb3e 2cad 6f3d 805e 643e
00000320: 0bab 203f 0c56 093f a965 45ba 050f 9abd
00000330: 6928 d53e b3a8 c0bb 331b f3bc 65ee 1a3e
00000340: 4e22 893d 5e49 b8bd d70a 043f 3965 d33c
00000350: 47c2 5f3d e743 053f 386d e9ba 86c7 94bc
00000360: 02c0 c1bc b2bc 46bd c482 5a3e 5155 b23d
00000370: dc4a 6b3c 7078 6b3e 61f5 b23e e82a d93b
00000380: 60fc 093d 7c9e 3dbd 0033 a9bc e85c d13d
00000390: f6ac 01be 6117 91bc 76a6 0f3f a232 2b3e
000003a0: b842 b33e d9fb 6c3e 6c6e 95bd 60e1 9b3d
000003b0: 9d1d b83e 72ef ebbd bc70 a6ba a997 7bbd
000003c0: 4de0 d23e 2e48 cf3e 3ba3 593d bfea f13e
000003d0: fca1 863d 9cd3 083e dacb 02bb 7b3a 0b3e
000003e0: 6656 0e3f 99b8 94bd f828 783d f9f8 853e
000003f0: 542a fd3b 6ac7 c23d 017c f4bd 57d9 9f3e
0.30831817 0.044872656 0.062344313 0.29396257 -0.012836353 -0.052265856 0.5059348 0.011315246
0.02053852 0.012369844 0.15085474 0.12013219 -0.12585591 0.010676188 -0.16848184 0.058940705
0.05733222 0.2774334 0.03400234 -0.00020728773 0.22781315 0.15672435 -0.03118948 0.19854191
-0.08325729 0.31130338 -0.035017874 0.5616585 0.1437099 0.42729923 -0.058531526 -0.047401488
0.16243906 0.068923324 -0.0069863778 0.05815184 0.53442925 -0.06899282 -0.026248613 0.10021841
0.119513646 -0.018439928 0.48932314 0.6052228 0.052867167 0.5348228 -0.08560015 0.03807278
-0.02021705 0.005152871 0.06218931 -0.043449856 0.004123059 -0.06947024 0.02778072 -0.041380662
0.13662788 -9.557139e-05 0.2844219 -0.016496506 -0.04529373 0.10237211 0.39799628 0.5819397
-0.030706022 -0.03869336 0.16908073 0.32299212 0.4889788 0.0149156675 0.021423608 0.37860513
0.4967425 0.07144827 0.034924816 0.06418975 0.22498393 0.1008586 0.11596084 0.101057574
0.05829291 0.055489957 -0.09885151 0.04986666 0.016131999 0.09799296 0.5765341 0.16354491
0.08364141 0.07931026 0.33277303 0.37409735 0.013015972 -0.02411854 -0.019104807 -0.007130773
-0.06970279 0.49081498 0.12847584 0.0448092 0.111887164 -0.10317098 0.08709049 -0.070941284
0.008950812 0.054103334 0.01703372 0.050760742 0.06696203 0.012520162 -0.030757777 -0.017107612
-0.05085128 0.2712071 0.40360376 0.5422873 0.08683583 0.1063889 -0.0064309263 -0.0057570096
0.026604919 -0.03206425 0.0090587735 0.07775278 0.053225808 0.21294624 0.8639268 0.023640433
0.04933597 0.06689486 0.6855477 0.0024965997 0.016459966 0.13109724 0.51013446 0.121493906
-0.0027199879 -0.028723612 0.08535035 -0.05320909 0.34126282 -0.031969536 0.008600417 0.41177315
0.3802083 0.067856185 -0.03249599 0.038888585 -0.005171436 -0.07178423 0.120700605 0.12502389
0.027170574 0.1423128 0.059487954 -0.007785358 0.040820837 0.08955104 -0.002834653 0.043867867
-0.10472152 -0.07515521 -0.04008983 0.06806703 0.08175899 0.15653494 -0.056813493 0.16825043
0.4185868 0.2689376 0.31184837 -0.11705509 0.12581217 -0.019566625 0.39253402 -0.005258207
-0.0079959035 0.041734718 -0.0007367651 0.16823696 0.043744102 0.53945804 0.14295587 0.71368206
0.05266207 0.07835278 -0.13177894 0.15540275 0.15430105 0.06316087 0.25984612 0.28375673
-0.03182977 -0.09637646 0.19587894 -0.043254334 0.22905804 0.367144 0.05851476 0.22301674
0.6276099 0.5364692 -0.0007530102 -0.07522396 0.41632393 -0.0058794855 -0.029676056 0.15130003
0.06695996 -0.08998369 0.5157904 0.025805103 0.054628637 0.52056736 -0.0017809039 -0.018161546
-0.023651127 -0.048519798 0.21338946 0.08707679 0.01436111 0.22995162 0.34952834 0.0066274293
0.03368795 -0.04629372 -0.020654202 0.102227986 -0.12663636 -0.017711343 0.56113374 0.16718534
0.3501184 0.23142947 -0.07296452 0.07611346 0.35960093 -0.1152028 -0.0012698392 -0.06142393
0.41186753 0.40484756 0.053134184 0.4724941 0.06573865 0.13361973 -0.001995793 0.13596527
0.55600584 -0.07261772 0.060585946 0.26166514 0.007725993 0.095106915 -0.11937714 0.31220505

fc2.bias f4 [128]
00000000: 1ecb 143f fd3c 86be d12b b5bd 80d2 83be
00000010: f962 8d3e 3a42 92bd 88d7 63bd 4048 bfbc
00000020: 8ab4 82bd d18d 4fbd feb6 10be 1942 24be
00000030: 3348 253e 359c 00be cd73 c3bd 5d19 adbc
00000040: f74d 81bd 801a d3bd ad69 10be 471c c1bc
00000050: a158 76be 8bda 30bd 328b d7bd c7e9 d8bd
00000060: 9a27 53bd fc13 96bd 1dea 823e 91af 1ebe
00000070: cd7b 1fbe 26b4 003e e4bd abbd 6816 a0bd
00000080: 390b 81be dc3c b93d 997a 8dbd fc53 56bd
00000090: 8ea1 52be 8fd4 4abe bb69 fabc 5d48 cbbc
000000a0: 253d 90bd cbff 05bd 2ff0 86bd fc13 35bc
000000b0: 31b8 07be 29d2 31be da75 9b3e 71d3 e3bd
000000c0: ae95 573e 50ec 37bd bc99 0bbe 4bc3 95bd
000000d0: 85bb c1bd deca 903e 8d6f 4ebe e122 89be
000000e0: b88d 913e 4543 cbbd 5235 fd3d 5f5a 9abd
000000f0: 82ee 6cbd 8902 1dbe 62aa d1bd 4333 46be
00000100: 2609 2cbe c137 55be 1521 90be 6a2a 51be
00000110: 8d2f afbc 1515 a0bd 4c69 9bbe fa58 53be
00000120: b38b f23d 9718 66be f3b2 a0bd d92c 843e
00000130: 7942 00be f5b2 34be 1a9d bebd 6bdb 02be
00000140: b695 b03e 7323 29be 5896 a4be 4c8e 7fbe
00000150: e8c0 f5bd ca2d efbd 7b99 193e 3c1c 04be
00000160: aaab 9fbd 524d 70bd 7283 c1bd 4ba4 55be
00000170: ab56 f4bd 9024 97bd b6b1 48be 69c4 d53e
00000180: aebb 85bd 9381 3ebe 385f f5bd 9c37 523d
00000190: c475 3c3e ec47 bfbd e8da 4abe efa3 ddbc
000001a0: 43dd 45be 042f ecbd f7e6 13be 0add 3fbd
000001b0: fcc8 5bbd 3756 f1bd e5e4 59be c1f7 29be
000001c0: 5cd7 22be ccb2 b83e 3b21 44be beee ac3e
000001d0: c80a 3ebe cd6f 97bd 9eac 47be 4a01 0dbe
000001e0: 6f05 f9bd d09f a3bd 8cb6 febd daef 62be
000001f0: 35ce c4bd 7894 be3b 93a5 eebc aa05 61bd
0.5812243 -0.26218405 -0.08846248 -0.25746536 0.27614573 -0.07141538 -0.05562547 -0.023349881
-0.06382091 -0.050672356 -0.14132306 -0.16040839 0.16140823 -0.12559588 -0.095435716 -0.021130258
-0.06313699 -0.10307789 -0.14102812 -0.023573054 -0.24057247 -0.04317717 -0.10524596 -0.105914645
-0.05155144 -0.073280305 0.2556924 -0.15496661 -0.1557457 0.12568721 -0.08385828 -0.07816774
-0.25203875 0.09044811 -0.06908149 -0.052326187 -0.2056944 -0.19807647 -0.030567994 -0.024814779
-0.070429124 -0.032714646 -0.0658878 -0.011052128 -0.13253857 -0.17365326 0.3036335 -0.111243136
0.21053192 -0.0449031 -0.13632864 -0.0731264 -0.09459595 0.28279775 -0.20159741 -0.26784423
0.28428435 -0.0992494 0.12363686 -0.07536768 -0.057844646 -0.15332998 -0.10237576 -0.19355492
-0.16800365 -0.2082205 -0.2815024 -0.20426336 -0.021384979 -0.07816521 -0.30353773 -0.2063941
0.11843052 -0.22470318 -0.07846632 0.25815466 -0.12525357 -0.17646392 -0.093073085 -0.12779014
0.3448922 -0.16517429 -0.32145953 -0.24956626 -0.119996846 -0.116786554 0.14999954 -0.12901396
-0.07796414 -0.05866749 -0.09448899 -0.20863454 -0.11930593 -0.073800206 -0.19599041 0.41751412
-0.06529938 -0.18604116 -0.11981052 0.051322564 0.18404299 -0.0933989 -0.19810069 -0.027055709
-0.19322686 -0.11532405 -0.14443575 -0.04684166 -0.05365847 -0.11784022 -0.21278723 -0.16598417
-0.15902466 0.3607391 -0.19153301 0.33775896 -0.185588 -0.07394371 -0.19499442 -0.13770023
-0.121592395 -0.07989466 -0.12437162 -0.22161809 -0.09609643 0.0058160387 -0.029131686 -0.054937042

fc3.weight f4 [64, 128]
00000000: 1371 75bd 6162 0b3e 7401 40bd a28c c33d
00000010: dac9 993d add6 10bd 92f5 3abb 2444 b13d
00000020: ae69 8c3d 4c24 8f3d a0f4 b53c 073c 543e
00000030: a9bf 5f3e 4b4a d4bd 988a 12be dc6a a03d
00000040: 1a79 ec3d 62a1 773d fe8e 1c3e 160c df3d
00000050: 7713 483e 9cba 8fba 87e0 d73c 64ad a7bd
00000060: df25 c63b 5939 923d 226f 59bd 4b6b 6e3c
00000070: a420 0b3e 62f5 ac3e 9a51 aebd c5b1 583e
00000080: 0bcd 5c3d 25a6 f9bc c907 f83d 0a38 dd3d
00000090: c6df 5e3d c4bf e63c d230 743e b9ca a13d
000000a0: 5dca 663e f95c e6bc 8899 a63c 77d9 083d
000000b0: 08f8 063d 9dfe 933d d4c6 2dbb 4c82 ae3d
000000c0: a52c 163e f42d cf3c 308a 083d df35 c7bb
000000d0: f761 813e 3b5a ffbd e987 253e 07a4 53bc
000000e0: 4735 6fbe 449b 0dbb 0331 06bf 6353 cb3d
000000f0: 6f67 d23d a5d0 4fbe f68f 443e 93c0 6b3e
00000100: c3aa 953d 035c ec3d eb96 adbc 5981 5a3e
00000110: 1366 2b3c 56bb 8dbd b0e0 933c 4356 303d
00000120: 98ab c7be 93a6 c23d 25aa 863d 8a8f 4c3e
00000130: 51a0 7cbc 45d3 ac3d fecf 5a3e 36d3 6e3d
00000140: 7e46 c6bd 523b 113e 6270 d83d cd43 223e
00000150: 9926 d9bd 6aaa b23d b616 ed3c e7fd 97bd
00000160: 0f6f 613c cc8c a6bd 651b 93bd 9102 bc3c
00000170: 4490 233e 1134 853d 0025 2dbd 3b01 2c3e
00000180: 5b99 1e3e b47a bcbd b785 d9bd de0d c13e
00000190: f173 d33c 452c 6a3e 2fc2 e1bc b03d 1d3e
000001a0: 9602 223e b4d6 463e 3737 3c3d a048 0dbd
000001b0: bc73 103e 1669 373e 5b4f f63d eceb cd3d
000001c0: 9ec9 d23d 4625 a53d 8ca2 103e 2d8a d8bd
000001d0: 5a50 433e 2e51 b73b 68ed 503e df16 263e
000001e0: ccd6 053e ea0a 093c 5c2b f13d 2b03 e83d
000001f0: 7598 1e3d b0a6 5bbc 1355 7d3c b018 11bd
00000200: e065 eabd f702 6cbc 8807 fa3c b32d cebd
00000210: 769c 87bd 522e aabd 6ce9 243c dd6f d03c
00000220: f8bd c7bc 8be0 f83d 9656 cebd 183f c7bd
00000230: 0a1e f4bc 8726 de3d 4115 813d e26e 123c
00000240: 8bc1 063d eb29 88bd 3ea2 9fbd b683 ee3a
00000250: 6368 19bc 2de7 2dbc 8e2a 073e c790 84bd
00000260: e5a7 9d3d 4ba1 5cbd 7207 a7bd 0c24 c6bd
00000270: f039 753c cc7f 9abd 9ae5 a13d 3571 b0bd
00000280: f83c b9bd 0df5 113e 901c 26bd 6745 3c3d
00000290: 1063 0cbe ec89 003e ac73 9bbc fa6d e1bc
000002a0: 3536 34bd c60d 963d 7023 c4bc 0cbf 92bc
000002b0: 6dea e8bb 535d 44bd 7b63 6cbd 5722 fabd
000002c0: 0e5b df3c dd85 80bc ce31 36bb f663 523d
000002d0: 4a7f d9bd 6723 cbbd 3eff 46bd b090 103d
000002e0: c13c 8c3d 0ba8 823d bf8a 803d 3c4d 3dbc
000002f0: 421a ea3c ec71 edbc ae58 0cbd 6ace c43a
00000300: 2bf9 9bbd 581b e23c fa8f bfbc 3b62 82ba
00000310: 6e6a c73c f46a be3c 562d 033c 4ceb ea3c
00000320: de81 533d 70fa 17bd 1d20 543b e32e f8bd
00000330: 3bd8 463b a9aa b5bd b051 08be 306a 77bc
00000340: 7f29 563c 4ac3 123e 31d6 f4bd 94e3 dfbd
00000350: eaea dbbc 3230 cfbd 858f e03d 8909 46bd
00000360: f0eb 083d 1535 afbd 3e72 c03d 745c 05bd
00000370: 746c 09be dc44 c83d b9a6 dbbd 0694 91bd
00000380: 882a b93c 9827 77bd 7427 88bd b302 18be
00000390: 60a2 29bb 2f55 08be b311 07bd cabf 85bd
000003a0: 0bc4 93bd 5b3a b2bd f6d5 f1bd c74a 26bd
000003b0: 709f fdbc 0637 2abc ae4b d1bd 485c d03c
000003c0: 9982 883c 247a febd 95d0 46bd 9fda 83bd
000003d0: aa8e babd 0946 053e 2cc4 14bc 9b83 173b
000003e0: e581 ef3c 960e ec3d 08c0 89bd 5a80 373b
000003f0: 44bc 4d3d 868a 883d 7bd7 ce3d d240 94bc
-0.05992229 0.13611747 -0.046876386 0.09548308 0.07509203 -0.03536098 -0.002852772 0.08655575
0.06856094 0.06989345 0.022211373 0.20726024 0.21850456 -0.10365733 -0.14310682 0.07832882
0.11546536 0.06045664 0.15288922 0.10890977 0.19538675 -0.0010965648 0.02635218 -0.081873685
0.006046995 0.071398444 -0.0530845 0.014551948 0.1358667 0.33780962 -0.08511658 0.21161564
0.05390648 -0.030474732 0.1211086 0.10801704 0.054412626 0.028167613 0.23846748 0.078999944
0.22538133 -0.028120505 0.020336881 0.033410516 0.032951385 0.07226298 -0.0026516216 0.08520946
0.14665468 0.025290467 0.03333491 -0.00607942 0.25270054 -0.12468382 0.16165127 -0.012917525
-0.23360167 -0.0021607438 -0.52418536 0.09928014 0.10273635 -0.20294435 0.19195542 0.2302268
0.07307961 0.11540987 -0.021190127 0.21338405 0.010461348 -0.06920497 0.018051475 0.043051016
-0.38998103 0.09504428 0.06575421 0.19976631 -0.015419082 0.08438734 0.21368405 0.058306895
-0.09681414 0.14182785 0.1056831 0.15846176 -0.10603065 0.0872391 0.028941493 -0.07421475
0.013759389 -0.081323236 -0.071829595 0.022950443 0.15973002 0.065040715 -0.042271614 0.16797344
0.15488188 -0.09203091 -0.10621207 0.37705892 0.025812121 0.2286845 -0.027558414 0.15355563
0.15821299 0.1941784 0.045951094 -0.03449309 0.14106649 0.17911181 0.120268546 0.10054764
0.10292362 0.0806375 0.14124507 -0.1057323 0.1907362 0.005594394 0.20403063 0.16219662
0.1307022 0.0083644185 0.11775848 0.11328729 0.038719613 -0.013406441 0.015462178 -0.035423934
-0.11445212 -0.014405004 0.03052117 -0.1006731 -0.066216394 -0.08309616 0.010065418 0.025443966
-0.024382576 0.12152203 -0.10075109 -0.09728831 -0.02979948 0.10847192 0.06302882 0.008937569
0.03289942 -0.0664862 -0.07794617 0.0018197212 -0.009363267 -0.010614199 0.13199827 -0.064729266
0.07698039 -0.05386476 -0.08155717 -0.09674844 0.014967427 -0.075439066 0.07905121 -0.086153425
-0.09044832 0.14253636 -0.040554583 0.045964625 -0.13709664 0.12552613 -0.018976055 -0.027518261
-0.04399701 0.07326846 -0.02394268 -0.017913364 -0.007108024 -0.047940563 -0.05771206 -0.12213581
0.027265098 -0.015688831 -0.0027800682 0.05136486 -0.106199816 -0.09918862 -0.04858326 0.035294235
0.068475254 0.06379708 0.06276464 -0.011554059 0.028576974 -0.028984986 -0.03426426 0.001501513
-0.076158844 0.02760093 -0.023384083 -0.0009947488 0.024342742 0.023244359 0.008006414 0.028676651
0.051637523 -0.03710407 0.0032367774 -0.12118318 0.0030341286 -0.088704415 -0.13312411 -0.015101001
0.013071417 0.1433231 -0.11954916 -0.10932079 -0.026845414 -0.101166144 0.10964874 -0.048348937
0.033428133 -0.085550465 0.0939679 -0.032558873 -0.13420278 0.09778759 -0.10725159 -0.07108311
0.022603288 -0.060340494 -0.0664815 -0.1484478 -0.0025884137 -0.13313745 -0.032975864 -0.065307215
-0.072151266 -0.08702537 -0.11808388 -0.040598657 -0.030959815 -0.010389095 -0.10219513 0.025434628
0.016663836 -0.1242564 -0.048538763 -0.06438183 -0.09109242 0.13014998 -0.009079974 0.0023119214
0.029236743 0.115262195 -0.0672608 0.0028000087 0.050228372 0.06667046 0.100996934 -0.018097315

fc3.bias f4 [64]
00000000: f1f2 b43b 3c96 87bd be00 a5bd 8804 153f
00000010: 5c77 cf3e af85 a9bd d49d c0bc c9c1 443c
00000020: 0dcd d2bd 0b9d 7d3e c8ac dcbc 29c4 cbbd
00000030: b6f1 ecbd 9d6b b73e dbe8 bfbd dac5 d33e
00000040: 4425 9e3e c6e8 253e 0032 18bd a625 17be
00000050: abfa 453d 13f9 793e caec 68bd 0f95 0a3f
00000060: 9137 6e3e 7515 1fbc c015 98be adf3 8abd
00000070: 534e 12be 0f14 f33e 89bd aa3d e910 fbbc
00000080: b176 94be bb03 5fbd 4927 febd 211b cfbe
00000090: 1525 83bc 92d8 33bd 11a8 b6bd 3aa8 cd3d
000000a0: 3d39 70bd 24fb b3bd 15de 9bbd 5f28 893d
000000b0: bb5e a1bd b811 60bd fe96 b2bc d62e a8bc
000000c0: 6791 8c3d ffd7 84be b969 0abe 5e42 24be
000000d0: d91c 90bd 233e 923e 37d8 d8bd 07ac cf3e
000000e0: aec7 80bd eb2b 573b 0944 903e 3896 83be
000000f0: 8956 6e3d d2e5 15be 1989 033c dbb9 a73c
0.005522125 -0.06620452 -0.08056782 0.5821004 0.4052075 -0.08277451 -0.023512758 0.012009093
-0.102930166 0.24766938 -0.026937857 -0.09949524 -0.1156954 0.3582429 -0.093705855 0.41361886
0.30887806 0.16202077 -0.03715706 -0.14760455 0.04833476 0.2441142 -0.056866445 0.54133695
0.23263384 -0.009709706 -0.29704094 -0.06784759 -0.14287691 0.4747624 0.08336932 -0.030647712
-0.28996804 -0.054446917 -0.12409837 -0.40450385 -0.016008893 -0.04390771 -0.08918775 0.10041852
-0.058648337 -0.08788136 -0.07610718 0.06697153 -0.078793965 -0.054704398 -0.021800514 -0.020530146
0.06863671 -0.25946042 -0.13516892 -0.16040942 -0.07036752 0.28563032 -0.10588115 0.40560934
-0.06288086 0.0032832574 0.28176907 -0.25700545 0.058187995 -0.1463845 0.008028292 0.020474365

fc4.weight f4 [32, 64]
00000000: 70a8 42bc 883a 64bd 1cf4 0f3d a88a a7bd
00000010: ca1d cbbd 949c 563d 0496 ce3d fcba 253d
00000020: 0c7b e4bd 002e 2abd 3cc7 e4bd 54a3 abbd
00000030: b44f ffbd 30d0 8dbd 1849 b43c 4c7a e93d
00000040: 9e0b a2bd 7830 8c3d bcf7 fd3d 7cb5 0ebd
00000050: 1072 333d 7020 593d 000a 743c acda 23bd
00000060: c2d6 a2bd 4caf 073d 809b 1ebc 5623 9abd
00000070: cc77 53bd 06b1 843d 980a 6a3d e091 97bb
00000080: 44ed 0e3d 3cfe 6c3d 1c38 2cbd 7234 c03d
00000090: 2e00 9dbd ac22 c2bd c8b0 a6bd 7a92 c2bd
000000a0: 3009 dfbd c2b8 aebd 803c a13a a2d9 e1bd
000000b0: 6c36 543d 5296 b9bd d033 ec3d 18b1 243d
000000c0: 44f1 82bd e073 1d3d caec a5bd 78c4 e5bd
000000d0: 50d7 59bd e840 7d3d 60d6 6d3d e0fa af3b
000000e0: b0aa 7abc 90d0 4c3c 662a f1bd fc7f f6bd
000000f0: 009c 973d 9ef5 9e3d e027 82bc 5879 4d3d
00000100: 95c4 0ebe 8100 2c3e 05de 9b3a a099 c73b
00000110: 4064 4c3b b0a4 243e e101 a1bd 9a75 07be
00000120: ee0a bbbd 716c 953b 3343 893a d73a 38bc
00000130: 88d7 03be 648f da3d 4883 ccbc 991e 8bbc
00000140: 0032 c4bd 45e9 c8bd 8429 223d a1a4 6f3c
00000150: bc35 35bc da86 83bd 45c6 5abd 008a 77ba
00000160: 94df cbbd 81f4 d0bd 1d80 843d ec0e b03a
00000170: 33ec 783b caa9 e8bd 8492 4f3d 5b15 31be
00000180: 6c4d c23d 54a1 05bd d4a0 533d 044e 093d
00000190: 17c4 0dbe fa19 14be 0a92 a93d a012 bf3c
000001a0: 32ad 3dba e0e3 08bd 1724 893c 20f1 2ebe
000001b0: 00a7 fcbb a63d db3d 3878 81bd d83d 58bc
000001c0: af07 d8bd 0a14 db3c 395c 52bd 8045 a93a
000001d0: 1890 4b3d 20f8 bfbb 020a f03d 7191 eabd
000001e0: 98d2 d43c 500a bcbc e854 e8bd 988c f7bc
000001f0: 7583 1e3d ca47 d43c 0221 94bd a568 873c
00000200: e040 183e a1e4 4bbd 754f 6dbe 8809 143f
00000210: 3482 0d3f a72b 033a 40f9 293e e0ce 4abe
00000220: e69a 603d c69b dc3d 68a6 533e 54cf 613c
00000230: 2c1a 563e b9e1 0f3f b9f9 5c3e 0359 203f
00000240: 0dae ac3e cee4 b53e 5391 b83e 3787 dfbd
00000250: 3bcb c73d 8be3 043f e765 17bc ee6f b53e
00000260: 0e03 963e f728 2b3e 4dfe f63e acf5 af3d
00000270: 43a5 f6bc 4989 f23e af89 a53e 3eb3 74bc
00000280: 7a45 a53d 0b93 f8bc 76dd 8439 8a8a 3bbc
00000290: 4d8b a73d 24b3 55bd 4d0f 48bc 9caf 4f3e
000002a0: 2d97 053e 5e0d 043e 2d48 cb3e 92d1 e13c
000002b0: 2bec d63e 837d 853e 52d7 1dbe a554 d93d
000002c0: 3b68 263e ca04 4b3e 2b1a 0a3e 5452 b73c
000002d0: 9400 f23d b98c e53e 48e9 b63d aa8e f03e
000002e0: 265a 463e fe01 993d e932 973e 7b60 7e3d
000002f0: d29f 203d 9cfc 073e 7953 4f3e 2b6d de3d
00000300: cf74 29be 72f5 e63d f605 b73d 00a3 47ba
00000310: a709 ef3c 0002 05ba c111 333d e3c8 84bc
00000320: 0c65 febd b83c a4bc ce1a ecbd 40c6 c43d
00000330: 8414 e8bd 9e4b d2bd d2c3 8b3d 7013 50bd
00000340: 80fe e5ba 2141 33be 1c98 1fbe c8e2 583d
00000350: c0c7 98bc 324c f2bd 0064 bd3b 0a38 f7bd
00000360: 8899 cfbd 884a b33d 8c88 ce3d 6814 9f3c
00000370: 086e bd3d 4b82 1ebe 2683 273d 7215 95bd
00000380: 1ee2 8b3d ef51 f1bc 88c2 1f3d 1287 f23d
00000390: 6b78 2abe 8a86 e9bd 9483 d9bd e22e e9bd
000003a0: 9af8 f3bd 0ebe d93d ac1d 1e3d 37c5 97bd
000003b0: 5cf7 a83d 8ea8 21bd 953e 233c 195a e7bc
000003c0: 8e3c 1d3d 9826 cdbd da8b dbbd 745d e53d
000003d0: 6d47 583d 10fd 503c b237 d6bd 9ce4 cbbd
000003e0: 3e58 1abe dd08 953c 53db 40bc fc9d f0bd
000003f0: ba45 463d 5b37 82bd e47d bbbc 4cdf 9a3d
-0.011880979 -0.055719882 0.03514491 -0.081807435 -0.09917791 0.05239542 0.10087207 0.040461525
-0.11156282 -0.041547775 -0.111708134 -0.08380762 -0.12466374 -0.06924474 0.02200751 0.114002794
-0.07912372 0.06845182 0.12400767 -0.034841046 0.04380995 0.05300945 0.014894962 -0.040003464
-0.07951118 0.03312616 -0.009680629 -0.07526271 -0.05162792 0.06479077 0.05713901 -0.004625544
0.034894243 0.057859644 -0.042045698 0.09385003 -0.0766605 -0.094792694 -0.08139187 -0.095005944
-0.10890424 -0.085313335 0.0012301356 -0.11027838 0.051809713 -0.090618744 0.1153332 0.040207952
-0.06393674 0.038440585 -0.081018046 -0.11219114 -0.053183854 0.061829478 0.058065772 0.005370483
-0.015299484 0.012500897 -0.11775665 -0.1203613 0.074028015 0.077616915 -0.015888155 0.05016455
-0.13942178 0.16797067 0.0011891728 0.0060913116 0.0031187683 0.16078448 -0.078616865 -0.13228455
-0.09132944 0.0045600464 0.0010472297 -0.011244497 -0.12875187 0.10671881 -0.024964944 -0.016982364
-0.09579849 -0.09810118 0.039590374 0.014626653 -0.011060175 -0.06422205 -0.05341174 -0.0009442866
-0.099547535 -0.102028854 0.06469748 0.0013432181 0.0037982583 -0.1136051 0.050676838 -0.17293303
0.09487423 -0.032624558 0.05166705 0.033521667 -0.13844334 -0.14463034 0.08279808 0.02332431
-0.0007235586 -0.033420444 0.016740842 -0.1708417 -0.0077103376 0.10705118 -0.06321758 -0.013198338
-0.105483405 0.026742954 -0.05135748 0.0012914389 0.049697965 -0.005858436 0.11720659 -0.11453522
0.025979325 -0.022954136 -0.113443196 -0.030218408 0.038699586 0.025913138 -0.07232858 0.01652939
0.14868498 -0.049778584 -0.23174842 0.57827044 0.552768 0.0005003758 0.16598988 -0.19805479
0.054835223 0.10771899 0.20668948 0.013782341 0.20908421 0.562038 0.21579637 0.6263582
0.3372654 0.35526127 0.36048374 -0.10914462 0.0975556 0.51909703 -0.009240604 0.35436958
0.29299206 0.16714846 0.4824089 0.0859178 -0.0301081 0.47370365 0.32331607 -0.014935313
0.08069892 -0.030343553 0.00025342003 -0.0114466045 0.081808664 -0.052172795 -0.012210679 0.20281833
0.1304595 0.12895724 0.39703503 0.027565751 0.41977057 0.2607232 -0.1541417 0.10611848
0.16250698 0.19826046 0.13486545 0.022378124 0.118165165 0.44833925 0.089312136 0.46983844
0.19370326 0.07471083 0.2953103 0.06210373 0.039214917 0.13279957 0.20246686 0.10860666
-0.16548465 0.11277284 0.08936684 -0.00076155365 0.029179407 -0.00050738454 0.043718103 -0.016209072
-0.12421617 -0.020048484 -0.1152855 0.09608126 -0.11332038 -0.10268329 0.06824459 -0.050799787
-0.001754716 -0.17505313 -0.15585369 0.05295065 -0.018649936 -0.11830939 0.005779743 -0.120712355
-0.10136706 0.0875445 0.10084638 0.01941891 0.092495024 -0.1547939 0.040896557 -0.07279481
0.06830238 -0.029458014 0.03900388 0.11842169 -0.16647498 -0.114026144 -0.106208 -0.11385895
-0.11912651 0.10631953 0.038602516 -0.074106626 0.08250305 -0.039467387 0.009963651 -0.028241204
0.038387828 -0.10017127 -0.10720034 0.111994654 0.052802492 0.012755647 -0.10459842 -0.09955713
-0.15072724 0.018192703 -0.011771041 -0.11748883 0.04840634 -0.063582145 -0.022887178 0.07562122

fc4.bias f4 [32]
00000000: f86d b3bd 1f0c 75bc 98c4 303f 3792 15be
00000010: 5423 1bbd b040 723c a205 8a3b 48ee dcbc
00000020: f40b 963e 6fb5 05be e008 a6bb b3a1 bb3e
00000030: c895 ad3d 8340 56be 33ed af3e ef43 b1bd
00000040: d897 bdbd 4731 1abe 0461 533d 1798 703d
00000050: 6bda dbbd fa72 953e 7d92 8e3d 5674 0c3e
00000060: 1360 95bd b5ed 383e 2e38 363e 3b6e 543f
00000070: 839f 3c3d ce9f 15be c4ae 14be 4274 80be
-0.08761209 -0.014956503 0.6904998 -0.14606558 -0.03787549 0.0147859305 0.0042120973 -0.02696909
0.29305995 -0.13057493 -0.005066976 0.36646804 0.08475834 -0.20923047 0.34360656 -0.086555354
-0.092574775 -0.1505786 0.051606193 0.058738794 -0.10735019 0.29189283 0.06961534 0.13716254
-0.07293715 0.18059428 0.17794868 0.829807 0.04605056 -0.14611742 -0.14519793 -0.25088698

fc5.weight f4 [15, 32]
00000000: a2b3 8cbd 8a58 d43d 7222 e23c a7f8 eebd
00000010: 4735 0abe d7a3 16be d89a 74bd 0682 e13d
00000020: 30ba 1cbe d6b6 5b3e 46bc ab3d 3df4 a5bd
00000030: ac8f ad3d 81b3 6d3e fb34 28be b54d a0bb
00000040: 7cc9 0ebe a3a9 293e 3a3b 6e3e 2489 4e3d
00000050: 5bc9 17be 38ea bf3b c32b 57bd e711 953d
00000060: 9244 ad3c 5f23 90bd 879f 393e 0f6d fa3c
00000070: 69ad 8d3d b63a 0ebe 4b53 19bd 2fb7 453e
00000080: 8075 ccbb d228 68be 16bf bfbe 8ab9 1cbd
00000090: 4727 d83c f8b7 813d 0fc6 7dbe 99ad 2bbe
000000a0: f7f1 d8bc 5858 ad3c 5ed9 70bd a085 1c3e
000000b0: 0b24 c13d f340 783e 0614 7cbe 2a4a 913a
000000c0: 1e5e ed3d 4cf4 eb3d bef4 4cbc 4e10 00be
000000d0: ba85 39be 7d8e 043e 6d2c f23d 0b01 9dbb
000000e0: 047e 913d 8d8a 2c3d f29b 42be 5c2b 90bd
000000f0: 5f53 363d 9279 6dbe e92e 5e3d 82ef 01bd
00000100: 7440 573d 1716 ae3d 30e6 c33e a652 6c3d
00000110: 344c bcbd 6fd0 153e 8569 7e3e 9fea 003e
00000120: 1678 023e 91c2 3cbd 00a4 2cbb 2ea7 f73d
00000130: 60a2 0f3e 3be8 393e 4750 a63e 329c 97bd
00000140: 01c3 2a3e 751e 093e 90de 043d b37f b2bd
00000150: 704e 683d f301 ef3d 2927 d0bd c500 8ebc
00000160: e2fd 623d 6a81 263e be1f 9c3e 9e2e 653e
00000170: 6801 eebd 21b6 89bd 464e 0c3e 3b79 3e3d
00000180: 371b 32be 4e68 cebd 6052 9a3e 8493 233e
00000190: 64a7 4fbd b6cc ae3d 1dd8 e43e 52e2 30be
000001a0: f0e2 a2be 0028 e93d e874 8ebc ce32 e6bd
000001b0: c414 dbbd 392d 453e ddc4 0e3e d90c 0a3d
000001c0: 1116 0c3e bcac 11be f6a2 35be 24ac 5c3f
000001d0: 2c5d d33d dcd9 62bd 1e24 aabe b6fb 0abe
000001e0: 7715 fa3d 29aa a6be c62b 74bd 2d06 a2bd
000001f0: b299 893d 1735 cb3c 89e7 403d a8ad cbbc
00000200: 4028 113d 7bc6 c73d 4ced 283d 7cd9 8c3d
00000210: e057 b2bd 3e1d 9e3d 2471 3fbd 30d0 bcbc
00000220: 755b 81bd 94e5 65bd 052c 11be e07e 26bd
00000230: 24b2 b1be cdb6 c9bc b8e0 ab3e 0b7c d0bd
00000240: f1f7 2f3e 8bd3 93be 4a6c 3ebe 29b8 b0bd
00000250: 9183 db3d bd44 233c edcc 74be 3a71 8ebe
00000260: 15b8 043e 4f09 a0be 0b90 913d b769 1e3e
00000270: 1014 103e 9371 b9bd be94 5cbc d0a2 c83d
00000280: c5c7 0f3e a8f9 b8bc fc0b e93e 5aab a73c
00000290: bbab 07bd b2fe 18be 60f3 053f 6884 953d
000002a0: bd04 463e 6531 823d b0ae 613c 23ef cabc
000002b0: 4cfd 163e ee5e 51be 2459 ef3c 9bba da3c
000002c0: ba49 f03d dff8 fa3d 2667 2a3e 5892 2ebe
000002d0: c187 713d 4c6e e3bc 5f35 b73d c050 373d
000002e0: cfcb 1cbe 932b 26bd 1a15 95bc 879c 553e
000002f0: f0bd 023e 880b c03d 0650 17be 48ad 873d
00000300: 00fa 3d3b 64b9 b8bd 260a a4be f6c9 233e
00000310: b926 c1bd 2002 82bb 20af fe3c 421b 91bd
00000320: fe53 283e 6666 e4bd b90f 1fbe 21bb 433d
00000330: d5d1 293d df13 efbc 6ccc c03e 6136 2cbe
00000340: 623d 1abe a5c2 f7bc c941 013d fa1d 36bc
00000350: 8627 1e3e 02f0 c6bd 43e0 213e 38d4 b8bd
00000360: 2621 523d 4d0d 13bc f2e2 f9bd 7d63 313d
00000370: d2f5 703e 4682 fcbd f4cc 27be 4c95 713e
00000380: 25c5 2f3e ddf5 463c a6a0 a53e a06d f4bd
00000390: af06 49bc e5b7 293e 3a9c 74bd 6024 59bc
000003a0: 8dda 49be 6549 503d ea78 bb3d ec6e 06be
000003b0: dfa3 debd 31e2 8c3e 0699 4d3e b577 ad3d
000003c0: b466 a7bd 79a5 d73c 67be c8bd 099f f839
000003d0: 12f6 d03e db68 8fbd e52c 953d e986 00bc
000003e0: 894b 80be ad58 8abd adc8 093d 6ab9 513e
000003f0: 7001 293e a31e 9fbc 5197 7cbd 71e4 5f3e
-0.068702 0.1036845 0.027604315 -0.116685204 -0.13496886 -0.14710937 -0.059717983 0.11011128
-0.153054 0.21456465 0.0838552 -0.081032254 0.08474669 0.23213007 -0.1642646 -0.004892076
-0.13944048 0.16568618 0.2326478 0.050423756 -0.14822905 0.0058567785 -0.05253197 0.07278805
0.021150861 -0.070379965 0.18127261 0.030569581 0.06917841 -0.13889584 -0.03743295 0.1930816
-0.006239593 -0.22671822 -0.37450475 -0.03826288 0.026385916 0.063339174 -0.24782585 -0.16765441
-0.026482565 0.02116029 -0.058801048 0.15285349 0.09430703 0.24243526 -0.24617013 0.0011084725
0.11590217 0.11521205 -0.012509523 -0.1250622 -0.18117419 0.1294498 0.1182488 -0.004791384
0.07104114 0.04212432 -0.19004801 -0.0703952 0.044513103 -0.23190907 0.054243956 -0.031722553
0.0525517 0.08500307 0.38261557 0.057696007 -0.09194222 0.14630292 0.2484494 0.12589501
0.12741122 -0.04608399 -0.0026342869 0.12092434 0.14026785 0.18154995 0.32483122 -0.07402839
0.1667595 0.13390525 0.032438815 -0.08715763 0.05671543 0.11670294 -0.10163719 -0.017334351
0.055417903 0.16260305 0.30492967 0.22381064 -0.11621362 -0.067241915 0.13701734 0.046502333
-0.17393194 -0.10078488 0.30140972 0.15974241 -0.050696746 0.08535139 0.4469613 -0.17273834
-0.31813765 0.113845825 -0.01738973 -0.11240159 -0.1069732 0.19255532 0.13942285 0.03370366
0.13680293 -0.14226049 -0.17737946 0.86200166 0.103205055 -0.05538355 -0.3323068 -0.13572583
0.12211125 -0.32551697 -0.059612058 -0.07911334 0.06718768 0.024805589 0.04709581 -0.02486308
0.035438776 0.09754654 0.04124193 0.06877419 -0.08708167 0.07720421 -0.04673876 -0.02304849
-0.06316272 -0.056127146 -0.14176948 -0.04064834 -0.34706223 -0.024623299 0.33569884 -0.10179909
0.17184426 -0.28872332 -0.18595996 -0.08628876 0.10718454 0.009965119 -0.23906298 -0.2782076
0.12960847 -0.31257102 0.07107552 0.15470015 0.14070153 -0.09054866 -0.013463197 0.09796679
0.1404105 -0.022579983 0.45516956 0.020467449 -0.03312276 -0.14940909 0.52324486 0.07300645
0.19337745 0.063570775 0.013774559 -0.024772232 0.14745063 -0.20446369 0.02921731 0.026700309
0.11732812 0.122545 0.1664091 -0.17048013 0.058967356 -0.027762555 0.089457266 0.044754744
-0.15312122 -0.0405689 -0.018198539 0.20860492 0.12767768 0.093771994 -0.1477662 0.06624848
0.0028988123 -0.090197355 -0.32038993 0.1599501 -0.09431214 -0.0039675385 0.031089365 -0.07085277
0.1643829 -0.111523435 -0.15533341 0.047785882 0.041459877 -0.02918428 0.37655962 -0.16817619
-0.15062478 -0.030244181 0.03155688 -0.011115545 0.15444764 -0.097137466 0.15808205 -0.090248525
0.051301144 -0.008975339 -0.122014895 0.04330777 0.23531273 -0.12329535 -0.16386777 0.23592108
0.17165048 0.012143579 0.32349128 -0.11934972 -0.01226966 0.16574056 -0.0597193 -0.013253301
-0.19712277 0.050851244 0.09153922 -0.13128251 -0.108711 0.2751632 0.20077905 0.08470098
-0.08173886 0.02632402 -0.09801941 0.00047420737 0.40812737 -0.070024215 0.072839536 -0.007844665
-0.2505763 -0.06755195 0.033638645 0.20480886 0.16504455 -0.019423788 -0.061667744 0.21864487

fc5.bias f4 [15]
00000000: 5e02 013e 9816 863c 5cec 4b3e 2785 99be
00000010: f9fd 063f 7b9b 963e ff8d 10be 13b5 bb3f
00000020: 4377 a93e 8ace d3bd d16c a43f 1a08 ea3e
00000030: 8d87 fc3c ad47 f83f 2002 013f
0.1259856 0.016368195 0.19914383 -0.299844 0.5273128 0.29415497 -0.14116667 1.4664634
0.33098802 -0.103421286 1.2845708 0.45709306 0.030826354 1.9396874 0.5039387
