treated_ECG/best_model.pth (torch, 588779 bytes, 10 tensors)

fc1.weight f4 [256, 400]
0.12509404 0.059969928 -0.33723095 -0.46239367 -0.18552144 -0.0636693 0.049393926 -0.08959763
-0.060123418 0.23183928 0.19563049 0.0574356 0.02892043 -0.09948042 -0.009959056 -0.20562653
-0.420267 -0.1970809 -0.30671206 -0.19354175 -0.008579547 -0.15407893 -0.25095794 -0.1516248
0.13802935 0.0074000265 -0.34091765 -0.665855 -0.43872473 0.2544447 -0.055825435 -0.31972447
-0.3204638 -0.28421512 -0.3203166 -0.15760715 -0.18610133 -0.24987891 0.0037269213 -0.037155095
-0.027713688 -0.06668294 0.21170951 0.23904969 0.21830715 0.4178935 0.21919481 -0.09893072
-0.16645698 -0.21995507 -0.045263406 -0.65975744 -0.6731555 -0.34922278 -0.01736544 0.14888743
0.005377055 -0.023504259 0.034006946 -0.28892636 0.09380769 0.20931812 -0.029460432 -0.18161125
-0.45284927 -0.12666106 -0.1628081 -0.4980937 -0.3923988 0.07896491 0.060192086 0.020670671
0.37310365 -0.03286719 -0.1211929 0.079718366 0.21960433 0.016285226 -0.16507466 -0.081933975
0.04614369 -0.032878917 0.093502216 -0.1888011 -0.4400176 -0.330677 -0.113799125 -0.10598151
-0.35423848 -0.67014235 -0.33653918 0.05685439 0.26560754 0.015034166 -0.03592136 0.17674285
0.023309061 0.13667393 0.067587756 -0.12518677 -0.44073838 -0.34528694 0.00015186108 -0.06049115
0.011780164 0.12325062 -0.42817253 -0.5568265 -0.3836648 -0.2362255 -0.12484783 -0.1824739
-0.16204795 -0.075692356 -0.03759487 0.057800423 -0.13229154 -0.28864968 -0.2464826 -0.13746038
0.08033191 0.16877791 -0.11693391 -0.09116002 0.033694595 0.06840904 -0.0803993 -0.018270027
0.124798484 -0.022336254 -0.1813016 0.34442064 0.069754705 -0.30613065 -0.07660454 -0.08475725
0.37051728 0.21005002 -0.039613754 0.12577184 0.52698153 0.4416134 0.26592523 -0.10644342
0.024937991 0.19885814 0.07976974 -0.02309434 0.013433203 -0.08154299 -0.055457577 -0.20125172
-0.8099995 -0.64778805 -0.3447449 0.1932137 0.271755 -0.0055260328 -0.14728037 -0.41072884
-0.2898518 -0.32010886 -0.07590252 0.2182829 0.25918514 -0.033475783 0.094358325 0.12147048
0.1594076 0.1789596 0.055508718 0.45420617 0.5808269 0.30051774 -0.21142837 -0.23700993
-0.02798294 0.27803674 -0.15250877 0.20768028 0.36260626 0.34698886 0.014578774 0.046999354
0.08686488 0.11876194 0.05844374 0.0059688934 -0.0055933506 -0.05562113 -0.26896766 -0.078021705
0.08988621 0.20050977 0.23328634 0.2218151 0.23681241 0.14668696 0.14526623 0.20713224
0.13865484 0.1278473 0.15629503 0.17904316 0.1566282 0.083866194 0.05676892 0.14820944
0.23686741 0.33577096 0.31840864 0.27275795 0.28734702 0.20223723 0.24663262 0.33540642
0.3824076 0.46223614 0.35537502 0.34250954 0.30676657 0.23673514 0.18328437 0.24211884
0.12803607 0.20931865 0.04167933 -0.07324219 -0.037819028 0.2002715 0.19120896 0.1531476
0.19149315 0.03425462 -0.07737063 0.06660942 0.18384458 0.25869927 0.12717459 0.17958467
0.047001015 -0.103028506 0.040482674 0.02817571 0.006448748 0.11154606 -0.017992862 0.23810619
0.4023895 0.40460867 0.24266791 0.27534255 0.14780116 0.12701951 0.119699165 0.3097547
00000000: a718 003e 07a3 753d 89a9 acbe ddbe ecbe
00000010: 55f9 3dbe 0d65 82bd 4951 4a3d f67e b7bd
00000020: f943 76bd 4767 6d3e 5c53 483e 9741 6b3d
00000030: 8aea ec3c 64bc cbbd 4f2b 23bc c38f 52be
00000040: 3c2d d7be 93cf 49be 5d09 9dbe cf2f 46be
00000050: 3a91 0cbc dec6 1dbe 8f7d 80be 8843 1bbe
00000060: 9157 0d3e ec7b f23b c28c aebe 7975 2abf
00000070: 87a0 e0be 9346 823e 36a9 64bd edb2 a3be
00000080: d513 a4be a584 91be 8a00 a4be c563 21be
00000090: 5991 3ebe 42e0 7fbe 5d3f 743b f12f 18bd
000000a0: d107 e3bc 1191 88bd 61ca 583e 71c9 743e
000000b0: e98b 5f3e 23f6 d53e 9b74 603e 309c cabd
000000c0: b373 2abe e73b 61be 1f66 39bd dde5 28bf
000000d0: eb53 2cbf 54cd b2be f841 8ebc f275 183e
000000e0: 0232 b03b 018c c0bc de4a 0b3d 28ee 93be
000000f0: 3f1e c03d 7d57 563e 0157 f1bc 4df8 39be
00000100: dcdb e7be 70b3 01be 2bb7 26be 2306 ffbe
00000110: 7fe8 c8be 5bb8 a13d fa8b 763d 8a55 a93c
00000120: 7107 bf3e bf9f 06bd fc33 f8bd 6243 a33d
00000130: f5df 603e 9868 853c 5509 29be 00cd a7bd
00000140: 2a01 3d3d 0bac 06bd 177e bf3d 1355 41be
00000150: fd49 e1be 7f4e a9be 840f e9bd d50c d9bd
00000160: bf5e b5be 738e 2bbf dd4e acbe 26e0 683d
00000170: b6fd 873e dd51 763c 4722 13bd 14fc 343e
00000180: a5f2 be3c 40f4 0b3e 736b 8a3d f630 00be
00000190: 76a8 e1be 73c9 b0be e63c 1f39 91c5 77bd
000001a0: 9701 413c d26a fc3d 6e39 dbbe 2e8c 0ebf
000001b0: b66f c4be 19e5 71be 38b0 ffbd 70da 3abe
000001c0: e6ef 25be 9804 9bbd 14fd 19bd 23c0 6c3d
000001d0: 6f77 07be e4c9 93be ef65 7cbe 6ac2 0cbe
000001e0: 0e85 a43d 1ed4 2c3e 0c7b efbd 1bb2 babd
000001f0: 5803 0a3d 0a1a 8c3d 63a8 a4bd 06ab 95bc
00000200: 5996 ff3d 85fa b6bc 20a7 39be e757 b03e
00000210: 8edb 8e3d 28bd 9cbe d7e2 9cbd 3695 adbd
00000220: 71b4 bd3e 5a17 573e 0842 22bd 55ca 003e
00000230: 43e8 063f 271b e23e 5a27 883e 02ff d9bd
00000240: c24a cc3c 78a1 4b3e 515e a33d 5730 bdbc
00000250: f016 5c3c 0300 a7bd 7c27 63bd ee14 4ebe
00000260: 215c 4fbf 70d5 25bf 6782 b0be d0d9 453e
00000270: 7923 8b3e b913 b5bb aad0 16be 0d4b d2be
00000280: 7567 94be 4fe5 a3be c872 9bbd 8d85 5f3e
00000290: eab3 843e e71d 09bd f03e c13d 84c5 f83d
000002a0: bf3b 233e 2f41 373e 1c5d 633d b68d e83e
000002b0: 12b1 143f 76dd 993e ae80 58be bbb2 72be
000002c0: 7b3c e5bc d55a 8e3e 422b 1cbe 24aa 543e
000002d0: 87a7 b93e 86a8 b13e cfdb 6e3c 6582 403d
000002e0: 37e6 b13d 7639 f33d b462 6f3d b596 c33b
000002f0: 6d48 b7bb fbd2 63bd 21b6 89be d8c9 9fbd
00000300: 4316 b83d 6f52 4d3e 9de2 6e3e 7f23 633e
00000310: f47e 723e 1b35 163e acc0 143e 791a 543e
00000320: 89fb 0d3e 67ea 023e ce0b 203e 1757 373e
00000330: 2563 203e 0ac2 ab3d 8786 683d 37c4 173e
00000340: 5f8d 723e 2cea ab3e 7506 a33e eea6 8b3e
00000350: 261f 933e 4717 4f3e 438d 7c3e 64ba ab3e
00000360: eeca c33e 37aa ec3e b7f3 b53e 695d af3e
00000370: 8210 9d3e b26a 723e e6ae 3b3e 00ee 773e
00000380: e31b 033e a157 563e f2b7 2a3d 0000 96bd
00000390: 20e8 1abd f913 4d3e 48cc 433e b9d2 1c3e
000003a0: c816 443e 934e 0c3d 7e74 9ebd 856a 883d
000003b0: c141 3c3e 3b74 843e 0e3a 023e 0be5 373e
000003c0: 2384 403d 9c00 d3bd 29d1 253d bfd0 e63c
000003d0: 0550 d33b 4372 e43d c465 93bc 1cd2 733e
000003e0: ff05 ce3e de28 cf3e f07d 783e b3f9 8c3e
000003f0: 3059 173e 6711 023e d624 f53d 2b98 9e3e

fc1.bias f4 [256]
0.42205992 0.5056789 0.43860963 0.48382324 0.39937654 0.49530256 -0.040834986 0.5102799
0.3428184 0.36007896 0.42835397 -0.14511329 0.32761455 0.3736791 0.40769485 0.29431564
0.39691225 -0.07762416 0.17308661 -0.010209127 -0.022368493 0.30771506 -0.042956807 0.5653405
0.07596742 0.15865262 0.4974448 0.49031347 0.41516462 -0.06987004 0.37096405 0.42885324
0.2886439 0.50891364 -0.05183349 0.43299124 0.49834913 0.262067 -0.024477359 0.24434523
-0.0148707675 -0.14499411 0.54949325 -0.043467052 -0.04023812 -0.06902278 0.29869 -0.12615146
0.40479806 -0.09763205 -0.07893458 -0.00423276 0.37783444 0.24653475 0.35946018 0.23644629
0.4001627 -0.10542392 0.28519875 -0.087692186 -0.03537682 0.34294692 -0.043443255 0.41519976
0.21729757 -0.14690535 0.36792722 0.006100219 0.26379314 -0.020676926 0.01726355 0.5257224
0.13943356 0.4724864 0.0035397771 0.009522367 0.14917426 0.3847388 0.27345958 0.38938883
0.16369627 -0.06000977 -0.06459477 0.4421329 -0.083983116 -0.077676915 0.23771237 -0.01490801
0.4918269 0.3811116 -0.06439496 -0.08588949 0.45297548 -0.0039093024 0.41363233 -0.0426976
-0.041885607 0.45197213 0.10463617 0.0707277 0.30271053 -0.08249187 -0.046454526 -0.057280738
-0.025141336 -0.033741772 0.32146937 0.39681807 -0.04731219 -0.06180047 0.5434177 -0.08241444
0.45358136 -0.06016149 0.3482227 -0.08857049 -0.051689427 0.19232798 0.36318484 0.305673
-0.023812432 0.3845625 -0.13495246 -0.06462976 -0.22627683 0.5156908 -0.006532273 0.58493847
0.50734985 0.3294753 -0.07848552 0.21323447 -0.022570154 0.44089803 -0.034129318 -0.110681005
-0.12721801 0.3917946 -0.10845308 -0.0775724 0.23283155 -0.07610277 0.52874345 0.49542543
-0.11756002 -0.018933468 -0.08976305 0.29969588 -0.07201864 0.12235942 -0.050533194 0.4792266
-0.0785057 -0.13723987 -0.004853405 -0.07515045 0.46422246 0.3644497 0.29776016 0.4718425
-0.1161581 -0.08001159 0.47356027 -0.08231162 -0.032610297 -0.045797393 0.34425908 -0.06778268
0.46596345 0.35751274 -0.13702127 0.43132764 0.43990147 0.4049677 0.4310387 0.040048398
-0.12188058 0.011546684 -0.057149913 0.42092222 0.40209907 -0.05814897 -0.1365288 -0.08561183
0.45949772 -0.09236247 0.37703383 -0.0071524186 0.36889365 -0.083057664 0.34673426 -0.048048213
0.17194524 -0.005675491 0.029977554 0.33766523 0.37140813 0.30376047 0.40334433 0.43792462
0.47576645 0.43201947 0.5344676 -0.1086642 -0.053912695 -0.04365808 0.4301685 0.49894348
-0.10313613 -0.053945478 -0.02388405 0.42011064 0.42821366 -0.15209432 -0.10146817 -0.02311931
0.4351222 0.40988728 0.1617982 0.35938302 0.39677677 0.48401603 -0.09085816 -0.06423161
-0.072569616 -0.02248533 0.021165283 -0.09007275 0.042817637 0.46460965 0.30657983 -0.012672814
0.50532323 -0.06132679 -0.059351325 -0.016326861 0.32308584 0.4259166 0.47256428 0.3963224
0.56609887 -0.1143666 -0.1482511 -0.03824632 -0.11855807 0.06685916 -0.09169453 -0.084092036
-0.075983874 -0.076663546 0.45077494 0.37239575 0.0055721835 -0.053071145 0.33622807 -0.040661693
00000000: 3d18 d83e 2c74 013f 7191 e03e aeb7 f73e
00000010: 157b cc3e 4c98 fd3e 9642 27bd b4a1 023f
00000020: e585 af3e 455c b83e 3651 db3e 9498 14be
00000030: 18bd a73e de52 bf3e 61bd d03e 8ab0 963e
00000040: 1538 cb3e 6af9 9ebd 9e3d 313e 2f44 27bc
00000050: 213e b7bc d48c 9d3e 7af3 2fbd 28ba 103f
00000060: cf94 9b3d d575 223e 16b1 fe3e 5e0a fb3e
00000070: 7590 d43e 0618 8fbd 00ef bd3e a792 db3e
00000080: 22c9 933e 2a48 023f 5b4f 54bd 07b1 dd3e
00000090: 9e27 ff3e a52d 863e be84 c8bc a335 7a3e
000000a0: 85a4 73bc 5679 14be 97ab 0c3f 820a 32bd
000000b0: bad0 24bd d15b 8dbd e5ed 983e d92d 01be
000000c0: b141 cf3e 50f3 c7bd 74a8 a1bd f7b2 8abb
000000d0: 8473 c13e 9b73 7c3e 2a0b b83e fa1e 723e
000000e0: 20e2 cc3e 7fe8 d7bd 9205 923e f697 b3bd
000000f0: 49e7 10bd bd96 af3e 8ef1 31bd 1095 d43e
00000100: 4183 5e3e 5b6e 16be f560 bc3e 59e4 c73b
00000110: e50f 873e a862 a9bc 4a6c 8d3c be95 063f
00000120: acc7 0e3e bde9 f13e 9bfb 673b b403 1c3c
00000130: 23c1 183e 7cfc c43e e502 8c3e f95d c73e
00000140: ff9f 273e cecc 75bd 434a 84bd 3e5f e23e
00000150: 57ff abbd 1315 9fbd df6a 733e ba40 74bc
00000160: bcd0 fb3e 0f21 c33e 81e1 83bd d4e6 afbd
00000170: 67ec e73e 9b19 80bb 9ec7 d33e aee3 2ebd
00000180: 3e90 2bbd e468 e73e 7d4b d63d afd9 903d
00000190: e0fc 9a3e 7ff1 a8bd 1a47 3ebd 359f 6abd
000001a0: 34f5 cdbc d034 0abd a297 a43e bd2b cb3e
000001b0: 6dca 41bd 7d22 7dbd 6c1d 0b3f e7c8 a8bd
000001c0: d13b e83e e56b 76bd 3f4a b23e 7264 b5bd
000001d0: 4bb8 53bd a0f1 443e 5df3 b93e 2c81 9c3e
000001e0: 4a12 c3bc 60e5 c43e fa30 0abe 9c5c 84bd
000001f0: 1db5 67be 5004 043f ad0c d6bb 87be 153f
00000200: aee1 013f fdb0 a83e 04bd a0bd 235a 5a3e
00000210: 0be5 b8bc 63bd e13e 2fcb 0bbd b9ac e2bd
00000220: 7045 02be 4d99 c83e a61c debd 47de 9ebd
00000230: 656b 6e3e c5db 9bbd bb5b 073f 67a8 fd3e
00000240: 4fc3 f0bd 5c1a 9bbc b1d5 b7bd bd71 993e
00000250: 827e 93bd 9397 fa3d e5fb 4ebd 305d f53e
00000260: 99c7 a0bd 9c88 0cbe 5009 9fbb 7be8 99bd
00000270: 91ae ed3e 2799 ba3e 0574 983e 5795 f13e
00000280: 4ce4 edbd 1edd a3bd 7e76 f23e ff92 a8bd
00000290: 6092 05bd 0c96 3bbd ba42 b03e a5d1 8abd
000002a0: c392 ee3e e90b b73e 4e4f 0cbe fad6 dc3e
000002b0: c43a e13e ed57 cf3e 1bb1 dc3e ca09 243d
000002c0: 879c f9bd 4e2e 3d3c 0716 6abd 1e83 d73e
000002d0: eedf cd3e 9d2d 6ebd 35ce 0bbe 4155 afbd
000002e0: 4943 eb3e 8928 bdbd 940a c13e d65e eabb
000002f0: a1df bc3e 231a aabd 2787 b13e 34ce 44bd
00000300: 6a12 303e 78f9 b9bb 7d93 f53c 75e2 ac3e
00000310: 3529 be3e 7e86 9b3e 2683 ce3e a837 e03e
00000320: a997 f33e a831 dd3e ded2 083f 568b debd
00000330: 8fd3 5cbd d1d2 32bd 0c3f dc3e 8575 ff3e
00000340: 0939 d3bd eff5 5cbd 7ca8 c3bc be18 d73e
00000350: d23e db3e 9dbe 1bbe 8bce cfbd b564 bdbc
00000360: 56c8 de3e bfdc d13e 6dae 253e 0d01 b83e
00000370: 5326 cb3e f3d0 f73e d813 babd dd8b 83bd
00000380: 619f 94bd 2833 b8bc d162 ad3c 1078 b8bd
00000390: 8c61 2f3d 51e1 ed3e 08f8 9c3e a2a1 4fbc
000003a0: dd5c 013f cd31 7bbd 601a 73bd e9bf 85bc
000003b0: 826b a53e be11 da3e f2f3 f13e c5ea ca3e
000003c0: dbeb 103f 0939 eabd 23cf 17be 2ca8 1cbd
000003d0: 93ce f2bd 75ed 883d 57ca bbbd 7238 acbd
000003e0: 6f9d 9bbd c701 9dbd f9cb e63e a8aa be3e
000003f0: dd96 b63b 2161 59bd 1626 ac3e e08c 26bd

fc2.weight f4 [128, 256]
-0.40142846 -0.14293548 -0.029336885 -0.20155232 -0.31648338 -0.40433356 0.18259567 -0.1337702
0.2000075 -0.47816202 -0.31600085 0.2502639 -0.42098534 -0.41362926 -0.33695707 0.1856855
0.06344855 0.25780526 -0.6470917 0.36375558 0.26166254 -0.5859229 0.24489263 -0.13977599
0.17427322 -0.6794297 0.008224673 -0.21002585 -0.6792613 0.31191552 -0.46255484 0.08300034
-0.6563789 -0.12921731 0.27082303 0.13815828 -0.15232906 0.12840259 0.2717585 0.2080546
0.31467104 0.25651053 -0.10577141 0.18180832 0.21400842 0.20177329 0.14801778 0.17845447
-0.54633653 0.34104824 -0.47852474 0.19367974 0.10347631 -0.6775816 0.060792107 0.14028774
-0.3853313 0.30190283 -0.082669325 0.23959272 0.12888223 -0.5190338 0.25123963 -0.29611373
-0.7468461 0.08117628 -0.34554482 0.14772387 -0.69688183 0.2035666 0.16308624 -0.107654326
0.29595459 -0.34741503 0.25946242 0.23465204 0.15157837 0.049478695 -0.7175805 -0.37229723
0.2118586 0.2346644 0.056703962 -0.03380072 0.16149361 0.09001745 0.13703233 0.1990384
-0.22539675 -0.42911565 0.14225796 0.1828351 -0.4324744 0.15631953 -0.2099279 0.06861374
0.3349859 -0.1819008 0.25455084 0.16941534 0.14062673 0.26968744 0.22191064 0.1632495
0.13640212 0.21895708 -0.63271135 -0.14644495 0.27157995 0.26100585 -0.051015355 0.23790485
-0.47782347 0.13733767 -0.6186568 0.18218708 0.22236507 -0.7493881 -0.49973562 0.1643889
0.16847433 -0.14830479 0.339495 0.28641146 -0.4384393 -0.082475446 0.30984756 -0.08726422
-0.098467916 -0.46707043 0.21923101 0.24581651 0.38633183 -0.18500508 0.095714904 0.2191842
0.29170933 -0.33302078 0.3148452 0.19630934 -0.6807374 0.26733604 -0.1610769 -0.1111096
0.31760827 0.12532428 0.2272508 -0.48899156 0.22336088 -0.71498454 0.24288787 -0.10739799
0.09943365 0.26662597 0.22409715 0.26943046 -0.21288344 0.07669961 0.13520119 -0.17495914
0.31078905 0.21188718 -0.14827816 0.18209155 0.15619914 0.20409416 -0.5572148 0.10985109
-0.23304167 -0.57073826 0.25072747 -0.0057166438 -0.28513718 -0.2242712 -0.14786252 0.2405989
0.18698992 0.28722072 0.10763689 -0.35785934 0.037168045 0.21111195 0.24509564 0.29975098
-0.18217988 -0.59365827 -0.18114749 0.3865563 0.1187537 0.24555248 -0.41778708 0.2115422
0.24784735 0.26832882 0.26624137 0.01591138 -0.2200825 -0.30160576 -0.16845618 -0.09968053
-0.14364731 -0.16871652 0.12549697 0.319133 0.17774206 0.19859396 -0.0054171025 -0.18829829
0.31064302 0.24901089 0.22400868 -0.37864578 -0.1884426 0.2889724 0.3152619 0.18264687
-0.21671182 -0.4636914 0.17665572 -0.1537504 -0.5374881 -0.07538103 0.23551488 0.32510224
0.32935888 0.21694404 0.19334091 0.19214542 0.2958738 -0.22340277 -0.61262006 0.36505383
-0.10657639 0.15179473 0.15993746 0.17218576 0.14803998 -0.3123973 -0.19934614 0.1265858
-0.09577893 0.20942678 0.1196997 0.15426137 0.3504867 -0.6548341 0.30646276 0.21442762
0.17274562 0.33630237 -0.12192409 -0.6325619 0.15401708 0.15594165 -0.24244334 0.27288747
00000000: 0888 cdbe ae5d 12be e853 f0bc bb63 4ebe
00000010: 1c0a a2be cf04 cfbe 5cfa 3a3e 0efb 08be
00000020: c4ce 4c3e a7d1 f4be ddca a1be 9722 803e
00000030: 648b d7be 37c7 d3be a385 acbe 5724 3e3e
00000040: 50f1 813d 0dff 833e cda7 25bf 2c3e ba3e
00000050: a2f8 853e 0bff 15bf 22c5 7a3e 7021 0fbe
00000060: ae74 323e 1bef 2dbf c7c0 063c 0411 57be
00000070: 12e4 2dbf 64b3 9f3e fdd3 ecbe 15fc a93d
00000080: 7308 28bf 8b51 04be 51a9 8a3e 5d79 0d3e
00000090: 26fc 1bbe f87b 033e ee23 8b3e 440c 553e
000000a0: 901c a13e 5955 833e ae9e d8bd f62b 3a3e
000000b0: 0625 5b3e a89d 4e3e f991 173e c5bc 363e
000000c0: b6dc 0bbf e09d ae3e 3201 f5be fb53 463e
000000d0: 63eb d33d fd75 2dbf 2501 793d 97a7 0f3e
000000e0: 254a c5be 0293 9a3e 894e a9bd cb57 753e
000000f0: b4f9 033e 66df 04bf 7ba2 803e 389c 97be
00000100: 4e31 3fbf c03f a63d 40eb b0be ed44 173e
00000110: d966 32bf c373 503e 1400 273e df79 dcbd
00000120: 5c87 973e 62e0 b1be 42d8 843e a048 703e
00000130: 5c37 1b3e 2caa 4a3d 5bb3 37bf be9d bebe
00000140: 76f1 583e dd4b 703e 6a42 683d a072 0abd
00000150: 955e 253e 125b b83d 3452 0c3e b9d0 4b3e
00000160: 68ce 66be 0cb5 dbbe 12ac 113e 2039 3b3e
00000170: 496d ddbe 3a12 203e 57f7 56be 5c85 8c3d
00000180: 4683 ab3e 3444 3abe 7d54 823e 377b 2d3e
00000190: 7400 103e 7914 8a3e 8b3c 633e e02a 273e
000001a0: ffac 0b3e 4936 603e 5ff9 21bf aaf5 15be
000001b0: 870c 8b3e 8fa2 853e 7af5 50bd 549d 733e
000001c0: 47a5 f4be 3fa2 0c3e 4b60 1ebf 408f 3a3e
000001d0: abb3 633e e6d7 3fbf 59dd ffbe 9055 283e
000001e0: 8984 2c3e 36dd 17be 4ad2 ad3e 86a4 923e
000001f0: 1e7b e0be e3e8 a8bd 57a4 9e3e 95b7 b2bd
00000200: 8ca9 c9bd db23 efbe 187e 603e 53b7 7b3e
00000210: 49cd c53e f971 3dbe 2d06 c43d d371 603e
00000220: ed5a 953e b381 aabe 6433 a13e 5105 493e
00000230: ce44 2ebf 45e0 883e 58f1 24be 6e8d e3bd
00000240: 8d9d a23e 0255 003e 6fb4 683e 1a5d fabe
00000250: b7b8 643e 3a09 37bf 99b7 783e 7af3 dbbd
00000260: dfa3 cb3d 3383 883e b979 653e caf2 893e
00000270: 1efe 59be af14 9d3d 2e72 0a3e 7d28 33be
00000280: be1f 9f3e f4f8 583e 3bd6 17be 3576 3a3e
00000290: abf2 1f3e 0ffe 503e a1a5 0ebf 9cf9 e03d
000002a0: 7aa2 6ebe e71b 12bf 5a5f 803e af52 bbbb
000002b0: 80fd 91be 59a7 65be 4669 17be 8f5f 763e
000002c0: 497a 3f3e 980e 933e bb70 dc3d 5739 b7be
000002d0: 853d 183d bb2d 583e 5afa 7a3e f678 993e
000002e0: 5d8d 3abe fdf9 17bf ba7e 39be b5ea c53e
000002f0: 2435 f33d 1c72 7b3e 30e8 d5be 859e 583e
00000300: b2cb 7d3e 6562 893e ca50 883e 9558 823c
00000310: 4f5d 61be 126c 9abe c77f 2cbe 4e25 ccbd
00000320: 4818 13be 06c4 2cbe 4782 003e 6765 a33e
00000330: 0402 363e 375c 4b3e f381 b1bb 44d1 40be
00000340: 9a0c 9f3e b6fc 7e3e 8862 653e dcdd c1be
00000350: 19f7 40be 31f4 933e 026a a13e c807 3b3e
00000360: b4e9 5dbe f668 edbe 3de5 343e bf70 1dbe
00000370: d298 09bf 5f61 9abd d02a 713e cd73 a63e
00000380: baa1 a83e 9426 5e3e 29fb 453e c5c1 443e
00000390: c57c 973e b2c3 64be abd4 1cbf 56e8 ba3e
000003a0: b944 dabd 1470 1b3e a5c6 233e 7751 303e
000003b0: cb97 173e 8af2 9fbe 6521 4cbe b59f 013e
000003c0: be27 c4bd f973 563e 1e25 f53d b1f6 1d3e
000003d0: fe72 b33e 35a3 27bf b0e8 9c3e ea92 5b3e
000003e0: 3ae4 303e d32f ac3e 56b3 f9bd 94ef 21bf
000003f0: a7b6 1d3e 2baf 1f3e 1143 78be e8b7 8b3e

fc2.bias f4 [128]
0.00025751733 0.09073254 0.23446791 0.102894105 -0.029097106 -0.024360612 0.14262769 -0.022174167
0.048876666 0.34005553 0.54087037 0.09037865 1.1651042 0.58025426 0.20115022 0.022278816
0.0795855 -0.041733216 0.064004086 0.003057501 0.07906104 0.035149567 0.1682129 0.027054016
-0.031414777 0.064889945 -0.01817211 0.0011345296 0.008007295 -0.0021099916 0.033965062 -0.030762913
0.013802586 0.43381712 -0.03533803 1.4232432 0.096456856 -0.03939799 0.073648244 0.08359085
0.5446992 -0.026105247 0.08961239 0.06863381 0.87997454 0.20700182 0.29445007 -0.029509
0.15103361 0.11403588 0.09766354 0.040677477 0.18062416 0.292477 0.1577808 0.114758484
0.7022814 0.3464361 0.12548962 -0.047930386 1.054113 0.10583851 0.15589851 0.020186944
0.19715977 0.032226015 0.07652256 0.14318267 0.7798411 -0.051590607 0.21886787 -0.021855617
0.12828346 0.020383643 0.008809165 0.48152748 0.96814454 0.013494512 0.051646095 0.08670998
0.6195291 -0.027241092 0.07158444 -0.045458093 0.026691858 0.17860176 -0.013644535 -0.019972302
0.07302128 0.14099616 0.507253 -0.042491157 0.441209 0.24984688 0.09138053 0.23424256
0.073981315 0.51287705 -0.081475064 -0.06128612 -0.048931774 0.0011703025 0.12725751 -0.121730804
-0.012506446 0.29073045 0.6559016 0.15778044 0.19523585 0.020319631 1.2283828 0.19568422
-0.063366465 0.030495007 0.09789906 0.12855105 0.105159126 0.14085121 0.23083809 0.3293274
0.16763979 -0.038962733 1.3065895 0.0352617 -0.06372062 -0.047508456 0.47722787 0.0004030391
00000000: 6403 8739 fbd1 b93d 5b18 703e 25ba d23d
00000010: 0e5d eebc e88f c7bc fe0c 123e 99a6 b5bc
00000020: e632 483d c21b ae3e 7b76 0a3f 7118 b93d
00000030: 2222 953f 8b8b 143f 53fa 4d3e 1082 b63c
00000040: b9fd a23d 73f0 2abd 9314 833d 5b60 483b
00000050: c1ea a13d fef8 0f3d 0140 2c3e 62a0 dd3c
00000060: c8ac 00bd 05e5 843d addd 94bc 7fb4 943a
00000070: 0831 033c c947 0abb f31e 0b3d 8102 fcbc
00000080: 3e24 623c 471d de3e 9cbe 10bd d52c b63f
00000090: 2c8b c53d c95f 21bd e4d4 963d ae31 ab3d
000000a0: 6871 0b3f acda d5bc b386 b73d e28f 8c3d
000000b0: 0346 613f 49f8 533e 29c2 963e dcbc f1bc
000000c0: 8ea8 1a3e a58b e93d d203 c83d 6d9d 263d
000000d0: 8af5 383e 8cbf 953e 4a91 213e 7f06 eb3d
000000e0: b7c8 333f 1360 b13e 5a80 003e a752 44bd
000000f0: 2ded 863f dcc1 d83d dca3 1f3e 175f a53c
00000100: 40e4 493e 6dff 033d dcb7 9c3d 7a9e 123e
00000110: aba3 473f ac50 53bd e61e 603e 8d0a b3bc
00000120: bd5c 033e 99fb a63c 5154 103c c58a f63e
00000130: 52d8 773f 1618 5d3c db8a 533d 0195 b13d
00000140: 7699 1e3f b628 dfbc dd9a 923d 4432 3abd
00000150: e2a8 da3c 61e3 363e 548d 5fbc f49c a3bc
00000160: 2e8c 953d 4c61 103e 55db 013f 350b 2ebd
00000170: 25e6 e13e dcd7 7f3e b725 bb3d 48dd 6f3e
00000180: 8483 973d e94b 033f 66dc a6bd 2807 7bbd
00000190: af6c 48bd d664 993a cb4f 023e 004e f9bd
000001a0: d6e7 4cbc 9fda 943e 2be9 273f 3291 213e
000001b0: e8eb 473e 5b75 a63c a63b 9d3f 7261 483e
000001c0: 47c6 81bd aad0 f93c 4d7f c83d e3a2 033e
000001d0: ab5d d73d 4d3b 103e d260 6c3e 9a9d a83e
000001e0: c4a9 2b3e 6397 1fbd 533e a73f 936e 103d
000001f0: f57f 82bd 3a98 42bd 3657 f43e fe4e d339

fc3.weight f4 [64, 128]
-0.22615111 -0.20246874 0.029912025 -0.042495262 -0.16046044 -0.051665336 -0.016537923 -0.38732997
-0.04036264 0.13128376 0.21660922 -0.13771139 0.4267535 0.242129 0.050970796 -0.37292302
-0.2402417 -0.2945439 -0.16255279 -0.21245521 -0.05744592 -0.4069082 -0.038984798 -0.33439842
-0.0821668 -0.35403496 -0.22395532 0.02439041 -0.065544404 -0.2900637 -0.3514559 -0.22004808
-0.12512371 0.24746937 -0.41891596 0.42062914 0.010605364 -0.054432128 -0.16485833 -0.018802421
0.19382003 -0.05923952 -0.00068549963 -0.39354286 0.40176708 0.19106351 0.16836582 -0.30926657
-0.16000454 -0.06988693 -0.25600272 -0.046093643 0.15247166 0.0759532 -0.043282457 -0.13072607
0.289751 0.049949862 0.014019619 -0.06486042 0.44445226 0.10084102 0.046631753 0.003928365
0.105250746 0.028089063 -0.15693581 -0.082319856 0.5563877 -0.375233 0.049219776 -0.015384307
-0.10921146 -0.2023523 -0.021587068 0.37761363 0.42359602 0.046743453 -0.35627848 -0.12775731
0.2650151 -0.27606642 -0.22126701 -0.34203908 -0.24314265 0.0094137415 -0.25192857 -0.27185318
-0.02162536 0.11308254 0.29089174 -0.2380523 0.25308448 0.18830271 -0.29038882 0.028136944
-0.24533442 0.36683726 -0.047899958 0.09535396 0.024152 -0.10255655 -0.13757636 -0.39733654
-0.19866987 0.21330452 0.27653068 -0.12350572 -0.07007795 0.052743167 0.54312253 -0.0129842255
-0.28601494 -0.31761673 -0.12893757 -0.07700621 0.03071971 -0.2503279 0.08485229 0.34614784
-0.18694109 -0.35722202 0.46893492 -0.1958916 0.0473221 -0.34749684 0.12499834 -0.2493702
0.5089763 0.21988352 0.22706978 0.18644612 0.5052283 -0.035786796 0.1768341 0.39129865
0.25981927 -0.8496982 0.12439253 0.32922965 -0.009663162 0.16784081 -0.7609922 0.37640262
0.51037145 0.47182634 0.3551131 0.35037217 0.22747181 0.47386816 0.19459312 0.4413777
-0.049552612 0.42072043 0.50933194 0.021981537 0.31861413 0.29344764 0.50480837 0.51467323
0.3563017 0.20900798 0.5634163 -0.039383754 -0.56402266 -0.05392617 0.34031412 0.31912205
-0.8472895 0.06328422 -0.77796215 0.32188833 0.053709075 -0.9235138 0.1401953 0.3629587
0.24007525 0.2062949 0.38790375 0.19534184 0.22881307 0.23797643 0.26036778 0.3811685
-0.021440137 0.1578852 0.20207083 -0.035152182 -0.0040426548 -0.33127302 0.19418071 -0.30093956
0.064471416 -0.07046374 0.2989161 0.32470185 -0.5180727 0.4663711 0.18489006 0.04672753
0.24080648 0.37258086 -0.0073633892 -0.068497114 0.115625605 0.07422352 0.4723519 0.36926806
0.14226289 0.48451373 0.32128194 0.45619708 0.352691 0.22675094 0.2910201 0.48871598
0.20995085 0.12495617 0.091150835 0.3235404 0.2030097 -0.65786636 0.3532553 0.23085354
0.52032995 -0.7798085 0.034366492 0.010098121 0.06337061 0.2687109 0.33317983 0.31157097
0.3710884 0.2392311 0.021583706 0.38650277 0.31918544 -0.025269572 0.017156247 0.17435944
0.45244798 0.39249733 0.44689178 0.38903797 0.16405259 0.29102883 0.19404072 0.13991281
0.40424004 0.35873657 0.08125604 0.3586237 0.07084037 0.49947616 0.18532181 0.44033396
00000000: 2894 67be f753 4fbe 100a f53c 830f 2ebd
00000010: be4f 24be 089f 53bd 8a7a 87bc 1d50 c6be
00000020: 4c53 25bd 406f 063e cfce 5d3e 3704 0dbe
00000030: 6f7f da3e aaf0 773e c1c6 503d c4ef bebe
00000040: ec01 76be 75ce 96be 3d74 26be dc8d 59be
00000050: 6a4c 6bbd 4656 d0be 86ae 1fbd 4536 abbe
00000060: 1147 a8bd 1244 b5be 8b54 65be 66ce c73c
00000070: 253c 86bd 3b83 94be 07f2 b3be 4954 61be
00000080: 6e20 00be 9c68 7d3e 277c d6be b45c d73e
00000090: 1fc2 2d3c 39f4 5ebd 9fd0 28be 8907 9abc
000000a0: c278 463e 24a5 72bd 1ab3 33ba 737e c9be
000000b0: 6ab4 cd3e 27a6 433e 1768 2c3e 3058 9ebe
000000c0: 3bd8 23be e120 8fbd ca12 83be b0cc 3cbd
000000d0: 8821 1c3e 5a8d 9b3d f248 31bd 0edd 05be
000000e0: 3e5a 943e 3a98 4c3d 8bb2 653c 8ad5 84bd
000000f0: 3f8f e33e bd85 ce3d f000 3f3d 84b9 803b
00000100: b48d d73d 091b e63c c8b3 20be 5097 a8bd
00000110: 6d6f 0e3f 8a1e c0be ad9a 493d 760e 7cbc
00000120: 42aa dfbd 7135 4fbe 5dd7 b0bc 9356 c13e
00000130: 94e1 d83e 1076 3f3d 226a b6be d0d2 02be
00000140: 0fb0 873e 9458 8dbe d293 62be bf1f afbe
00000150: 63fa 78be 183c 1a3c c8fc 80be 5730 8bbe
00000160: ab27 b1bc d297 e73d c3ef 943e fbc3 73be
00000170: 4a94 813e 6dd2 403e d8ad 94be 737f e63c
00000180: f238 7bbe 18d2 bb3e bf32 44bd f048 c33d
00000190: 6ada c53c 2b09 d2bd d1e0 0cbe b26f cbbe
000001a0: 1d70 4bbe 806c 5a3e 6e95 8d3e 91f0 fcbd
000001b0: 0785 8fbd 3809 583d 140a 0b3f cabb 54bc
000001c0: 8d70 92be a99e a2be 3608 04be 6fb5 9dbd
000001d0: e7a7 fb3c fa2a 80be 0ac7 ad3d 4a3a b13e
000001e0: 7c6d 3fbe cee5 b6be 3d18 f03e cf97 48be
000001f0: d1d4 413d 1beb b1be 21ff ff3d e75a 7fbe
00000200: 454c 023f 2529 613e fb84 683e bbeb 3e3e
00000210: a456 013f 2d95 12bd 0014 353e 4c58 c83e
00000220: 0807 853e d285 59bf 83c1 fe3d ca90 a83e
00000230: 3d52 1ebc 76de 2b3e 63d0 42bf d8b7 c03e
00000240: b4a7 023f 3993 f13e 62d1 b53e fb63 b33e
00000250: 5fee 683e d99e f23e 6b43 473e 42fc e13e
00000260: aef7 4abd ab68 d73e 9463 023f a012 b43c
00000270: 6421 a33e c53e 963e 1f3b 013f a0c1 033f
00000280: 2d6d b63e 3006 563e 0d3c 103f dc50 21bd
00000290: ca63 10bf b0e1 5cbd a73d ae3e f763 a33e
000002a0: f7e7 58bf 289b 813d 8728 47bf 8cce a43e
000002b0: 0cfe 5b3d 676b 6cbf 5b8f 0f3e b9d5 b93e
000002c0: 49d6 753e f83e 533e 529b c63e b107 483e
000002d0: f94d 6a3e 18b0 733e ed4e 853e 8528 c33e
000002e0: 3aa3 afbc a8ac 213e a8eb 4e3e bcfb 0fbd
000002f0: 3f78 84bb 9e9c a9be 4fd7 463e c014 9abe
00000300: 9709 843d 4b4f 90bd 880b 993e 523f a63e
00000310: 6aa0 04bf 31c8 ee3e d253 3d3e 5e65 3f3d
00000320: f995 763e ebc2 be3e 9648 f1bb 3748 8cbd
00000330: 1ecd ec3d 8002 983d 1cd8 f13e b410 bd3e
00000340: 5dad 113e 2f12 f83e 117f a43e aa92 e93e
00000350: ea93 b43e 6631 683e 9600 953e fb38 fa3e
00000360: 5bfd 563e 05e9 ff3d 4aad ba3d 16a7 a53e
00000370: c6e1 4f3e ee69 28bf e1dd b43e df64 6c3e
00000380: 5834 053f 88a1 47bf e1c3 0c3d 9772 253c
00000390: 73c8 813d 7a94 893e 8c96 aa3e 3b86 9f3e
000003a0: 4cff bd3e fff8 743e 50d0 b03c b1e3 c53e
000003b0: 466c a33e 2202 cfbc 428b 8c3c 488b 323e
000003c0: 43a7 e73e 69f5 c83e 00cf e43e fc2f c73e
000003d0: 67fd 273e bb01 953e 9cb2 463e 4e45 0f3e
000003e0: 8df8 ce3e 52ac b73e 9169 a63d 879d b73e
000003f0: c214 913d 57bb ff3e 00c5 3d3e 7473 e13e

fc3.bias f4 [64]
1.4557768 -0.029445233 0.29714113 0.3365845 0.030368485 1.2631375 -0.03602044 0.0069530774
1.8919216 0.1577439 1.1896449 0.084263325 0.052797962 0.10018155 -0.0134152025 1.3119465
0.05342335 0.34632424 1.6647058 -0.040030625 0.3118003 1.2517613 0.32300246 0.26120597
-0.05524259 0.27288774 1.5523146 0.006017467 -0.15054657 -0.023984838 0.5242861 0.10025303
0.6018656 0.3179528 0.44814312 0.21357098 1.3039124 0.013326114 1.5748743 0.18323481
-0.70774996 0.7917256 -0.04298611 -0.08618649 1.9288049 -0.07526032 0.082010664 0.15505913
0.26374224 -0.07897911 0.10433399 -0.05036815 0.0729852 -0.09513077 1.5354664 1.3661294
-0.01649533 0.52363074 0.19202472 1.6795211 0.07687977 1.240335 0.38242975 -0.017054284
00000000: e556 ba3f 2137 f1bc e222 983e ce54 ac3e
00000010: 54c7 f83c 7dae a13f 2b8a 13bd a4d6 e33b
00000020: 7d2a f23f 9e87 213e 4946 983f 4092 ac3d
00000030: ad42 583d fc2b cd3d 70cb 5bbc dded a73f
00000040: 71d2 5a3d 6951 b13e 1415 d53f 27f7 23bd
00000050: 4aa4 9f3e b739 a03f 9460 a53e cabc 853e
00000060: 0e46 62bd f1b7 8b3e 3fb2 c63f 2c2e c53b
00000070: e128 1abe da7b c4bc 9d37 063f 7651 cd3d
00000080: dd13 1a3f b6ca a23e 0473 e53e 5ab2 5a3e
00000090: 9ae6 a63f c655 5a3c 7b95 c93f e8a1 3b3e
000000a0: 1a2f 35bf 87ae 4a3f 3412 30bd 8b82 b0bd
000000b0: 14e3 f63f 1522 9abd 35f5 a73d d2c7 1e3e
000000c0: 3909 873e cdbf a1bd 0fad d53d d54e 4ebd
000000d0: 4479 953d ecd3 c2bd 2a8a c43f 54dd ae3f
000000e0: 3721 87bc aa0c 063f 21a2 443e 8cfa d63f
000000f0: 2473 9d3d 4cc3 9e3f d5cd c33e 6db5 8bbc

fc4.weight f4 [32, 64]
-0.9538054 0.48862672 0.34308344 0.4735707 0.5498428 0.30530027 0.43618044 0.5928043
0.20739326 -0.5549316 -0.8237724 0.44569185 0.53657246 0.53674036 0.0794279 0.20612442
0.097381406 0.29908544 0.26867715 0.5585978 0.35689154 -0.94031286 0.33126593 0.32947424
0.5706379 0.06324287 -0.93753004 0.3840933 -0.08137694 0.36832723 0.41031563 0.4499129
0.24186052 0.3476002 0.42521104 0.3130298 0.39610013 -0.06956838 -0.742411 0.39955306
-0.19886345 -0.84281415 0.5085526 -0.013924808 -0.86438847 0.021475922 0.49218142 0.3637453
0.48494974 0.105614506 0.46971786 0.5376864 0.37302208 -0.0713986 -0.8680895 0.3672311
0.41744122 0.27698487 0.44262385 -0.7924532 0.4205492 0.2698532 -0.14171724 0.5839891
-0.038063187 0.5332744 0.45235795 0.4850938 0.46636888 0.371156 0.46555498 0.3715359
0.2611939 -0.06560832 -0.051662676 0.39505836 0.35306054 0.43661478 -0.006855921 0.46639785
-0.072546974 0.46815795 0.25208604 0.36718583 0.2952205 -0.17690456 0.48598975 0.4670787
0.42471203 -0.83327067 -0.14010634 0.5682127 -0.053109106 0.4675255 0.41688478 0.4741524
0.496438 0.32458487 0.2724875 0.49508372 0.32052234 0.04760943 0.19607261 0.47150412
0.012722414 -0.12405988 0.4110033 0.045997504 -0.038859475 -0.02211069 0.4055518 0.5215066
0.32627827 0.02740176 0.3693823 0.4864187 0.43341416 0.06405505 -0.027079139 0.32424584
0.5307256 0.42149562 0.42204225 0.11890615 0.46011406 0.38043976 -0.35066342 0.5725904
0.013024281 0.095561326 -0.09922487 0.08377012 -0.052473485 0.03351134 0.10081205 -0.06394612
0.055090286 -0.016535446 0.003816592 0.0133854635 -0.0018660163 0.08956065 -0.0055951877 -0.055658758
-0.0888693 -0.0260475 -0.125451 -0.06695594 -0.1324818 -0.024287032 0.059405565 -0.07919487
0.015938558 -0.013246525 -0.09100323 0.001856637 -0.016066754 0.028815946 -0.091002285 -0.10506804
-0.046415947 -0.1377175 0.051043674 -0.05821507 0.06826004 -0.09021675 -0.10951362 -0.045868147
-0.032472346 -0.09405981 0.07744846 -0.031810902 -0.010370818 -0.042945433 0.060593117 0.064067915
0.015907353 0.039575785 0.11532391 -0.005095963 -0.046446797 0.079940945 -0.07878716 0.013361318
-0.0578367 0.056321558 -0.08218099 0.04059397 0.018912187 0.012535113 0.042181738 -0.11808103
0.022770647 -0.05843643 0.057116713 0.04313812 -0.08549455 0.0050435667 -0.029763667 0.029927071
-0.01452866 -0.035439488 -0.0058560087 -0.107297674 -0.038756028 0.009009967 0.023672022 0.07394536
0.005061115 -0.14961764 -0.09829008 -0.03129431 -0.053510062 -0.076616004 -0.14517017 0.032742996
0.04404266 -0.0869854 0.07025358 0.07970677 -0.082032025 0.0775426 0.08329691 -0.057840835
-0.15066233 -0.06236003 0.018694215 -0.033308074 -0.085920416 0.08681774 -0.023104006 0.067195095
-0.037887186 -0.06797677 -0.020944927 0.07441817 -0.014302785 -0.03308725 -0.042540714 0.047439106
-0.070524365 0.017051337 -0.15894999 -0.073650226 0.04477627 -0.10815638 -0.08012392 0.008206878
0.007945278 0.005942612 -0.15580113 0.03984547 0.006386169 0.076932654 0.058146596 0.026517423
00000000: 972c 74bf 482d fa3e a2a8 af3e dc77 f23e
00000010: 7fc2 0c3f 5150 9c3e 0b53 df3e 06c2 173f
00000020: e65e 543e ff0f 0ebf bfe2 52bf b931 e43e
00000030: d05c 093f d167 093f 18ab a23d 4812 533e
00000040: e76f c73d ba21 993e 0d90 893e 4400 0f3f
00000050: 7dba b63e 58b8 70bf b09b a93e d9b0 a83e
00000060: 5315 123f 7a85 813d f801 70bf e1a7 c43e
00000070: f4a8 a6bd 6395 bc3e e414 d23e fc5a e63e
00000080: 49aa 773e a7f8 b13e 43b5 d93e 7145 a03e
00000090: a3cd ca3e de79 8ebd a60e 3ebf 3892 cc3e
000000a0: dca2 4bbe abc2 57bf 8130 023f e124 64bc
000000b0: 9048 5dbf 46ee af3c 34ff fb3e d33c ba3e
000000c0: 554b f83e 6b4c d83d dc7e f03e d1a5 093f
000000d0: c0fc be3e 6e39 92bd 1d3b 5ebf b705 bc3e
000000e0: dbba d53e f6d0 8d3e 989f e23e 37de 4abf
000000f0: 3a52 d73e 332a 8a3e 531e 11be 4f80 153f
00000100: 25e8 1bbd ac84 083f 769b e73e 375e f83e
00000110: e7c7 ee3e 2908 be3e 395d ee3e f439 be3e
00000120: 35bb 853e a85d 86bd 3e9c 53bd 1745 ca3e
00000130: 5ac4 b43e f98b df3e a2a7 e0bb b3cb ee3e
00000140: 8293 94bd 66b2 ef3e 6c11 813e c8ff bb3e
00000150: 2427 973e 7826 35be a6d3 f83e f024 ef3e
00000160: db73 d93e 3a51 55bf 0978 0fbe 6376 113f
00000170: ef88 59bd 815f ef3e ec71 d53e 1ac4 f23e
00000180: 1f2d fe3e fd2f a63e 7b83 8b3e 9d7b fd3e
00000190: 811b a43e 1b02 433d 42c7 483e fd68 f13e
000001a0: ac71 503c 1b13 febd 066f d23e e167 3c3d
000001b0: 1d2b 1fbd 7a21 b5bc 7ca4 cf3e 7581 053f
000001c0: f20d a73e a879 e03c ad1f bd3e df0b f93e
000001d0: 76e8 dd3e 4b2f 833d 12d5 ddbc 8d03 a63e
000001e0: a2dd 073f 46ce d73e ec15 d83e 1185 f33d
000001f0: 1294 eb3e 00c9 c23e 288a b3be 4995 123f
00000200: cb63 553c a8b5 c33d 6936 cbbd ab8f ab3d
00000210: 70ee 56bd 3043 093d 8c76 ce3d 2ff6 82bd
00000220: 5aa6 613d 5875 87bc ca1f 7a3b b44e 5b3c
00000230: 1e95 f4ba 936b b73d d657 b7bb 70fa 63bd
00000240: 1c01 b6bd 9161 d5bc 3a76 00be 3220 89bd
00000250: 4fa9 07be 99f5 c6bc 4053 733d ec30 a2bd
00000260: 9491 823c f407 59bc e75f babd 665a f33a
00000270: 6d9e 83bc 6b0f ec3c 685f babd ea2d d7bd
00000280: a61e 3ebd d105 0dbe 2c13 513d ed72 6ebd
00000290: ebcb 8b3d 8fc3 b8bd ad48 e0bd 3de0 3bbd
000002a0: b901 05bd 6ea2 c0bd 4c9d 9e3d 264c 02bd
000002b0: 5dea 29bc 8de7 2fbd 7d30 783d 0a36 833d
000002c0: 2350 823c 381a 223d f12e ec3d 09fc a6bb
000002d0: ff3e 3ebd 14b8 a33d 2a5b a1bd 6ee9 5a3c
000002e0: 2de6 6cbd 6fb1 663d 824e a8bd dd45 263d
000002f0: bbed 9a3c 1360 4d3c c2c6 2c3d 78d4 f1bd
00000300: 8289 ba3c 0a5b 6fbd 37f3 693d 99b1 303d
00000310: c417 afbd 8144 a53b efd2 f3bc 9e29 f53c
00000320: 9e09 6ebc ff28 11bd c3e3 bfbb e2be dbbd
00000330: a4be 1ebd 8a9e 133c d4eb c13c aa70 973d
00000340: b6d7 a53b 5e35 19be 4f4c c9bd 762e 00bd
00000350: 5e2d 5bbd dae8 9cbd 7da7 14be 851d 063d
00000360: 1466 343d 6725 b2bd 1ce1 8f3d 4e3d a33d
00000370: 6800 a8bd a8ce 9e3d 9297 aa3d 83ea 6cbd
00000380: 3a47 1abe 3b6d 7fbd 9c24 993c 0c6e 08bd
00000390: 0bf7 afbd 80cd b13d 9d44 bdbc 959d 893d
000003a0: 982f 1bbd 6837 8bbd b294 abbc 8e68 983d
000003b0: 3a56 6abc 7f86 07bd 2c3f 2ebd 824f 423d
000003c0: 146f 90bd 3faf 8b3c c9c3 22be eed5 96bd
000003d0: 5267 373d 1881 ddbd 0318 a4bd 2476 063c
000003e0: e92c 023c 3eba c23b 558a 1fbe 0135 233d
000003f0: 1243 d13b de8e 9d3d 202b 6e3d 113b d93c

fc4.bias f4 [32]
-0.13052507 0.5363622 -0.0072487593 -0.13272646 -0.09962664 0.054931663 1.6974719 1.0971928
0.79788977 0.87075734 -1.1253138 1.0046983 0.035955235 -0.08640961 -0.13016747 0.07125496
2.3752923 0.3082679 1.8499807 1.312639 0.011520006 -0.06464913 -0.15220363 0.026280714
0.071769565 1.1210634 -0.105899036 -0.025347535 -0.07191518 0.59095216 0.992056 0.236342
00000000: 5da8 05be 084f 093f 0087 edbb 72e9 07be
00000010: 0d09 ccbd 0600 613d c246 d93f d070 8c3f
00000020: 8142 4c3f f4e9 5e3f 480a 90bf f499 803f
00000030: cc45 133d 86f7 b0bd 9f4a 05be 1fee 913d
00000040: ca04 1840 4ad5 9d3e 2bcc ec3f 8e04 a83f
00000050: 68be 3c3c c366 84bd 45db 1bbe a74a d73c
00000060: ecfb 923d 017f 8f3f 98e1 d8bd a2a5 cfbc
00000070: 4448 93bd a448 173f 62f7 7d3f a303 723e

fc5.weight f4 [15, 32]
-0.02448742 0.083538 0.09795456 -0.055502553 -0.031738434 -0.013959408 -0.058370877 -0.034120914
-0.06797132 0.096829295 -0.018207138 -0.030451449 -0.08383536 0.010286418 0.20762143 0.048844837
-0.053153887 -0.07050195 0.049718924 0.013309374 -0.114836104 -0.10700485 0.0038831641 0.15501355
-0.048090026 0.09434151 -0.0549727 -0.06664207 -0.0699206 -0.030279832 0.028682789 -0.046007436
-0.67763835 -0.6612247 0.18663193 -0.025670284 -0.16468033 0.060922958 -0.58280957 -0.41035143
-0.46581745 -0.65433764 0.3455699 -0.48674613 0.031417377 -0.75879467 0.06818191 -0.6485368
-0.051234394 -0.31740406 0.21998039 0.53949225 0.11059012 -0.08715606 0.09902837 0.12719919
-0.027337978 0.2316396 0.14278297 0.006859548 -0.068165265 -0.4178285 0.699668 -0.0828676
0.23573133 0.44580233 0.08470405 -0.08189886 -0.0027373 -0.00017768572 0.43495402 0.556093
0.5157106 0.29991862 0.35351008 0.3357482 -0.06971373 0.26726454 0.11808265 0.5083541
0.3667847 -0.37432432 -0.26766604 0.2446155 0.083946675 -0.10849246 0.13779032 -0.0652606
0.02616169 0.22220662 -0.0014168769 0.18345065 0.099854104 0.5200114 0.4881351 0.048884567
0.041962273 -0.06731866 0.029508196 0.13571694 -0.12362957 -0.12281139 -0.01895102 0.09032326
-0.12512201 0.022388792 0.024643375 -0.002158649 0.0469402 0.12197011 -0.07574046 -0.059939604
0.08863973 -0.051653232 0.048730116 -0.01635192 -0.15222861 0.006148571 0.17941195 0.015117223
0.083647825 -0.07334886 -0.14626817 0.008616899 -0.11662015 -0.05058378 -0.020173362 0.041400954
-0.03337342 -0.07521841 0.07603917 -0.04903958 0.18094586 -0.18330403 0.073345736 0.04472352
-0.026915995 -0.10038397 -0.09305545 0.09366475 0.25024408 0.0531831 0.2797892 -0.023503274
-0.15811488 0.08921078 0.028368868 0.02342055 -0.069336765 0.10679705 -0.07400122 -0.09159324
0.057820883 0.041932046 -0.124989554 0.101109624 0.03400727 -0.06420597 -0.073060125 0.11791392
-0.08277083 0.07917839 0.17573115 0.062718585 -0.05523902 0.15337655 0.1039044 -0.07533564
0.01966714 -0.109205 -0.19876966 -0.11592521 0.17245996 0.018033225 -0.054188494 0.22261392
-0.10584499 0.37351978 0.020327881 -0.16841269 -0.1453295 -0.09268607 -0.05268692 0.09081504
0.043817505 -0.26812088 0.019867137 0.1016148 0.15478593 -0.025602356 -0.19481052 0.041375868
-0.10307948 0.062037654 0.089254394 -0.10838085 -0.016989067 0.08413763 -0.08557837 -0.009727479
-0.08077953 0.038186636 -0.0023097247 0.061434813 0.054268427 0.10092315 0.13189322 0.006788907
-0.041838266 -0.021059752 0.009333379 0.058737632 -0.118957855 -0.018322822 0.07790526 0.17826939
-0.09075131 0.036176458 -0.08200356 0.068629794 0.13843516 0.0021944765 -0.009153031 0.13643229
-0.05614647 0.052426107 0.11203373 -0.13240527 0.108115025 0.005094141 0.088413656 0.05032146
0.06307554 0.04223935 -0.020663083 -0.08243476 0.050928388 0.017342199 0.03726495 -0.03862434
0.15937 -0.16171168 0.27992496 -0.09422037 0.11796875 0.05266313 0.12896304 -0.15464863
-0.15373926 -0.09939512 -0.058532596 0.17716317 -0.06458725 -0.16614819 -0.04985054 0.15018034
00000000: d899 c8bc f915 ab3d 669c c83d a556 63bd
00000010: 2900 02bd 00b6 64bc 4d16 6fbd 5fc2 0bbd
00000020: 8c34 8bbd 704e c63d 2327 95bc 5175 f9bc
00000030: e0b1 abbd 5d88 283c b69a 543e 8611 483d
00000040: e4b7 59bd 5463 90bd 12a6 4b3d 900f 5a3c
00000050: 312f ebbd 5c25 dbbd af7c 7e3b dfbb 1e3e
00000060: 0cfa 44bd 1f36 c13d 0e2b 61bd a37b 88bd
00000070: 8832 8fbd 690d f8bc 2bf8 ea3c 4b72 3cbd
00000080: b579 2dbf 0646 29bf 711c 3f3e 7d4a d2bc
00000090: f6a1 28be 5a8a 793d 0233 15bf 9519 d2be
000000a0: a07f eebe ac82 27bf 8aee b03e ca36 f9be
000000b0: 82af 003d 5e40 42bf f5a2 8b3d 8206 26bf
000000c0: 28db 51bd c982 a2be 8a42 613e 2a1c 0a3f
000000d0: 137d e23d e07e b2bd 63cf ca3d 8140 023e
000000e0: e5f3 dfbc ee32 6d3e b335 123e 0fc6 e03b
000000f0: 3b9a 8bbd 9eed d5be 711d 333f 7db6 a9bd
00000100: 8e63 713e 3440 e43e 5179 ad3d 97ba a7bd
00000110: 4664 33bb 2651 3ab9 4bb2 de3e 1c5c 0e3f
00000120: 9c05 043f ef8e 993e 46ff b43e 30e7 ab3e
00000130: 12c6 8ebd e6d6 883e 51d5 f13d 7f23 023f
00000140: 34cb bb3e 70a7 bfbe 860b 89be 7c7c 7a3e
00000150: 3cec ab3d 4b31 debd e818 0d3e 59a7 85bd
00000160: 0a51 d63c 228a 633e 80b6 b9ba 7dda 3b3e
00000170: 4f80 cc3d 781f 053f d8ec f93e 2f3b 483d
00000180: a2e0 2b3d 5ede 89bd 2cbb f13c 62f9 0a3e
00000190: 8031 fdbd 8a84 fbbd 2b3f 9bbc 67fb b83d
000001a0: fc1f 00be b368 b73c e7e0 c93c 1f78 0dbb
000001b0: 5e44 403d 77cb f93d d01d 9bbd 3b83 75bd
000001c0: bf88 b53d 5792 53bd 3b99 473d 76f4 85bc
000001d0: d1e1 1bbe f479 c93b c4b7 373e 3bae 773c
000001e0: 8d4f ab3d ed37 96bd 53c7 15be e52d 0d3c
000001f0: 8cd6 eebd f030 4fbd 9b42 a5bc 0c94 293d
00000200: 91b2 08bd 1c0c 9abd 6dba 9b3d badd 48bd
00000210: df49 393e 0db4 3bbe 4a36 963d 0230 373d
00000220: ef7e dcbc 1c96 cdbd db93 bebd 4ed3 bf3d
00000230: fe1f 803e 86d6 593d 8840 8f3e f089 c0bc
00000240: dee8 21be 24b4 b63d d465 e83c 74dc bf3c
00000250: 6f00 8ebd 69b8 da3d f48d 97bd 3d95 bbbd
00000260: 97d5 6c3d f0c0 2b3d 86fa ffbd 9012 cf3d
00000270: 354b 0b3d 6b7e 83bd 8ca0 95bd da7c f13d
00000280: c183 a9bd 4828 a23d def2 333e 9a72 803d
00000290: 5042 62bd be0e 1d3e d4cb d43d 9249 9abd
000002a0: fb1c a13c dfa6 dfbd 468a 4bbe 326a edbd
000002b0: 5899 303e 6aba 933c c1f4 5dbd e7f4 633e
000002c0: 42c5 d8bd fc3d bf3e a886 a63c 6074 2cbe
000002d0: 42d1 14be 32d2 bdbd 3dce 57bd 3cfd b93d
000002e0: fc79 333d 2447 89be 68c0 a23c 6c1b d03d
000002f0: 3480 1e3e 08bc d1bc 697c 47be be79 293d
00000300: 561b d3bd 321b 7e3d 02cb b63d c7f6 ddbd
00000310: a82c 8bbc 5a50 ac3d b643 afbd 0160 1fbc
00000320: bd6f a5bd 9769 1c3d c05e 17bb 12a3 7b3d
00000330: 9248 5e3d ccb0 ce3d 040f 073e 7b75 de3b
00000340: 9a5e 2bbd 8085 acbc 07eb 183c df96 703d
00000350: 2da0 f3bd be19 96bc cb8c 9f3d 408c 363e
00000360: d3db b9bd c42d 143d 7cf1 a7bd c78d 8c3d
00000370: f2c1 0d3e 35d1 0f3b 98f6 15bc e8b4 0b3e
00000380: d7f9 65bd c2bc 563d f171 e53d 3f95 07be
00000390: 696b dd3d c0ec a63b 3812 b53d e01d 4e3d
000003a0: c02d 813d 2b03 2d3d a045 a9bc 8ed3 a8bd
000003b0: 499a 503d 3a11 8e3c 22a3 183d 8e34 1ebd
000003c0: e431 233e bf97 25be 5352 8f3e 9cf6 c0bd
000003d0: 9a99 f13d 4bb5 573d e30e 043e 365c 1ebe
000003e0: d36d 1dbe ab8f cbbd e0bf 6fbd 436a 353e
000003f0: 5246 84bd c022 2abe 1430 4cbd e0c8 193e

fc5.bias f4 [15]
-0.09165133 -0.40514782 1.2091948 -0.7411331 2.0946696 1.0753449 4.8792763 5.7848763
4.8950663 -3.7929175 0.8090968 0.7749378 0.41635385 2.0588942 1.5301028
00000000: b1b3 bbbd 896f cfbe e5c6 9a3f e6ba 3dbf
00000010: 110f 0640 e7a4 893f 0823 9c40 b51d b940
00000020: 62a4 9c40 29bf 72c0 f820 4f3f 5362 463f
00000030: 552c d53e ecc4 0340 69da c33f
