treated_ECG/gaussian_predictor_model.pth (torch, 251577 bytes, 8 tensors)

fc1.weight f4 [128, 400]
000000 85 ca 47 bf 10 a2 ee be 58 50 bc be 1e a7 61 bd
       -0.78043395 -0.4660802 -0.36780047 -0.055091016
000010 f3 59 e9 bd 8d 28 75 be 5e 9e 95 be c6 8e 0b be
       -0.113941096 -0.2394125 -0.29222387 -0.13628682
000020 7c 55 99 be fd b8 d1 be 13 b7 3e be 2e f5 85 be
       -0.29948032 -0.40961447 -0.18624525 -0.2616362
000030 31 6f 45 be 8c 97 b4 bb ef 5b 47 bd 35 f7 c8 3d
       -0.19280697 -0.00551123 -0.04867166 0.09812776
000040 9b eb cb 3e 00 56 21 3f 72 82 f5 3c ae 0c 6d 3d
       0.3982819 0.6302185 0.029969428 0.05787342
000050 57 37 cb 3d ca 3b 10 3f 32 23 1a 3f 3d d2 01 3f
       0.099226646 0.5634123 0.60209954 0.50711423
000060 15 2e f2 3e fa a8 15 3f 35 d5 f2 3e 05 4c ab 3e
       0.47300783 0.5846096 0.4742829 0.33456436
000070 b5 9c a2 3e 97 4b 83 3d 11 28 48 bd 9b 13 b8 bc
       0.31760183 0.06410902 -0.048866335 -0.022470286
000080 7c c6 7f 3e 79 d7 00 3f f2 dd ec 3d 2e e0 57 3e
       0.2497806 0.50328785 0.1156577 0.21081612
000090 23 27 94 3e 45 e0 da 3e 50 49 f4 3e 0e 53 a4 3e
       0.2893611 0.4274923 0.47712183 0.32094616
0000a0 bf 83 9e 3e cb 44 96 3e 95 85 7c 3e 57 d0 5f 3e
       0.3095989 0.2934936 0.24660333 0.21856819
0000b0 0f 70 a9 bc 32 c3 95 3d 62 ee 8a 3e 00 85 be bd
       -0.020683317 0.07312621 0.27134997 -0.093027115
0000c0 c7 82 93 3e 6c 2d 1a 3e 48 64 72 be 8e 2c d9 3d
       0.28810713 0.1505639 -0.23671067 0.10604201
0000d0 a9 c3 c9 3e 29 b3 4c 3e 90 d8 3c 3e 83 39 7d bd
       0.3940709 0.19990219 0.18441987 -0.061822426
0000e0 d3 90 20 bd 7f 16 ad 3d a5 06 03 be 9e fd 82 be
       -0.039200615 0.084515564 -0.12795503 -0.2558412
0000f0 eb bf e9 bd f8 b9 f4 bb a8 c6 7e be e8 3d 84 be
       -0.114135586 -0.0074684583 -0.24880469 -0.2582848
000100 34 9e 12 be bc c0 6d be a3 19 1b be c3 ad a8 be
       -0.14318162 -0.23218054 -0.15146498 -0.3294507
000110 f2 c6 08 bd 52 69 73 3e 6c 49 5c 3e 99 53 b1 3e
       -0.033392854 0.23770645 0.21512383 0.34634092
000120 aa 9e 1d be dd 93 80 be 03 2d 55 3e ea 36 f3 3e
       -0.15392557 -0.2511281 0.20817952 0.47502834
000130 50 5a 00 3e 6c d5 08 3b 36 76 49 3e 02 8f 8f 3e
       0.12534451 0.0020879162 0.19674 0.28038794
000140 84 9e 25 3f cf ab c8 3e 07 84 1a bd 79 68 6f bd
       0.64695 0.3919358 -0.037723567 -0.058449242
000150 63 ea a6 3d 49 6d 9c 3b 57 e6 d4 bd 12 f9 1c be
       0.081501745 0.00477377 -0.10395496 -0.15329388
000160 77 1e 2a bd fb b8 3d 3e 98 ad 0b 3f 02 96 04 3f
       -0.04153296 0.18527596 0.5456176 0.51791394
000170 7f 57 49 bd b5 89 cb bd d9 5c 27 be 54 23 33 bd
       -0.04915571 -0.09938375 -0.16344012 -0.043734863
000180 90 8e 87 3e 06 7d 66 3e 1d 05 ee 3d a8 dc b9 bd
       0.26475954 0.2250863 0.11622069 -0.0907529
000190 8c 15 86 3e 9c d3 94 3e 80 1c bc 3b 23 cb 08 be
       0.26188314 0.29067695 0.005740702 -0.1335874
0001a0 fb 4f 80 be 5e b5 56 be af 06 d9 3c f3 fa 10 3d
       -0.2506102 -0.20967624 0.026492445 0.035395574
0001b0 95 85 d0 3e b8 90 1b 3f af 4d d2 3e d6 15 58 3e
       0.40726915 0.607677 0.41074893 0.2110208
0001c0 11 4b 79 3e 9c d2 b7 3e f9 7d ee 3e 90 6f 39 3f
       0.24345042 0.3590287 0.46580485 0.72435856
0001d0 8f f7 df 3e 3a 2b 68 3e 60 6c 2b 3f 86 2b 71 3f
       0.4374356 0.2267274 0.6696224 0.94207036
0001e0 c5 97 62 3e cb a6 25 3f 5c 2d 44 3f ae 01 c9 3e
       0.22128208 0.6470763 0.7663171 0.39259094
0001f0 ed c9 f1 3e 8e 46 21 3f b4 a3 2c 3f 46 ba 33 3f
       0.4722437 0.6299828 0.6743729 0.70206106
000200 2c 85 02 3f 12 7f 96 3e 2a 32 0d 3f 3d 6a 3d 3f
       0.50984454 0.29393822 0.5515467 0.7399023
000210 69 d6 69 3f 3d 5e 94 3f 17 6b 83 3f f6 3a 7b 3f
       0.9134279 1.1591259 1.0267056 0.9813684
000220 32 da 23 3f 2b 76 14 3f 45 89 27 3f 2e 10 f9 3e
       0.64004815 0.5799281 0.6544383 0.48645157
000230 08 ce c9 3e 89 87 7a 3d c8 85 dd bd 69 cd 4b bd
       0.39415002 0.061164413 -0.108165324 -0.04975644
000240 df 56 a4 3b 14 b8 15 3e b4 65 a3 bd 7a c2 38 3d
       0.0050152387 0.14621001 -0.07978383 0.045107342
000250 a1 ff c8 bd 69 4b 79 be 8b 72 7a 3d 04 98 2f be
       -0.09814382 -0.24345173 0.061144393 -0.17147833
000260 b2 2d d2 3e 8e 5b d4 3e 49 2c 8b 3e c0 9b 6b 3e
       0.41050488 0.414761 0.27182224 0.23008633
000270 ac e1 99 3e dc 23 3a 3e 00 a0 0b 3d 79 5d 37 3d
       0.30054986 0.18177742 0.034088135 0.044766877
000280 76 2f b3 bd cc bb 28 bd 56 22 9a be cf 9d ec be
       -0.08749287 -0.041194722 -0.3010432 -0.46214148
000290 9c a8 ac be 8f 29 21 3d ae 45 a3 bd a0 27 b2 3c
       -0.3372239 0.039346274 -0.07972275 0.02174741
0002a0 19 d7 54 3e a6 11 54 3e cb fd 7a 3e 35 4d a2 3d
       0.20785178 0.20709857 0.24510877 0.07924882
0002b0 6b 94 b4 3d 76 4b 9e 3e bc 7a d8 3e a1 92 73 3e
       0.08817371 0.30916947 0.4228114 0.23786403
0002c0 c3 ad 10 3e 17 9a b3 bb 0e a1 1f bc 59 c9 05 bc
       0.14128785 -0.0054810154 -0.009742988 -0.008165681
0002d0 10 7d d5 bc 31 54 70 bc f6 e5 d6 3d ae a4 92 3c
       -0.026060611 -0.01466851 0.1049308 0.017900791
0002e0 e9 e0 08 be a4 99 8a 3c 06 fe 8e 3c 85 5c 28 3e
       -0.13367046 0.016918965 0.017455112 0.16441543
0002f0 d1 48 ad 3a b7 db 34 be ef d4 93 be d0 f9 7d be
       0.0013220554 -0.1766194 -0.28873393 -0.24802327
000300 59 2c 74 be 99 d4 90 be 37 e4 1c be 99 2b 27 bd
       -0.23845042 -0.282872 -0.15321432 -0.040813062
000310 08 62 bb 3d 46 5b 80 3e a0 88 eb 3d db a0 23 3e
       0.09149557 0.25069636 0.115006685 0.1597933
000320 58 e7 84 3e 3d e8 5f 3e 40 a3 46 3e 0c d1 17 3e
       0.2595775 0.21865936 0.19398212 0.14825839
000330 aa 87 2f 3d af 04 41 3e 9c 7c 8e 3e 50 f3 b7 3e
       0.04285399 0.18849443 0.27829444 0.3592782
000340 29 0e 0b 3c 35 3e 09 bf c5 0b 4b bf 30 65 26 bf
       0.008487263 -0.53610545 -0.79314834 -0.6499815
000350 3e 14 93 bf bf c0 3c bf d5 ec 26 bf 02 81 54 bf
       -1.1490552 -0.7373161 -0.65205127 -0.8300935
000360 30 5a 4a bf fd 92 81 bf 97 b4 29 bf 2b 95 34 bf
       -0.79043865 -1.0122982 -0.66291183 -0.7054011
000370 a3 b2 3d bf 89 a8 1c bf e4 f3 1f be 91 37 84 bd
       -0.74100703 -0.61194664 -0.1562038 -0.06455911
000380 71 9f 05 bd 14 9f e1 3d 81 5f 34 3e 23 67 16 be
       -0.03262276 0.1101667 0.17614557 -0.14687781
000390 b3 2f ad be 2b 95 2c bf ca dc f8 be c7 b9 d7 be
       -0.33825454 -0.6741511 -0.4860595 -0.42133924
0003a0 22 ca 81 3e 81 e6 c3 be 79 d3 ae be c6 25 f4 be
       0.25349528 -0.38261798 -0.34145716 -0.4768507
0003b0 22 09 02 bf 8f 50 03 bf 72 0f fe be 77 4d f0 be
       -0.50795186 -0.512948 -0.4962116 -0.469341
0003c0 2a 2a c2 be 82 94 aa be d0 a9 d9 be c4 f1 f9 be
       -0.37922794 -0.33316427 -0.4251237 -0.48817265
0003d0 8a b1 1f bf 85 6b 4f bf 35 0c 1d bf f6 c7 16 bf
       -0.6238028 -0.81023437 -0.6134675 -0.58898866
0003e0 c2 98 26 bf 61 60 4c bf ea 72 11 bf 64 51 1e bf
       -0.6507684 -0.7983456 -0.5681597 -0.6184294
0003f0 9c 27 fc be df 19 17 bf c2 1e 30 bf 9d 9e 40 bf
       -0.4924897 -0.5902385 -0.6879693 -0.75242025

fc1.bias f4 [128]
000000 ec 97 91 3f 5c 9f 9c 3f 1c 7f 61 40 d2 8e cb 3f
       1.1374488 1.2236133 3.5233831 1.590296
000010 92 20 97 40 82 7c a0 3f f3 2b fa 3f 5f 1d 83 3f
       4.722726 1.2537997 1.9544662 1.0243338
000020 f3 a8 93 40 91 c5 cd 3f e0 a7 85 40 1f cf e1 3f
       4.6143737 1.6075917 4.1767426 1.7641333
000030 de e5 84 40 f9 64 79 3f 53 51 8a 40 15 55 ad 3f
       4.15306 0.974197 4.3224273 1.354159
000040 89 94 92 3f 68 e4 ac 3f d8 b7 9a 3f 7d fd 84 3f
       1.1451579 1.3507204 1.2087355 1.0389858
000050 5d 1d 0a 40 38 29 04 40 47 9b 35 40 3f 05 95 40
       2.1580422 2.0650158 2.8376024 4.6568904
000060 b0 82 bf 3f dd 9f bb 3f 30 8d 8b 3f 13 e2 8c 40
       1.4961758 1.4658161 1.0902462 4.402597
000070 ca ba a9 3f cc 53 57 40 48 6f 83 3f b2 71 29 40
       1.3260128 3.3644896 1.0268335 2.6475644
000080 aa 6b 66 40 6b 4c ab 3f a2 81 90 40 78 ba 8e 40
       3.6003213 1.3382696 4.5158243 4.4602623
000090 c6 55 b1 3f b8 68 3f 40 d1 46 08 40 5e 53 4d 40
       1.3854301 2.9907665 2.1293223 3.2082133
0000a0 7e 92 1d 40 8c 90 07 40 2e 0d 68 40 8a 3b 0c 40
       2.4620662 2.1181974 3.6258044 2.191134
0000b0 40 b2 4b 40 69 5c d0 3f 46 c2 17 40 89 bf 88 3f
       3.1827545 1.6278201 2.3712325 1.0683452
0000c0 72 55 67 40 ee 77 4b 40 4d 35 2f 40 e5 61 bc 3f
       3.6145902 3.179195 2.7376282 1.4717375
0000d0 32 bc 8f 40 f3 d0 c3 3f 0b bf 94 40 ed f8 a8 3f
       4.491723 1.5298141 4.6483207 1.3200966
0000e0 95 fc f4 3f a0 ae 3f 40 15 07 4b 40 bf a2 b8 3f
       1.9139582 2.9950333 3.1723073 1.4424666
0000f0 82 7e be 3f 92 a8 1c 40 ce dd 06 40 76 56 80 3f
       1.4882357 2.4477887 2.107288 1.0026386
000100 d5 43 95 3f 07 cb 3d 40 24 3f c9 3f 6f 24 ed 3f
       1.1661326 2.9655168 1.5722394 1.8526744
000110 e5 19 32 40 32 36 15 40 d7 03 c7 3f d7 de 84 3f
       2.7828305 2.3314328 1.5548047 1.0380505
000120 93 e4 51 40 ba ca 14 40 d7 6a a6 3f a0 fe ab 3f
       3.279576 2.3248734 1.3001355 1.343708
000130 49 2c 4b 40 75 d0 ba 3f 71 39 cc 3f 2c f5 b9 3f
       3.174578 1.4594866 1.595503 1.4527946
000140 c1 44 a7 3f 5b e5 aa 40 de cf 85 40 c7 88 a3 3f
       1.3067857 5.3404975 4.1816244 1.2776116
000150 4a 76 93 40 e5 79 15 40 b2 5d b1 3f 30 37 19 40
       4.6081896 2.3355649 1.3856719 2.3939934
000160 bd f1 2b 40 fe d7 73 40 90 4b 7e 40 96 63 a2 3f
       2.6866295 3.810058 3.973362 1.2686641
000170 df 8a 82 3f 3e 5f 96 40 97 5b 82 3f b0 5d 1b 40
       1.019863 4.6991262 1.0184201 2.4275932
000180 b8 c2 ad 3f 94 56 a2 3f 6c 43 af 3f 9e ff 31 40
       1.3575048 1.2682672 1.369245 2.7812266
000190 ea c2 c3 3f 8a 34 95 3f 5b 46 c2 3f 1d 5a 8a 3f
       1.5293858 1.1656659 1.5177721 1.080875
0001a0 13 08 a8 3f 3b fa f0 3f 60 e9 92 3f 63 33 4a 40
       1.3127464 1.8826364 1.147747 3.1593864
0001b0 c4 f6 1c 40 57 f3 d1 3f 84 c7 9c 40 f2 37 b7 3f
       2.4525614 1.6402386 4.899355 1.4313948
0001c0 13 0e d2 3f 41 29 65 40 ec 29 21 40 fa ee 99 40
       1.6410545 3.580643 2.5181837 4.810422
0001d0 f5 17 9a 40 ae d8 5e 40 a7 32 25 40 dd a9 9a 40
       4.8154244 3.481975 2.5812166 4.8332353
0001e0 70 04 8c 3f ec 3f c8 3f e2 0b 29 40 48 b4 67 40
       1.0938854 1.5644507 2.6413503 3.6203785
0001f0 83 ef 8a 3f 0a c7 b5 3f 82 c5 89 3f 7d 2c df 3f
       1.0854343 1.4201367 1.07634 1.7435452

fc2.weight f4 [64, 128]
000000 85 20 d0 3d a0 fb 8a 3d 39 73 4d 3d 79 a0 8e 3e
       0.101624526 0.06786275 0.050158713 0.27856806
000010 b5 47 5e 3e 6a 54 56 3d 2f 14 6b 3e 6c 0a e5 3c
       0.21707042 0.052326597 0.22956918 0.027959071
000020 2f cc 22 3e 34 5c 6b 3e d1 e4 8b bd d8 34 21 3e
       0.15898202 0.22984391 -0.06830753 0.15742815
000030 dd 37 76 3d 65 96 98 3d 48 e8 1b be 88 e0 81 bd
       0.06011187 0.074505605 -0.15225327 -0.06341654
000040 e6 a9 b6 3d cf 18 6a 3d 5c 0d 80 3d c9 b9 39 3e
       0.08919124 0.057152566 0.06252548 0.18137278
000050 bd ae 4c 3e fa 7c 09 bf 14 e1 16 be 9c 95 48 3b
       0.19988532 -0.53706324 -0.14734298 0.0030606752
000060 9f 0e 74 3e bc c6 a0 3d 12 f6 3c 3d 78 22 a6 3d
       0.23833703 0.078504056 0.04613311 0.08112043
000070 42 e9 38 3e fa 69 95 3e 46 23 5e ba ac 9a e2 be
       0.18057731 0.29182416 -0.0008473884 -0.4425863
000080 37 c7 87 be 69 7b d5 3b 7f a7 0a 3e 1d c1 bb bd
       -0.26519176 0.006514956 0.13540457 -0.09167693
000090 e7 26 8e 3d 0c 4b e3 be 8b 54 8d be cb 75 c6 3d
       0.06941014 -0.44393194 -0.27603564 0.09690436
0000a0 ce 93 07 bf 6e 6a d3 3d bc 7f af 3e d9 52 41 be
       -0.5295991 0.10323034 0.3427714 -0.1887926
0000b0 75 d4 5b be a8 fe f0 3d ca 8e fe 3e 89 7e f2 3d
       -0.21467765 0.11767322 0.49718314 0.11840541
0000c0 b0 5c 91 be dc 9c 98 be 86 72 ed bc 40 ae 6f 3e
       -0.28391027 -0.29807174 -0.028985273 0.23406315
0000d0 13 e9 67 3d 50 96 53 3b 74 aa e9 3d 5d ae a6 3d
       0.05661876 0.0032285638 0.114094645 0.08138726
0000e0 e4 a6 1d 3e 25 ad 0c bf e1 ec 3a 3e 09 02 27 3e
       0.15395695 -0.549517 0.18254425 0.1630937
0000f0 de b0 ab bd 9e b6 e2 be bf ee 27 3e 57 3f 1b be
       -0.08383344 -0.4427995 0.16399668 -0.15160881
000100 e0 28 1a 3d db 08 85 3e 51 64 ae 3e c8 07 2e 3e
       0.037636638 0.2598332 0.3406091 0.16995156
000110 b8 2a 26 bd 71 31 c1 be 79 42 fe 3d 61 99 bd 3c
       -0.040568084 -0.37733033 0.124150224 0.023144426
000120 41 db e1 bc 5d 00 8a 3e c5 b4 91 3d a2 6b 80 3e
       -0.027570369 0.26953402 0.07114557 0.25082117
000130 e5 ab 57 3d 93 2a b3 3d 6e 52 49 3e 50 77 36 3e
       0.052654166 0.08748355 0.1966035 0.17818952
000140 bf a2 ae 3d 1f 2e 52 3f 9b 37 a3 3d 5c 52 96 3c
       0.08527135 0.82101625 0.0796959 0.018349819
000150 fd 3e b0 bc 69 25 b4 be 29 71 2a 3e 74 1b 12 3e
       -0.02151441 -0.35184792 0.1664473 0.14268285
000160 75 24 97 be 0b 94 9e bd c0 39 b7 3c cb af e1 3d
       -0.29520002 -0.07743081 0.022366405 0.11019858
000170 60 7b c7 bd cf ec aa bb 08 7c 4c 3d 5b 9c 92 3d
       -0.09740329 -0.005216218 0.049922973 0.07158729
000180 5e 06 4b 3e 73 58 8b 3e 42 d8 1a 3e 8e c1 45 be
       0.19826648 0.2721592 0.15121558 -0.19312117
000190 7f e7 1c 3e 21 16 52 bd 2b 4a ec 3d 5e 59 f6 3c
       0.15322684 -0.051290635 0.11537584 0.03007191
0001a0 1a dd bf bc 01 6a 19 3e e0 43 79 bc aa 48 6b be
       -0.02342086 0.14981844 -0.015213937 -0.22976938
0001b0 7a 05 ad be c4 44 67 3e d5 e6 2a bd fd 9c 11 3e
       -0.3379324 0.22584826 -0.041724045 0.14220043
0001c0 6b 1f 5d 3e ec 32 7d be f1 90 78 3e d0 bb 8f 3d
       0.21594016 -0.24726456 0.24274041 0.07018244
0001d0 e1 7e 30 3d 23 fc cb be 13 39 92 3e b5 ac 0f 3e
       0.04308975 -0.39840803 0.2855917 0.14030726
0001e0 a7 1e 1b 3d de de 5d 3e f9 26 6a 3d a5 7f c0 3e
       0.03787103 0.21667048 0.057166073 0.37597385
0001f0 53 83 00 3d f6 9b 1b 3d 0a c3 47 3d e7 69 37 3e
       0.03137524 0.037990533 0.048769988 0.17911492
000200 fa 99 32 bf e9 47 50 bf da 2d 48 3e 7c a0 3b bf
       -0.697662 -0.81359726 0.19548741 -0.73291755
000210 88 3a 62 3e ad d5 35 bf 38 17 8a bd e3 05 5b bf
       0.2209264 -0.7102917 -0.0674271 -0.8555586
000220 c7 d6 30 3c 21 f9 23 bf 58 41 3e 3f 9d b8 6b be
       0.010793394 -0.64052016 0.74318457 -0.23019643
000230 42 b2 85 3f 6e f7 54 bf 70 f4 04 3f 51 58 ca 3d
       1.0445025 -0.8319005 0.5193548 0.09880126
000240 69 42 4b bf 5b 47 6b bf b2 fe 9f be c7 50 55 bf
       -0.7939821 -0.91905755 -0.31249005 -0.8332638
000250 fc ac fb bd d5 07 b1 bf 29 a4 5a be 07 81 54 3c
       -0.122888535 -1.3830515 -0.21351685 0.012970216
000260 d7 d2 24 bf 53 ed 57 be a6 e2 92 bf d7 0b b4 3d
       -0.64384216 -0.21086626 -1.1475418 0.08791321
000270 6d 65 f6 be 66 b9 8b 3e 13 9e 5a bf 89 92 70 bf
       -0.48124257 0.27289885 -0.8539745 -0.93973595
000280 8c 09 18 3e 95 b8 c1 bd 0e f6 4a 3e fd ff 05 3e
       0.14847392 -0.09459034 0.19820425 0.13085933
000290 dc 5f 18 bf f7 a6 30 be e5 f4 aa bf 4f ef 96 bd
       -0.5952127 -0.17251192 -1.3355986 -0.07369863
0002a0 b4 b3 23 bf 5c d8 2a 3f 37 b6 08 3f d2 53 59 bf
       -0.6394608 0.6673639 0.5340304 -0.84893525
0002b0 a3 d8 80 bd 51 55 5a be 86 a9 a8 be 35 7d cd be
       -0.0629132 -0.21321608 -0.32941836 -0.40134588
0002c0 83 9a c2 3e 0b ce ac be 18 88 ae be 3a 61 ed be
       0.38008508 -0.33750948 -0.34088206 -0.4636324
0002d0 bf 9d 20 3f ca b0 9a bd 79 43 6d 3d a2 71 83 be
       0.627407 -0.07553251 0.057925675 -0.25672632
0002e0 b5 da 84 be 4c 2d 5f be b8 d6 29 be 05 dc 27 bf
       -0.2594811 -0.21794623 -0.16585815 -0.655701
0002f0 32 f7 2b 3f 24 fe 32 bf 15 74 68 3d 16 91 ec 3e
       0.67174065 -0.6991904 0.05675133 0.46204442
000300 f8 09 37 bf 95 4e 0f 3f 65 11 2e bf 8b a5 3a bd
       -0.71499586 0.5597928 -0.6799529 -0.04556803
000310 46 01 c3 bf f1 0c 86 bf f0 b7 54 be cb fd 3f bf
       -1.5234764 -1.0472699 -0.20773292 -0.7499663
000320 82 03 1f 3e 9c 0f 2d 3f 7c e3 41 bf e6 0c 1b bf
       0.15528682 0.67601943 -0.7573774 -0.60566556
000330 71 51 66 3e f8 6d 36 bf 6f da 19 bf 5a 08 eb be
       0.22492005 -0.7126155 -0.6009893 -0.4590481
000340 e8 40 66 bf b1 32 75 3f 59 14 0d 3f 37 93 33 bf
       -0.8994279 0.95780474 0.55109173 -0.7014651
000350 7d 7b d7 3d 87 8d 80 bf 7d 3b 53 be 46 0f ca bd
       0.105216004 -1.0043191 -0.20628162 -0.098661944
000360 a2 07 5d be d0 61 18 3f ee 3d 00 3d 91 7a 5a bf
       -0.21584943 0.5952425 0.03130906 -0.8534327
000370 79 dc 64 3e 9d eb f1 3d 05 4d 21 bf 8d d4 96 3d
       0.22349729 0.11812518 -0.6300815 0.073647596
000380 6e 75 46 bf 89 7b 39 bf fd b4 2d bf 71 4c 02 bf
       -0.77522933 -0.72454125 -0.6785429 -0.5089789
000390 5b 2e a0 be 11 19 ba 3e 36 cf 90 bd cf cb 2b bf
       -0.31285366 0.3634725 -0.07070772 -0.6710786
0003a0 eb cc 4c bf 4a 72 2c be 95 68 5a bf 86 aa 89 3d
       -0.8000018 -0.16840473 -0.8531583 0.06721978
0003b0 31 86 57 bf 7f d3 85 be 20 c1 c2 bc cf eb c6 be
       -0.84189135 -0.2613792 -0.02377373 -0.38851783
0003c0 19 ea c3 bd 63 0c a5 3e 30 5f d8 bd 51 12 c4 3c
       -0.09566135 0.32236013 -0.105650306 0.023934515
0003d0 b2 21 53 3f e5 dc 01 3e 18 d9 fd bf f1 6a 3c 3f
       0.8247329 0.12681921 -1.9831877 0.7360068
0003e0 32 61 2f bf 38 6f 7c bd d6 3c 07 3c d2 17 b0 3d
       -0.68507683 -0.061629504 0.0082542505 0.08598293
0003f0 84 2f 5a bf 4d 4b 08 be 9d 18 58 be 83 e0 72 be
       -0.85228753 -0.13309975 -0.21103139 -0.23718457

fc2.bias f4 [64]
000000 2f 73 e6 3f 96 b9 c4 3f 99 69 6b 40 58 3e 07 40
       1.8003901 1.5369136 3.6783202 2.1131802
000010 6f 65 7e 40 8c 7b 7b 40 11 d7 82 40 91 47 3c 40
       3.974941 3.9294157 4.088753 2.941868
000020 2d 20 00 3e 93 23 8f 40 03 9d 74 40 fa 3f b2 40
       0.12512274 4.4730926 3.8220832 5.5703096
000030 2a af a5 3f 7a c5 fc 3f 91 a8 6b 40 96 e5 87 40
       1.2944081 1.9747765 3.6821635 4.2467756
000040 c2 f4 4c 40 8c d6 8c 40 cb ab 0a 3f 9b 39 2d 40
       3.2024388 4.40119 0.54168385 2.706641
000050 c4 33 4e 3f 3d df f4 3f d0 02 9d 40 9c 0e f9 3f
       0.8054774 1.9130627 4.9065933 1.9457583
000060 95 38 86 3f ed b9 22 be f1 09 c4 3f 79 78 27 40
       1.0486017 -0.15891238 1.5315534 2.616728
000070 a1 d0 52 40 81 60 37 40 ac 10 ad 40 61 50 4c 40
       3.2939837 2.8652651 5.408285 3.192406
000080 17 87 6e 40 d5 09 58 c0 f5 85 65 40 f5 f5 96 bf
       3.7269952 -3.3756 3.586301 -1.179381
000090 96 98 db 3d 13 88 64 40 e5 da 6d 40 56 8f 1e 40
       0.10722463 3.5708053 3.7164853 2.4774985
0000a0 16 bb 52 40 30 bc 65 40 35 8c 39 40 09 30 54 40
       3.2926688 3.589611 2.8991826 3.3154318
0000b0 e9 4e 0c bf 49 ce 2c 40 91 67 44 40 8a 65 09 3f
       -0.5480791 2.7000906 3.0688212 0.5367056
0000c0 38 ce 60 3f 54 7c 75 3f c8 87 b5 40 61 af 92 40
       0.87814665 0.95892835 5.672825 4.5839086
0000d0 af ad d4 3f c9 6a 4d 40 6c a1 04 40 4a 25 e4 3f
       1.6615504 3.2096426 2.0723524 1.782388
0000e0 79 29 8e 3e 4b 4a 4f 40 6c 34 91 40 00 aa af 3e
       0.27766016 3.2389095 4.537649 0.34309387
0000f0 b4 b4 34 40 65 d8 00 40 7f 89 93 40 eb 2b 8a 40
       2.8235292 2.0132077 4.610534 4.317861

fc3.weight f4 [32, 64]
000000 8a db 0a 3e 33 d5 e8 bd 9a 01 bf 3d 57 55 1a be
       0.1356031 -0.113687895 0.09326477 -0.15071617
000010 2d e2 65 be 10 53 e8 bc aa 94 b9 bd 1b de 81 be
       -0.2244956 -0.02835992 -0.090615585 -0.25364766
000020 01 01 84 3e 5f 4b 7b be e2 b0 a9 3e 17 00 96 be
       0.25782016 -0.2454047 0.33142763 -0.29296944
000030 c0 f3 9b be 42 86 97 3d 69 e8 17 be f6 fa 05 bd
       -0.30459404 0.073986545 -0.14834751 -0.032710038
000040 d5 74 14 3e f3 2e 85 3b c4 75 87 3e 37 e9 15 be
       0.14497693 0.0040644347 0.26457036 -0.14639746
000050 52 a5 39 3b 83 22 a3 bc 73 e0 19 3d 6f 00 d8 3d
       0.0028327298 -0.019913917 0.037567567 0.10546958
000060 43 17 ae bc cb 7b 71 3e 63 38 77 bd b9 bf 84 be
       -0.021251326 0.2358238 -0.06035651 -0.25927523
000070 55 b8 a2 be e1 af 1a be eb 61 81 be 0b 19 05 3e
       -0.3178126 -0.15106155 -0.25270018 0.12997834
000080 08 af 44 be 46 f4 6f 3e 02 4a 48 3e 59 d6 d9 3d
       -0.19207394 0.23433027 0.19559482 0.10636587
000090 92 e8 49 bc 77 ce 93 3e 8d 86 ce bd c4 fb b3 3e
       -0.0123235155 0.28868458 -0.10084257 0.3515302
0000a0 f3 41 00 3e 47 77 59 bc 32 a5 9c be 07 66 3e 3d
       0.12525158 -0.013273067 -0.30594784 0.04648402
0000b0 65 2d c2 be 5d e1 a3 3e f1 6f c1 3d c5 9c 26 3f
       -0.37925258 0.32007876 0.09445179 0.6508296
0000c0 13 98 1f 3d 94 25 61 3d 3d e3 c0 bd 7e ee cc bd
       0.03896339 0.054967478 -0.09418342 -0.10006426
0000d0 27 a9 89 3e 9b 4f 68 be 36 2d 1a bd 01 b7 b6 3e
       0.26886865 -0.22686617 -0.037640773 0.35686496
0000e0 0a 31 16 3f fc a4 31 3e 66 04 38 be e2 f0 44 3d
       0.5866858 0.17348093 -0.17970428 0.048081286
0000f0 8c 50 24 3d 89 3a ad 3d 91 ef b7 be a1 71 32 bd
       0.040115878 0.0845843 -0.35924962 -0.043565396
000100 2c e5 f3 3d 2a 98 8e 3d a8 4d 84 3e 88 3f 6c 3e
       0.119089454 0.06962617 0.25840497 0.2307111
000110 ea 7c 41 3e d6 90 7d 3d 11 93 16 3e f2 e8 f6 3d
       0.18895307 0.061905704 0.14704539 0.120561495
000120 fb e8 ce be 8c 43 a2 3d 48 18 5b 3e 6b 4c 00 3d
       -0.40412125 0.0792304 0.21395981 0.031322878
000130 11 78 e9 bd be 3f c1 3d 67 8f 78 3e fb 87 79 3d
       -0.11399854 0.09435986 0.24273454 0.060920697
000140 12 ca 03 3e 59 c4 8b 3e d5 96 86 bf 3c 89 14 3e
       0.12870052 0.2729824 -1.051478 0.14505476
000150 c4 bb 4d 3d 19 b0 8b 3d 5b 0d db 3c f7 fb 86 3d
       0.050227895 0.06820697 0.026739767 0.06591027
000160 75 f0 5c 3e a1 9a 07 c0 19 21 59 3e dc 27 13 3e
       0.21576102 -2.1188128 0.21204032 0.14370674
000170 e6 21 3b 3d 2b ec 39 3e f5 2e 82 3d a8 28 84 3e
       0.045686625 0.18156497 0.063566126 0.25812268
000180 e0 94 45 3e 27 05 13 bf ce 0f cc 3d 12 50 de be
       0.19295073 -0.57429737 0.09963952 -0.43420464
000190 f6 56 e1 3b 0b 7a 07 3e 53 7e 8c 3e 34 66 b7 3d
       0.0068768216 0.1323015 0.27440128 0.089550406
0001a0 74 9e 58 3e cb 40 ad 3d de 0e 01 3e b2 00 3e 3e
       0.21154195 0.08459624 0.12603328 0.18554953
0001b0 a7 32 10 be 89 79 c8 3d 40 1b 91 3e 65 c4 8f 3d
       -0.14081822 0.09788806 0.28341103 0.07019881
0001c0 c7 88 18 3e 09 8c a1 3d 93 9b 03 3d 85 ba 2e 3e
       0.14895926 0.07888038 0.03213079 0.17063339
0001d0 b7 23 e8 bd 25 fa 78 3e ca d1 77 3d 94 15 7a 3e
       -0.11334937 0.24314173 0.060502805 0.24422294
0001e0 f3 46 4f bf f3 95 09 3e 60 8e 09 3e d9 35 f9 3d
       -0.80967635 0.13436107 0.13433218 0.12168474
0001f0 22 47 53 3e 0b 77 4b 3e d4 f9 81 3b be 1c 37 3e
       0.20632604 0.1986963 0.0039665494 0.17882058
000200 9b 96 99 3c 19 20 c2 bc fb ca 4b bc 7e fa e2 bd
       0.018748572 -0.023696946 -0.012438531 -0.11082934
000210 47 fb 1b be d7 bd 8b 3d 71 85 a5 3d db da 5b bc
       -0.15232573 0.068233185 0.080820926 -0.013418878
000220 36 48 a7 bd 15 30 1c be 8d 4e 6a bd 16 57 27 bc
       -0.0816807 -0.15252717 -0.057203818 -0.010213634
000230 1c 28 f1 bd 52 69 86 3d d5 8f 14 be ff 9f aa 3c
       -0.117752284 0.06563057 -0.14507993 0.020828245
000240 68 36 03 bd dc 35 31 bd 02 f1 36 3d cb 28 74 3d
       -0.032034308 -0.043264255 0.044663437 0.059609216
000250 85 61 81 bd c1 96 a4 3d 42 b9 09 be 35 f5 37 3a
       -0.063174285 0.080365665 -0.13449576 0.00070174347
000260 8e be 9f 3d b2 68 8d bd d1 ff db bb f8 49 85 3d
       0.07800017 -0.06904735 -0.0067138453 0.06508249
000270 d4 e7 28 be 93 e1 b3 3c 64 6d 51 bd f1 26 a0 bd
       -0.16494685 0.021958148 -0.051129714 -0.078199275
000280 00 ae ab ba f8 3a 26 3d 21 26 46 bd 60 e4 0f be
       -0.0013098121 0.04058358 -0.048376206 -0.14051962
000290 07 85 03 3d 01 3d 71 3c 47 3d 58 3d 5a b1 85 bd
       0.032109287 0.014724017 0.052792814 -0.06527968
0002a0 86 74 84 bd 8b 84 6a bc bc 00 43 bc e6 e5 bb bc
       -0.064675376 -0.014313827 -0.011902031 -0.022936773
0002b0 75 fa f0 bd 47 fa 12 bd d0 e8 8e bc 11 1d 29 3b
       -0.11766521 -0.035883214 -0.017444998 0.0025804678
0002c0 fc 37 29 3b 1e 12 a7 bd 06 bd 50 ba 78 bb dc bd
       0.0025820723 -0.081577525 -0.0007962737 -0.10777944
0002d0 20 e7 1f bd 4b c7 11 bd d9 46 f3 bd f5 29 90 3d
       -0.039038777 -0.03559045 -0.118787475 0.07039253
0002e0 ea 8c 9d bd 11 2a ce bd 3d f8 c2 bd a5 e8 3c bc
       -0.07692893 -0.10066617 -0.09520004 -0.011530076
0002f0 b7 74 01 be 28 ba a1 bc ca 3f a7 3c 0e 6f e6 3c
       -0.1264218 -0.019742087 0.02041616 0.028129127
000300 68 0b c8 3c bf f9 0f 3d 40 4c 7f 3d 98 30 8a bc
       0.024419501 0.035150286 0.062328577 -0.016868874
000310 87 6f d2 bd 30 2d 0e bd ea f5 e5 bd 14 02 a4 bd
       -0.102751784 -0.034711063 -0.11228545 -0.08008209
000320 16 14 9d bd e0 ac 1b 3c e0 32 86 3c 55 57 95 bd
       -0.07669847 0.009501666 0.016381681 -0.07292048
000330 48 2d 18 bd 07 66 b3 3c 40 02 f4 bc 00 16 7c bc
       -0.03715256 0.021899236 -0.02978623 -0.015386105
000340 c0 1b fc bd 30 48 8f bc 26 2a af bd 72 f4 fd bd
       -0.123099804 -0.017490476 -0.08552961 -0.1240014
000350 25 45 0e bd 2c 4a b2 3d 60 87 01 3c 52 6b 9b bd
       -0.03473391 0.087055534 0.007905811 -0.07588829
000360 fe 2a ff bd 20 97 8b bd 30 a6 df bd 08 89 e9 3d
       -0.12459372 -0.06815934 -0.109203696 0.1140309
000370 bc 4e 33 bd b4 f8 aa bd 80 71 94 3a 2b 20 06 3d
       -0.04377626 -0.083482176 0.001132533 0.03274552
000380 28 f7 e6 bc 33 46 a4 3d e8 ff 98 bc d8 a2 6c bd
       -0.028194025 0.08021202 -0.018676713 -0.057772487
000390 d8 4a bb bd 64 ab 6a bd da 53 b3 3d bc 38 fc bd
       -0.09145135 -0.057292357 0.08756228 -0.12315509
0003a0 46 3e c5 bd a0 38 cd bb a0 a7 de bc a6 a3 db bd
       -0.09631018 -0.0062628537 -0.02717954 -0.10724573
0003b0 2f d7 82 3d 0c 76 c7 3d 8a d7 b5 3d 66 9e ea 3d
       0.06388699 0.097393125 0.088790014 0.11455993
0003c0 df dc 03 3b 58 8b d6 bd 8c b6 ed bd 8a 71 f7 bd
       0.0020120663 -0.104757965 -0.11607084 -0.12082203
0003d0 5d d3 15 be 80 9e 3c bb 0e 2b 7e 3d 32 3b 8a 3d
       -0.1463141 -0.0028780997 0.06205278 0.06749572
0003e0 90 81 2c bc 28 f7 fd bd a8 27 a2 3d 37 6e ea bc
       -0.010528937 -0.12400657 0.0791772 -0.028617008
0003f0 15 cc 51 bd 18 cb b5 bd a0 e1 26 bc d0 b8 be 3d
       -0.05122002 -0.08876628 -0.010185629 0.09312594

fc3.bias f4 [32]
000000 63 e7 ef 3d f6 37 07 40 b4 5c 92 bd 4b 77 0c be
       0.117140554 2.1127906 -0.07146588 -0.13717382
000010 bb 6d 19 40 7e 50 25 40 5e 91 c4 bf 7f 1f 77 bf
       2.3973224 2.5830379 -1.5356863 -0.96532434
000020 ea db 93 40 2d 2f 03 40 7f f4 65 40 25 d4 09 40
       4.620595 2.0497544 3.5930479 2.1535733
000030 1a 65 83 bd 3a 28 ea 3d c2 4a 55 40 6c da 0a bf
       -0.06415768 0.11433454 3.3326879 -0.54239535
000040 47 2f 03 3f 89 6f 41 be b3 58 0b 3f 7e 5c d5 bf
       0.51244015 -0.18890204 0.5443222 -1.6668851
000050 5e 68 82 40 25 88 6c 3f 08 b4 10 c0 20 9a 5b 40
       4.07524 0.9239524 -2.2609882 3.431282
000060 16 9c 9a bd f1 65 84 40 25 04 79 40 af 15 1d bd
       -0.07549302 4.137444 3.890878 -0.038350757
000070 07 01 f6 bd 38 72 b7 40 50 7d 70 40 a2 90 c5 3f
       -0.12011915 5.7326927 3.7576485 1.5434763

fc4.weight f4 [15, 32]
000000 85 b6 b0 3d e3 11 95 bd e6 dd 08 be 55 b8 f5 3d
       0.08628563 -0.07278802 -0.13365898 0.11998049
000010 9f f8 2b be 7c 03 af 3d 37 7e 15 be 00 53 ac bc
       -0.1679406 0.085455865 -0.14598928 -0.021035671
000020 d6 f8 b2 bc ea 5e f9 3d 10 6c 0a 3b fe af f2 3d
       -0.02184717 0.121763065 0.002112154 0.11849974
000030 df 29 a4 3d ee 03 71 bd d8 51 82 be f6 8a b2 3b
       0.08015799 -0.05884164 -0.25453067 0.0054486943
000040 ca 30 8f 3d ac 34 ce 3c 4e f9 81 be 3d c7 8c bc
       0.06991728 0.0251716 -0.25385517 -0.017184848
000050 a6 ab 0c 3e 88 ea 0c 3e 4a fa ef 3d 5e b5 7a bb
       0.13737354 0.13761342 0.11717661 -0.0038255076
000060 0a 41 5d bd 54 e1 24 be 8d 78 be 3c fb 81 3a bc
       -0.054017104 -0.16101581 0.023250842 -0.011383529
000070 cd df 2d be 3b 6e 16 3e c6 0b e2 3b 2f 1e 97 bc
       -0.16979904 0.14690487 0.006898376 -0.01844701
000080 29 80 cc be 04 ea 6d be 8f b5 d5 3d 5f 68 03 3e
       -0.39941528 -0.23233801 0.1043502 0.12832783
000090 a4 28 88 3e ae db 32 3e 23 31 02 3c d0 74 0f 3e
       0.26593506 0.17466614 0.007946285 0.14009404
0000a0 5f 51 b1 be 35 32 c8 3d 62 bf dd be e7 0d 6c 3e
       -0.34632394 0.09775201 -0.43310076 0.23052178
0000b0 0d 7c 58 3c 59 f5 dc 3a c1 94 2c 3e b6 d4 01 3e
       0.01321317 0.0016857787 0.1685362 0.12678799
0000c0 40 40 77 3c 0b bc 19 be 25 07 7c be d7 b1 cb 3e
       0.015091002 -0.15013139 -0.246121 0.3978412
0000d0 30 df 02 bf 9c 5c c3 3c c7 a5 8d be 9b cc 17 3e
       -0.5112181 0.02384787 -0.2766554 0.14824145
0000e0 fb 45 6d 3c 37 88 74 be 99 d5 9f bd 39 be 27 3d
       0.014482017 -0.23880087 -0.078044124 0.040952895
0000f0 16 b3 ad 3d 13 e6 9e bd 0f 04 ec be 39 00 4e bf
       0.084814236 -0.07758727 -0.46096846 -0.8046909
000100 89 34 8d 3e 51 29 3d 3e 28 a4 e3 bd 62 07 a9 3b
       0.27579144 0.18472792 -0.11115295 0.005158351
000110 5e ea 1e 3d 8c d2 4a 3d e1 dd be be 84 03 87 bd
       0.03879773 0.0495172 -0.37278655 -0.065924674
000120 9a d9 97 3e f0 94 40 be 76 53 d8 3e 96 19 f9 3d
       0.29658204 -0.18806815 0.42251176 0.12163083
000130 8f bf 90 3e a9 63 db bd 44 15 4c be 10 db c8 3e
       0.28271148 -0.10712368 -0.19929987 0.3922963
000140 88 c3 4c 3e 3b 7a 87 be a3 4e ad 3d 26 2e da be
       0.19996464 -0.26460442 0.084622644 -0.42613333
000150 5e ce af 3e 87 7e 5d bd ec 4d 32 3e 11 11 00 bf
       0.34337133 -0.054075744 0.17412537 -0.5002604
000160 d9 c1 c7 3d fc 2a ab 3e 07 38 b7 3d 0a fe 84 bd
       0.097537704 0.33431232 0.08946233 -0.064937666
000170 c7 71 af 3d e3 b8 0a 3e 15 60 be 3e 33 97 14 3f
       0.08566623 0.13547091 0.3718268 0.5804321
000180 d1 24 d6 bd 5b 17 07 be bc 17 c6 bd c1 59 92 bd
       -0.10456241 -0.13192503 -0.09672496 -0.071460254
000190 8d 2e de 3d 12 e2 98 bc 9e a0 94 3d e8 42 ba bc
       0.108487226 -0.018662486 0.07257198 -0.022736982
0001a0 45 0a 69 3d 84 7a 01 be 9a fa e3 3c a7 42 26 3e
       0.05689456 -0.12644392 0.027829457 0.16236363
0001b0 aa 84 94 bc 3f 2e 15 be 4c 25 0c 3e 9a 2b 19 bd
       -0.018129665 -0.14568423 0.13686103 -0.037395097
0001c0 69 c5 07 be dd 99 e6 3c 72 bb 84 3c e8 60 01 3d
       -0.132589 0.02814954 0.016202662 0.031586558
0001d0 a4 e5 2f bc 38 10 00 3e a7 06 30 bd 8a a8 12 be
       -0.010735903 0.12506187 -0.042975094 -0.14322105
0001e0 4b 80 c2 bc 6d 52 ac bd 0c ce 27 3e 9e 50 cb 3d
       -0.023742815 -0.08414159 0.16387194 0.09927486
0001f0 82 65 db bc fd e9 3d 3d b9 d8 aa bd 7a 2a fd 3c
       -0.026781801 0.046365727 -0.08342118 0.030904043
000200 ae ef f6 3d bc be c5 3d 88 8e 37 3e 8b c3 0a 3e
       0.12057434 0.0965552 0.17925465 0.13551156
000210 05 65 56 3e e5 23 94 3e c8 80 ca 3d 42 1f 06 3e
       0.20936973 0.28933635 0.09887844 0.13097861
000220 67 30 0a 3d 2e 51 30 be 32 47 2c be 5f c7 bd 3d
       0.033737566 -0.17218468 -0.16824034 0.09266543
000230 6c 78 20 be 3b 09 71 bd a2 c2 15 bd 66 77 d4 3e
       -0.15670937 -0.058846693 -0.03656257 0.41497344
000240 1f ee a0 3e 7e 8b a1 bd 6b b2 bd be 0d 60 27 be
       0.31431672 -0.07887934 -0.37050185 -0.16345234
000250 f2 9e 49 3d 3d 64 5d bd 1a 4c 48 bd b1 32 95 bd
       0.049223848 -0.054050673 -0.0489007 -0.07285059
000260 79 c7 a0 3d ed 0b b0 be 8d 00 74 3e 78 9a 13 bd
       0.078505464 -0.343841 0.23828335 -0.036035985
000270 fe ea 94 3d 3d a8 94 be 0b 0a 8f bd 52 4d b7 3d
       0.07271384 -0.29034606 -0.069843374 0.089502946
000280 db 63 0e be ab 91 8a 3d 3c 86 c9 3d 76 b1 9b bd
       -0.1390528 0.06766065 0.09840056 -0.07602207
000290 0a f7 00 3d dd 93 b1 be 1d da 7f bd 22 b3 40 bd
       0.031485595 -0.34683123 -0.06246387 -0.047045834
0002a0 c5 33 c0 3d 1f 61 ab bd cd b4 0c 3e c8 a7 7d bd
       0.09384874 -0.08368134 0.13740845 -0.061927587
0002b0 c6 2b e9 bb d7 41 44 be 2b b6 bb 3e 92 49 0d bf
       -0.007115814 -0.19165741 0.3666242 -0.55190384
0002c0 6e 82 08 be 7d f6 86 3e 23 5a dc 3e f5 94 62 be
       -0.13331005 0.2635993 0.4303752 -0.22127135
0002d0 10 5c 0c 3d 74 d0 43 be 40 d5 b9 3d ff 0f 9e 3e
       0.034267485 -0.19122487 0.09073877 0.3087158
0002e0 06 1a fa bd a2 ed 2c 3e 39 ca 12 3e 45 bf 70 3d
       -0.12211995 0.16887525 0.14334954 0.05877616
0002f0 23 05 4d 3d b3 e1 45 be 7c 7f 2d bd 8e 99 76 3d
       0.050053727 -0.19324379 -0.042357907 0.060205035
000300 15 88 9f 3e 16 40 4e 3d a3 e6 66 3e 5c 07 bf bd
       0.3115851 0.050354086 0.22548918 -0.093275756
000310 fd 0c 60 3e 04 01 bc 3d 10 06 f0 be 09 04 05 3d
       0.21879955 0.09179881 -0.46879625 0.03247455
000320 ea 51 4a 3b cc 53 0c be 35 b0 58 3d 41 da ff bd
       0.0030871578 -0.13703841 0.05290242 -0.124928005
000330 89 3e 12 3d 50 e0 f4 3d 61 0b 47 3e 76 73 86 3e
       0.03570417 0.11956847 0.19437934 0.26259965
000340 02 d6 8a 3e 55 94 b4 bd 79 44 d3 3d 5c cd 0f be
       0.271164 -0.088173546 0.103157945 -0.14043182
000350 a3 eb 66 3d 26 2e 26 be a2 53 aa bd b6 f5 6a 3a
       0.056377064 -0.16228542 -0.08316733 0.00089630054
000360 4e a1 10 be e6 42 e1 bd 9a 54 dd bd 10 3b 86 3d
       -0.14124033 -0.10999088 -0.10807152 0.06554234
000370 22 61 47 3e 11 ca da 3d 60 d9 61 bd 2e a2 55 be
       0.19470647 0.10683072 -0.055138946 -0.20862648
000380 5f 9a 36 3e 18 50 dd bd ec bc 0c be d0 9a f3 bd
       0.17832325 -0.10806292 -0.13743943 -0.118947625
000390 95 dc d3 bd 1f a9 55 bc 43 c0 00 be ec 45 df bc
       -0.10344807 -0.01304081 -0.12573342 -0.027255021
0003a0 3e bc b4 3c 70 52 eb bd 94 cc 25 3e 05 7c 10 3d
       0.022062417 -0.11490333 0.16191322 0.035274524
0003b0 85 89 31 3d ee d4 55 bc 39 b6 27 be f9 00 d7 bd
       0.04334404 -0.013051255 -0.16378106 -0.104982324
0003c0 23 a8 37 bd 92 57 11 3e d2 8d b3 bd 6a 82 2c 3c
       -0.044838082 0.14193562 -0.087672845 0.01052914
0003d0 d7 d8 46 3d 03 c3 22 be f0 70 20 3e d6 1b 82 3d
       0.04854664 -0.15894704 0.15668082 0.063529655
0003e0 ad 13 5a bc 12 25 57 bd c9 5e de bc 9a 93 96 3d
       -0.013310355 -0.052525587 -0.027144806 0.073523715
0003f0 92 2f 08 bd 66 9f 74 3e 7a 93 81 3d 02 9b 1d be
       -0.03324849 0.2388893 0.06326957 -0.15391162

fc4.bias f4 [15]
000000 e9 23 20 40 fc b0 ea 3c 06 ab 3d 40 86 39 1e bf
       2.5021918 0.028648846 2.9635634 -0.61806524
000010 c5 c4 36 be 23 17 45 40 74 00 6b 41 c7 ca 2d 41
       -0.17848499 3.0795372 14.687611 10.862006
000020 cd 5f 89 40 de 82 0a c1 d2 f2 a1 40 9b 9e 5e 40
       4.2929444 -8.65695 5.060891 3.4784305
000030 fc 17 c9 bf a5 8d 9d 40 d8 f9 8f 40
       -1.5710444 4.9235406 4.4992485
